warning: CUDA version 12.1 is only partially supported
warning: CUDA version 12.1 is only partially supported
[ict-debug] driver.cc: After return 5, module:

module attributes {dlti.dl_spec = #dlti.dl_spec<#dlti.dl_entry<i32, dense<32> : vector<2xi32>>, #dlti.dl_entry<i8, dense<8> : vector<2xi32>>, #dlti.dl_entry<i16, dense<16> : vector<2xi32>>, #dlti.dl_entry<f128, dense<128> : vector<2xi32>>, #dlti.dl_entry<f16, dense<16> : vector<2xi32>>, #dlti.dl_entry<!llvm.ptr<270>, dense<32> : vector<4xi32>>, #dlti.dl_entry<f64, dense<64> : vector<2xi32>>, #dlti.dl_entry<i64, dense<64> : vector<2xi32>>, #dlti.dl_entry<f80, dense<128> : vector<2xi32>>, #dlti.dl_entry<!llvm.ptr<271>, dense<32> : vector<4xi32>>, #dlti.dl_entry<!llvm.ptr<272>, dense<64> : vector<4xi32>>, #dlti.dl_entry<!llvm.ptr, dense<64> : vector<4xi32>>, #dlti.dl_entry<i1, dense<8> : vector<2xi32>>, #dlti.dl_entry<"dlti.endianness", "little">, #dlti.dl_entry<"dlti.stack_alignment", 128 : i32>>, llvm.data_layout = "e-m:e-p270:32:32-p271:32:32-p272:64:64-i64:64-f80:128-n8:16:32:64-S128", llvm.target_triple = "x86_64-unknown-linux-gnu", polygeist.gpu_module.llvm.data_layout = "e-i64:64-i128:128-v16:16-v32:32-n16:32:64", polygeist.gpu_module.llvm.target_triple = "nvptx64-nvidia-cuda", "polygeist.target-cpu" = "x86-64", "polygeist.target-features" = "+cmov,+cx8,+fxsr,+mmx,+sse,+sse2,+x87", "polygeist.tune-cpu" = "generic"} {
  func.func private @_Z38__device_stub__symmetric_matmul_kernelPKfS0_Pfi(%arg0: memref<?xf32>, %arg1: memref<?xf32>, %arg2: memref<?xf32>, %arg3: i32) attributes {llvm.linkage = #llvm.linkage<external>, polygeist.device_only_func = "1"} {
    call @_Z23symmetric_matmul_kernelPKfS0_Pfi(%arg0, %arg1, %arg2, %arg3) : (memref<?xf32>, memref<?xf32>, memref<?xf32>, i32) -> ()
    return
  }
  func.func private @_Z23symmetric_matmul_kernelPKfS0_Pfi(%arg0: memref<?xf32>, %arg1: memref<?xf32>, %arg2: memref<?xf32>, %arg3: i32) attributes {llvm.linkage = #llvm.linkage<external>, polygeist.device_only_func = "1"} {
    %c32_i32 = arith.constant 32 : i32
    %cst = arith.constant 0.000000e+00 : f32
    %false = arith.constant false
    %0 = arith.index_cast %arg3 : i32 to index
    %alloca = memref.alloca() : memref<32x32xf32, 5>
    %alloca_0 = memref.alloca() : memref<32x32xf32, 5>
    %1 = gpu.block_id  x
    %2 = arith.index_cast %1 : index to i32
    %3 = gpu.block_id  y
    %4 = arith.index_cast %3 : index to i32
    %5 = gpu.thread_id  x
    %6 = arith.index_cast %5 : index to i32
    %7 = arith.cmpi slt, %6, %c32_i32 : i32
    %8 = gpu.thread_id  y
    %9 = arith.index_cast %8 : index to i32
    %10 = arith.cmpi slt, %9, %c32_i32 : i32
    %11 = arith.muli %arg3, %c32_i32 : i32
    %12 = arith.muli %11, %4 : i32
    %13 = arith.addi %12, %arg3 : i32
    %14 = arith.index_cast %13 : i32 to index
    %15 = arith.index_cast %12 : i32 to index
    %16 = arith.index_cast %12 : i32 to index
    %17 = arith.muli %arg3, %9 : i32
    %18 = arith.index_cast %17 : i32 to index
    %19 = arith.index_cast %17 : i32 to index
    %20 = arith.index_cast %17 : i32 to index
    %21 = arith.muli %arg3, %arg3 : i32
    %22 = arith.index_cast %21 : i32 to index
    %23 = arith.andi %10, %7 : i1
    %24 = affine.for %arg4 = %15 to %14 step 32 iter_args(%arg5 = %cst) -> (f32) {
      %34 = affine.if affine_set<(d0)[s0, s1, s2, s3, s4] : (-d0 - s0 + s1 - s2 - s3 + s4 - 1 >= 0)>(%arg4)[%16, %15, %18, %5, %22] -> i1 {
        affine.yield %23 : i1
      } else {
        affine.yield %false : i1
      }
      scf.if %34 {
        %36 = affine.load %arg0[%arg4 + symbol(%16) - symbol(%15) + symbol(%19) + symbol(%5)] : memref<?xf32>
        affine.store %36, %alloca_0[symbol(%8), symbol(%5)] : memref<32x32xf32, 5>
        %37 = affine.load %arg1[((%arg4 - symbol(%15)) floordiv 32) * (symbol(%0) * 32) + symbol(%1) * 32 + symbol(%20) + symbol(%5)] : memref<?xf32>
        affine.store %37, %alloca[symbol(%8), symbol(%5)] : memref<32x32xf32, 5>
      } else {
        affine.store %cst, %alloca_0[symbol(%8), symbol(%5)] : memref<32x32xf32, 5>
        affine.store %cst, %alloca[symbol(%8), symbol(%5)] : memref<32x32xf32, 5>
      }
      nvvm.barrier0
      %35 = affine.for %arg6 = 0 to 32 iter_args(%arg7 = %arg5) -> (f32) {
        %36 = affine.load %alloca_0[symbol(%8), %arg6] : memref<32x32xf32, 5>
        %37 = affine.load %alloca[%arg6, symbol(%5)] : memref<32x32xf32, 5>
        %38 = arith.mulf %36, %37 : f32
        %39 = arith.addf %arg7, %38 : f32
        affine.yield %39 : f32
      }
      nvvm.barrier0
      affine.yield %35 : f32
    }
    %25 = arith.muli %4, %c32_i32 : i32
    %26 = arith.addi %25, %9 : i32
    %27 = arith.muli %26, %arg3 : i32
    %28 = arith.index_cast %27 : i32 to index
    %29 = arith.cmpi slt, %26, %arg3 : i32
    %30 = arith.muli %2, %c32_i32 : i32
    %31 = arith.addi %30, %6 : i32
    %32 = arith.cmpi slt, %31, %arg3 : i32
    %33 = arith.andi %29, %32 : i1
    scf.if %33 {
      affine.store %24, %arg2[symbol(%28) + symbol(%1) * 32 + symbol(%5)] : memref<?xf32>
    }
    return
  }
}
[ict-debug] driver.cc: After return 5, module: end

[ict-debug] driver.cc: After return 6, module:

module attributes {dlti.dl_spec = #dlti.dl_spec<#dlti.dl_entry<i32, dense<32> : vector<2xi32>>, #dlti.dl_entry<i8, dense<8> : vector<2xi32>>, #dlti.dl_entry<i16, dense<16> : vector<2xi32>>, #dlti.dl_entry<f128, dense<128> : vector<2xi32>>, #dlti.dl_entry<f16, dense<16> : vector<2xi32>>, #dlti.dl_entry<!llvm.ptr<270>, dense<32> : vector<4xi32>>, #dlti.dl_entry<f64, dense<64> : vector<2xi32>>, #dlti.dl_entry<i64, dense<64> : vector<2xi32>>, #dlti.dl_entry<f80, dense<128> : vector<2xi32>>, #dlti.dl_entry<!llvm.ptr<271>, dense<32> : vector<4xi32>>, #dlti.dl_entry<!llvm.ptr<272>, dense<64> : vector<4xi32>>, #dlti.dl_entry<!llvm.ptr, dense<64> : vector<4xi32>>, #dlti.dl_entry<i1, dense<8> : vector<2xi32>>, #dlti.dl_entry<"dlti.endianness", "little">, #dlti.dl_entry<"dlti.stack_alignment", 128 : i32>>, llvm.data_layout = "e-m:e-p270:32:32-p271:32:32-p272:64:64-i64:64-f80:128-n8:16:32:64-S128", llvm.target_triple = "x86_64-unknown-linux-gnu", polygeist.gpu_module.llvm.data_layout = "e-i64:64-i128:128-v16:16-v32:32-n16:32:64", polygeist.gpu_module.llvm.target_triple = "nvptx64-nvidia-cuda", "polygeist.target-cpu" = "x86-64", "polygeist.target-features" = "+cmov,+cx8,+fxsr,+mmx,+sse,+sse2,+x87", "polygeist.tune-cpu" = "generic"} {
  func.func private @_Z23symmetric_matmul_kernelPKfS0_Pfi(%arg0: memref<?xf32>, %arg1: memref<?xf32>, %arg2: memref<?xf32>, %arg3: i32) attributes {llvm.linkage = #llvm.linkage<external>, polygeist.device_only_func = "1"} {
    %c-1 = arith.constant -1 : index
    %c0 = arith.constant 0 : index
    %c32 = arith.constant 32 : index
    %c32_i32 = arith.constant 32 : i32
    %cst = arith.constant 0.000000e+00 : f32
    %0 = arith.index_cast %arg3 : i32 to index
    %alloca = memref.alloca() : memref<32x32xf32, 5>
    %alloca_0 = memref.alloca() : memref<32x32xf32, 5>
    %1 = gpu.block_id  x
    %2 = arith.index_cast %1 : index to i32
    %3 = gpu.block_id  y
    %4 = arith.index_cast %3 : index to i32
    %5 = gpu.thread_id  x
    %6 = arith.index_cast %5 : index to i32
    %7 = gpu.thread_id  y
    %8 = arith.index_cast %7 : index to i32
    %9 = arith.muli %arg3, %c32_i32 : i32
    %10 = arith.muli %9, %4 : i32
    %11 = arith.addi %10, %arg3 : i32
    %12 = arith.index_cast %11 : i32 to index
    %13 = arith.index_cast %10 : i32 to index
    %14 = arith.muli %arg3, %8 : i32
    %15 = arith.index_cast %14 : i32 to index
    %16 = arith.muli %arg3, %arg3 : i32
    %17 = arith.index_cast %16 : i32 to index
    %18 = arith.muli %0, %c32 : index
    %19 = arith.muli %1, %c32 : index
    %20 = arith.addi %19, %15 : index
    %21 = arith.addi %20, %5 : index
    %22 = affine.for %arg4 = %13 to %12 step 32 iter_args(%arg5 = %cst) -> (f32) {
      affine.if affine_set<(d0)[s0, s1, s2, s3] : (-d0 - s0 - s1 + s2 - 1 >= 0, -s3 + 31 >= 0, -s1 + 31 >= 0)>(%arg4)[%15, %5, %17, %7] {
        %33 = affine.load %arg0[%arg4 + symbol(%15) + symbol(%5)] : memref<?xf32>
        affine.store %33, %alloca_0[symbol(%7), symbol(%5)] : memref<32x32xf32, 5>
        %34 = arith.subi %arg4, %13 : index
        %35 = arith.cmpi slt, %34, %c0 : index
        %36 = arith.subi %c-1, %34 : index
        %37 = arith.select %35, %36, %34 : index
        %38 = arith.divsi %37, %c32 : index
        %39 = arith.subi %c-1, %38 : index
        %40 = arith.select %35, %39, %38 : index
        %41 = arith.muli %40, %18 : index
        %42 = arith.addi %41, %21 : index
        %43 = memref.load %arg1[%42] : memref<?xf32>
        affine.store %43, %alloca[symbol(%7), symbol(%5)] : memref<32x32xf32, 5>
      } else {
        affine.store %cst, %alloca_0[symbol(%7), symbol(%5)] : memref<32x32xf32, 5>
        affine.store %cst, %alloca[symbol(%7), symbol(%5)] : memref<32x32xf32, 5>
      }
      nvvm.barrier0
      %32 = affine.for %arg6 = 0 to 32 iter_args(%arg7 = %arg5) -> (f32) {
        %33 = affine.load %alloca_0[symbol(%7), %arg6] : memref<32x32xf32, 5>
        %34 = affine.load %alloca[%arg6, symbol(%5)] : memref<32x32xf32, 5>
        %35 = arith.mulf %33, %34 : f32
        %36 = arith.addf %arg7, %35 : f32
        affine.yield %36 : f32
      }
      nvvm.barrier0
      affine.yield %32 : f32
    }
    %23 = arith.muli %4, %c32_i32 : i32
    %24 = arith.addi %23, %8 : i32
    %25 = arith.muli %24, %arg3 : i32
    %26 = arith.index_cast %25 : i32 to index
    %27 = arith.cmpi slt, %24, %arg3 : i32
    %28 = arith.muli %2, %c32_i32 : i32
    %29 = arith.addi %28, %6 : i32
    %30 = arith.cmpi slt, %29, %arg3 : i32
    %31 = arith.andi %27, %30 : i1
    scf.if %31 {
      affine.store %22, %arg2[symbol(%26) + symbol(%1) * 32 + symbol(%5)] : memref<?xf32>
    }
    return
  }
}
[ict-debug] driver.cc: After return 6, module: end

WrapAndReplaceBarrierPass::runOnOperation(): before execute: 
module attributes {dlti.dl_spec = #dlti.dl_spec<#dlti.dl_entry<i32, dense<32> : vector<2xi32>>, #dlti.dl_entry<i8, dense<8> : vector<2xi32>>, #dlti.dl_entry<i16, dense<16> : vector<2xi32>>, #dlti.dl_entry<f128, dense<128> : vector<2xi32>>, #dlti.dl_entry<f16, dense<16> : vector<2xi32>>, #dlti.dl_entry<!llvm.ptr<270>, dense<32> : vector<4xi32>>, #dlti.dl_entry<f64, dense<64> : vector<2xi32>>, #dlti.dl_entry<i64, dense<64> : vector<2xi32>>, #dlti.dl_entry<f80, dense<128> : vector<2xi32>>, #dlti.dl_entry<!llvm.ptr<271>, dense<32> : vector<4xi32>>, #dlti.dl_entry<!llvm.ptr<272>, dense<64> : vector<4xi32>>, #dlti.dl_entry<!llvm.ptr, dense<64> : vector<4xi32>>, #dlti.dl_entry<i1, dense<8> : vector<2xi32>>, #dlti.dl_entry<"dlti.endianness", "little">, #dlti.dl_entry<"dlti.stack_alignment", 128 : i32>>, llvm.data_layout = "e-m:e-p270:32:32-p271:32:32-p272:64:64-i64:64-f80:128-n8:16:32:64-S128", llvm.target_triple = "x86_64-unknown-linux-gnu", polygeist.gpu_module.llvm.data_layout = "e-i64:64-i128:128-v16:16-v32:32-n16:32:64", polygeist.gpu_module.llvm.target_triple = "nvptx64-nvidia-cuda", "polygeist.target-cpu" = "x86-64", "polygeist.target-features" = "+cmov,+cx8,+fxsr,+mmx,+sse,+sse2,+x87", "polygeist.tune-cpu" = "generic"} {
  func.func private @_Z23symmetric_matmul_kernelPKfS0_Pfi(%arg0: memref<?xf32>, %arg1: memref<?xf32>, %arg2: memref<?xf32>, %arg3: i32) attributes {llvm.linkage = #llvm.linkage<external>, polygeist.device_only_func = "1"} {
    %c1 = arith.constant 1 : index
    %c31 = arith.constant 31 : index
    %c-1 = arith.constant -1 : index
    %c0 = arith.constant 0 : index
    %c32 = arith.constant 32 : index
    %c32_i32 = arith.constant 32 : i32
    %cst = arith.constant 0.000000e+00 : f32
    %0 = arith.index_cast %arg3 : i32 to index
    %alloca = memref.alloca() : memref<32x32xf32, 5>
    %alloca_0 = memref.alloca() : memref<32x32xf32, 5>
    %1 = gpu.block_id  x
    %2 = arith.index_cast %1 : index to i32
    %3 = gpu.block_id  y
    %4 = arith.index_cast %3 : index to i32
    %5 = gpu.thread_id  x
    %6 = arith.index_cast %5 : index to i32
    %7 = gpu.thread_id  y
    %8 = arith.index_cast %7 : index to i32
    %9 = arith.muli %arg3, %c32_i32 : i32
    %10 = arith.muli %9, %4 : i32
    %11 = arith.addi %10, %arg3 : i32
    %12 = arith.index_cast %11 : i32 to index
    %13 = arith.index_cast %10 : i32 to index
    %14 = arith.muli %arg3, %8 : i32
    %15 = arith.index_cast %14 : i32 to index
    %16 = arith.muli %arg3, %arg3 : i32
    %17 = arith.index_cast %16 : i32 to index
    %18 = arith.muli %0, %c32 : index
    %19 = arith.muli %1, %c32 : index
    %20 = arith.addi %19, %15 : index
    %21 = arith.addi %20, %5 : index
    %22 = scf.for %arg4 = %13 to %12 step %c32 iter_args(%arg5 = %cst) -> (f32) {
      %32 = arith.muli %arg4, %c-1 : index
      %33 = arith.subi %32, %15 : index
      %34 = arith.subi %33, %5 : index
      %35 = arith.addi %34, %17 : index
      %36 = arith.addi %35, %c-1 : index
      %37 = arith.cmpi sge, %36, %c0 : index
      %38 = arith.subi %c31, %7 : index
      %39 = arith.cmpi sge, %38, %c0 : index
      %40 = arith.andi %37, %39 : i1
      %41 = arith.subi %c31, %5 : index
      %42 = arith.cmpi sge, %41, %c0 : index
      %43 = arith.andi %40, %42 : i1
      scf.if %43 {
        %45 = arith.addi %arg4, %15 : index
        %46 = arith.addi %45, %5 : index
        %47 = memref.load %arg0[%46] : memref<?xf32>
        memref.store %47, %alloca_0[%7, %5] : memref<32x32xf32, 5>
        %48 = arith.subi %arg4, %13 : index
        %49 = arith.cmpi slt, %48, %c0 : index
        %50 = arith.subi %c-1, %48 : index
        %51 = arith.select %49, %50, %48 : index
        %52 = arith.divsi %51, %c32 : index
        %53 = arith.subi %c-1, %52 : index
        %54 = arith.select %49, %53, %52 : index
        %55 = arith.muli %54, %18 : index
        %56 = arith.addi %55, %21 : index
        %57 = memref.load %arg1[%56] : memref<?xf32>
        memref.store %57, %alloca[%7, %5] : memref<32x32xf32, 5>
      } else {
        memref.store %cst, %alloca_0[%7, %5] : memref<32x32xf32, 5>
        memref.store %cst, %alloca[%7, %5] : memref<32x32xf32, 5>
      }
      nvvm.barrier0
      %44 = scf.for %arg6 = %c0 to %c32 step %c1 iter_args(%arg7 = %arg5) -> (f32) {
        %45 = memref.load %alloca_0[%7, %arg6] : memref<32x32xf32, 5>
        %46 = memref.load %alloca[%arg6, %5] : memref<32x32xf32, 5>
        %47 = arith.mulf %45, %46 : f32
        %48 = arith.addf %arg7, %47 : f32
        scf.yield %48 : f32
      }
      nvvm.barrier0
      scf.yield %44 : f32
    }
    %23 = arith.muli %4, %c32_i32 : i32
    %24 = arith.addi %23, %8 : i32
    %25 = arith.muli %24, %arg3 : i32
    %26 = arith.index_cast %25 : i32 to index
    %27 = arith.cmpi slt, %24, %arg3 : i32
    %28 = arith.muli %2, %c32_i32 : i32
    %29 = arith.addi %28, %6 : i32
    %30 = arith.cmpi slt, %29, %arg3 : i32
    %31 = arith.andi %27, %30 : i1
    scf.if %31 {
      %32 = arith.addi %26, %19 : index
      %33 = arith.addi %32, %5 : index
      memref.store %22, %arg2[%33] : memref<?xf32>
    }
    return
  }
}
WrapAndReplaceBarrierPass::runOnOperation(): before execute: end
WrapAndReplaceBarrierPass::runOnOperation(): after execute: 
module attributes {dlti.dl_spec = #dlti.dl_spec<#dlti.dl_entry<i32, dense<32> : vector<2xi32>>, #dlti.dl_entry<i8, dense<8> : vector<2xi32>>, #dlti.dl_entry<i16, dense<16> : vector<2xi32>>, #dlti.dl_entry<f128, dense<128> : vector<2xi32>>, #dlti.dl_entry<f16, dense<16> : vector<2xi32>>, #dlti.dl_entry<!llvm.ptr<270>, dense<32> : vector<4xi32>>, #dlti.dl_entry<f64, dense<64> : vector<2xi32>>, #dlti.dl_entry<i64, dense<64> : vector<2xi32>>, #dlti.dl_entry<f80, dense<128> : vector<2xi32>>, #dlti.dl_entry<!llvm.ptr<271>, dense<32> : vector<4xi32>>, #dlti.dl_entry<!llvm.ptr<272>, dense<64> : vector<4xi32>>, #dlti.dl_entry<!llvm.ptr, dense<64> : vector<4xi32>>, #dlti.dl_entry<i1, dense<8> : vector<2xi32>>, #dlti.dl_entry<"dlti.endianness", "little">, #dlti.dl_entry<"dlti.stack_alignment", 128 : i32>>, llvm.data_layout = "e-m:e-p270:32:32-p271:32:32-p272:64:64-i64:64-f80:128-n8:16:32:64-S128", llvm.target_triple = "x86_64-unknown-linux-gnu", polygeist.gpu_module.llvm.data_layout = "e-i64:64-i128:128-v16:16-v32:32-n16:32:64", polygeist.gpu_module.llvm.target_triple = "nvptx64-nvidia-cuda", "polygeist.target-cpu" = "x86-64", "polygeist.target-features" = "+cmov,+cx8,+fxsr,+mmx,+sse,+sse2,+x87", "polygeist.tune-cpu" = "generic"} {
  func.func @_Z23symmetric_matmul_kernelPKfS0_Pfi(%arg0: memref<?xf32>, %arg1: memref<?xf32>, %arg2: memref<?xf32>, %arg3: i32) attributes {llvm.linkage = #llvm.linkage<external>, polygeist.device_only_func = "1"} {
    %c0 = arith.constant 0 : index
    %c1 = arith.constant 1 : index
    %c32 = arith.constant 32 : index
    %alloca = memref.alloca() : memref<32x32xf32, 5>
    %alloca_0 = memref.alloca() : memref<32x32xf32, 5>
    scf.parallel (%arg4) = (%c0) to (%c32) step (%c1) {
      %c1_1 = arith.constant 1 : index
      %0 = arith.remui %arg4, %c1_1 : index
      %c1_2 = arith.constant 1 : index
      %1 = arith.divui %arg4, %c1_2 : index
      %c1_3 = arith.constant 1 : index
      %c31 = arith.constant 31 : index
      %c-1 = arith.constant -1 : index
      %c0_4 = arith.constant 0 : index
      %c32_5 = arith.constant 32 : index
      %c32_i32 = arith.constant 32 : i32
      %cst = arith.constant 0.000000e+00 : f32
      %2 = arith.index_cast %arg3 : i32 to index
      %3 = gpu.block_id  x
      %4 = arith.index_cast %3 : index to i32
      %5 = gpu.block_id  y
      %6 = arith.index_cast %5 : index to i32
      %7 = arith.index_cast %1 : index to i32
      %8 = arith.index_cast %0 : index to i32
      %9 = arith.muli %arg3, %c32_i32 : i32
      %10 = arith.muli %9, %6 : i32
      %11 = arith.addi %10, %arg3 : i32
      %12 = arith.index_cast %11 : i32 to index
      %13 = arith.index_cast %10 : i32 to index
      %14 = arith.muli %arg3, %8 : i32
      %15 = arith.index_cast %14 : i32 to index
      %16 = arith.muli %arg3, %arg3 : i32
      %17 = arith.index_cast %16 : i32 to index
      %18 = arith.muli %2, %c32_5 : index
      %19 = arith.muli %3, %c32_5 : index
      %20 = arith.addi %19, %15 : index
      %21 = arith.addi %20, %1 : index
      %22 = scf.for %arg5 = %13 to %12 step %c32_5 iter_args(%arg6 = %cst) -> (f32) {
        %32 = arith.muli %arg5, %c-1 : index
        %33 = arith.subi %32, %15 : index
        %34 = arith.subi %33, %1 : index
        %35 = arith.addi %34, %17 : index
        %36 = arith.addi %35, %c-1 : index
        %37 = arith.cmpi sge, %36, %c0_4 : index
        %38 = arith.subi %c31, %0 : index
        %39 = arith.cmpi sge, %38, %c0_4 : index
        %40 = arith.andi %37, %39 : i1
        %41 = arith.subi %c31, %1 : index
        %42 = arith.cmpi sge, %41, %c0_4 : index
        %43 = arith.andi %40, %42 : i1
        scf.if %43 {
          %45 = arith.addi %arg5, %15 : index
          %46 = arith.addi %45, %1 : index
          %47 = memref.load %arg0[%46] : memref<?xf32>
          memref.store %47, %alloca_0[%0, %1] : memref<32x32xf32, 5>
          %48 = arith.subi %arg5, %13 : index
          %49 = arith.cmpi slt, %48, %c0_4 : index
          %50 = arith.subi %c-1, %48 : index
          %51 = arith.select %49, %50, %48 : index
          %52 = arith.divsi %51, %c32_5 : index
          %53 = arith.subi %c-1, %52 : index
          %54 = arith.select %49, %53, %52 : index
          %55 = arith.muli %54, %18 : index
          %56 = arith.addi %55, %21 : index
          %57 = memref.load %arg1[%56] : memref<?xf32>
          memref.store %57, %alloca[%0, %1] : memref<32x32xf32, 5>
        } else {
          memref.store %cst, %alloca_0[%0, %1] : memref<32x32xf32, 5>
          memref.store %cst, %alloca[%0, %1] : memref<32x32xf32, 5>
        }
        "polygeist.barrier"(%arg4) : (index) -> ()
        %44 = scf.for %arg7 = %c0_4 to %c32_5 step %c1_3 iter_args(%arg8 = %arg6) -> (f32) {
          %45 = memref.load %alloca_0[%0, %arg7] : memref<32x32xf32, 5>
          %46 = memref.load %alloca[%arg7, %1] : memref<32x32xf32, 5>
          %47 = arith.mulf %45, %46 : f32
          %48 = arith.addf %arg8, %47 : f32
          scf.yield %48 : f32
        }
        "polygeist.barrier"(%arg4) : (index) -> ()
        scf.yield %44 : f32
      }
      %23 = arith.muli %6, %c32_i32 : i32
      %24 = arith.addi %23, %8 : i32
      %25 = arith.muli %24, %arg3 : i32
      %26 = arith.index_cast %25 : i32 to index
      %27 = arith.cmpi slt, %24, %arg3 : i32
      %28 = arith.muli %4, %c32_i32 : i32
      %29 = arith.addi %28, %7 : i32
      %30 = arith.cmpi slt, %29, %arg3 : i32
      %31 = arith.andi %27, %30 : i1
      scf.if %31 {
        %32 = arith.addi %26, %19 : index
        %33 = arith.addi %32, %1 : index
        memref.store %22, %arg2[%33] : memref<?xf32>
      }
      scf.yield
    }
    return
  }
}
WrapAndReplaceBarrierPass::runOnOperation(): after execute: end
[ict-debug] driver.cc: After return 7, module:

module attributes {dlti.dl_spec = #dlti.dl_spec<#dlti.dl_entry<i32, dense<32> : vector<2xi32>>, #dlti.dl_entry<i8, dense<8> : vector<2xi32>>, #dlti.dl_entry<i16, dense<16> : vector<2xi32>>, #dlti.dl_entry<f128, dense<128> : vector<2xi32>>, #dlti.dl_entry<f16, dense<16> : vector<2xi32>>, #dlti.dl_entry<!llvm.ptr<270>, dense<32> : vector<4xi32>>, #dlti.dl_entry<f64, dense<64> : vector<2xi32>>, #dlti.dl_entry<i64, dense<64> : vector<2xi32>>, #dlti.dl_entry<f80, dense<128> : vector<2xi32>>, #dlti.dl_entry<!llvm.ptr<271>, dense<32> : vector<4xi32>>, #dlti.dl_entry<!llvm.ptr<272>, dense<64> : vector<4xi32>>, #dlti.dl_entry<!llvm.ptr, dense<64> : vector<4xi32>>, #dlti.dl_entry<i1, dense<8> : vector<2xi32>>, #dlti.dl_entry<"dlti.endianness", "little">, #dlti.dl_entry<"dlti.stack_alignment", 128 : i32>>, llvm.data_layout = "e-m:e-p270:32:32-p271:32:32-p272:64:64-i64:64-f80:128-n8:16:32:64-S128", llvm.target_triple = "x86_64-unknown-linux-gnu", polygeist.gpu_module.llvm.data_layout = "e-i64:64-i128:128-v16:16-v32:32-n16:32:64", polygeist.gpu_module.llvm.target_triple = "nvptx64-nvidia-cuda", "polygeist.target-cpu" = "x86-64", "polygeist.target-features" = "+cmov,+cx8,+fxsr,+mmx,+sse,+sse2,+x87", "polygeist.tune-cpu" = "generic"} {
  func.func @_Z23symmetric_matmul_kernelPKfS0_Pfi(%arg0: memref<?xf32>, %arg1: memref<?xf32>, %arg2: memref<?xf32>, %arg3: i32) attributes {llvm.linkage = #llvm.linkage<external>, polygeist.device_only_func = "1"} {
    %c0 = arith.constant 0 : index
    %c1 = arith.constant 1 : index
    %c32 = arith.constant 32 : index
    %alloca = memref.alloca() : memref<32x32xf32, 5>
    %alloca_0 = memref.alloca() : memref<32x32xf32, 5>
    scf.parallel (%arg4) = (%c0) to (%c32) step (%c1) {
      %c1_1 = arith.constant 1 : index
      %0 = arith.remui %arg4, %c1_1 : index
      %c1_2 = arith.constant 1 : index
      %1 = arith.divui %arg4, %c1_2 : index
      %c1_3 = arith.constant 1 : index
      %c31 = arith.constant 31 : index
      %c-1 = arith.constant -1 : index
      %c0_4 = arith.constant 0 : index
      %c32_5 = arith.constant 32 : index
      %c32_i32 = arith.constant 32 : i32
      %cst = arith.constant 0.000000e+00 : f32
      %2 = arith.index_cast %arg3 : i32 to index
      %3 = gpu.block_id  x
      %4 = arith.index_cast %3 : index to i32
      %5 = gpu.block_id  y
      %6 = arith.index_cast %5 : index to i32
      %7 = arith.index_cast %1 : index to i32
      %8 = arith.index_cast %0 : index to i32
      %9 = arith.muli %arg3, %c32_i32 : i32
      %10 = arith.muli %9, %6 : i32
      %11 = arith.addi %10, %arg3 : i32
      %12 = arith.index_cast %11 : i32 to index
      %13 = arith.index_cast %10 : i32 to index
      %14 = arith.muli %arg3, %8 : i32
      %15 = arith.index_cast %14 : i32 to index
      %16 = arith.muli %arg3, %arg3 : i32
      %17 = arith.index_cast %16 : i32 to index
      %18 = arith.muli %2, %c32_5 : index
      %19 = arith.muli %3, %c32_5 : index
      %20 = arith.addi %19, %15 : index
      %21 = arith.addi %20, %1 : index
      %22 = scf.for %arg5 = %13 to %12 step %c32_5 iter_args(%arg6 = %cst) -> (f32) {
        %32 = arith.muli %arg5, %c-1 : index
        %33 = arith.subi %32, %15 : index
        %34 = arith.subi %33, %1 : index
        %35 = arith.addi %34, %17 : index
        %36 = arith.addi %35, %c-1 : index
        %37 = arith.cmpi sge, %36, %c0_4 : index
        %38 = arith.subi %c31, %0 : index
        %39 = arith.cmpi sge, %38, %c0_4 : index
        %40 = arith.andi %37, %39 : i1
        %41 = arith.subi %c31, %1 : index
        %42 = arith.cmpi sge, %41, %c0_4 : index
        %43 = arith.andi %40, %42 : i1
        scf.if %43 {
          %45 = arith.addi %arg5, %15 : index
          %46 = arith.addi %45, %1 : index
          %47 = memref.load %arg0[%46] : memref<?xf32>
          memref.store %47, %alloca_0[%0, %1] : memref<32x32xf32, 5>
          %48 = arith.subi %arg5, %13 : index
          %49 = arith.cmpi slt, %48, %c0_4 : index
          %50 = arith.subi %c-1, %48 : index
          %51 = arith.select %49, %50, %48 : index
          %52 = arith.divsi %51, %c32_5 : index
          %53 = arith.subi %c-1, %52 : index
          %54 = arith.select %49, %53, %52 : index
          %55 = arith.muli %54, %18 : index
          %56 = arith.addi %55, %21 : index
          %57 = memref.load %arg1[%56] : memref<?xf32>
          memref.store %57, %alloca[%0, %1] : memref<32x32xf32, 5>
        } else {
          memref.store %cst, %alloca_0[%0, %1] : memref<32x32xf32, 5>
          memref.store %cst, %alloca[%0, %1] : memref<32x32xf32, 5>
        }
        "polygeist.barrier"(%arg4) : (index) -> ()
        %44 = scf.for %arg7 = %c0_4 to %c32_5 step %c1_3 iter_args(%arg8 = %arg6) -> (f32) {
          %45 = memref.load %alloca_0[%0, %arg7] : memref<32x32xf32, 5>
          %46 = memref.load %alloca[%arg7, %1] : memref<32x32xf32, 5>
          %47 = arith.mulf %45, %46 : f32
          %48 = arith.addf %arg8, %47 : f32
          scf.yield %48 : f32
        }
        "polygeist.barrier"(%arg4) : (index) -> ()
        scf.yield %44 : f32
      }
      %23 = arith.muli %6, %c32_i32 : i32
      %24 = arith.addi %23, %8 : i32
      %25 = arith.muli %24, %arg3 : i32
      %26 = arith.index_cast %25 : i32 to index
      %27 = arith.cmpi slt, %24, %arg3 : i32
      %28 = arith.muli %4, %c32_i32 : i32
      %29 = arith.addi %28, %7 : i32
      %30 = arith.cmpi slt, %29, %arg3 : i32
      %31 = arith.andi %27, %30 : i1
      scf.if %31 {
        %32 = arith.addi %26, %19 : index
        %33 = arith.addi %32, %1 : index
        memref.store %22, %arg2[%33] : memref<?xf32>
      }
      scf.yield
    }
    return
  }
}
[ict-debug] driver.cc: After return 7, module: end

[ict-debug] driver.cc: Before my pass process:

module attributes {dlti.dl_spec = #dlti.dl_spec<#dlti.dl_entry<i32, dense<32> : vector<2xi32>>, #dlti.dl_entry<i8, dense<8> : vector<2xi32>>, #dlti.dl_entry<i16, dense<16> : vector<2xi32>>, #dlti.dl_entry<f128, dense<128> : vector<2xi32>>, #dlti.dl_entry<f16, dense<16> : vector<2xi32>>, #dlti.dl_entry<!llvm.ptr<270>, dense<32> : vector<4xi32>>, #dlti.dl_entry<f64, dense<64> : vector<2xi32>>, #dlti.dl_entry<i64, dense<64> : vector<2xi32>>, #dlti.dl_entry<f80, dense<128> : vector<2xi32>>, #dlti.dl_entry<!llvm.ptr<271>, dense<32> : vector<4xi32>>, #dlti.dl_entry<!llvm.ptr<272>, dense<64> : vector<4xi32>>, #dlti.dl_entry<!llvm.ptr, dense<64> : vector<4xi32>>, #dlti.dl_entry<i1, dense<8> : vector<2xi32>>, #dlti.dl_entry<"dlti.endianness", "little">, #dlti.dl_entry<"dlti.stack_alignment", 128 : i32>>, llvm.data_layout = "e-m:e-p270:32:32-p271:32:32-p272:64:64-i64:64-f80:128-n8:16:32:64-S128", llvm.target_triple = "x86_64-unknown-linux-gnu", polygeist.gpu_module.llvm.data_layout = "e-i64:64-i128:128-v16:16-v32:32-n16:32:64", polygeist.gpu_module.llvm.target_triple = "nvptx64-nvidia-cuda", "polygeist.target-cpu" = "x86-64", "polygeist.target-features" = "+cmov,+cx8,+fxsr,+mmx,+sse,+sse2,+x87", "polygeist.tune-cpu" = "generic"} {
  func.func @_Z23symmetric_matmul_kernelPKfS0_Pfi(%arg0: memref<?xf32>, %arg1: memref<?xf32>, %arg2: memref<?xf32>, %arg3: i32) attributes {llvm.linkage = #llvm.linkage<external>, polygeist.device_only_func = "1"} {
    %cst = arith.constant 0.000000e+00 : f32
    %c32_i32 = arith.constant 32 : i32
    %c-1 = arith.constant -1 : index
    %c31 = arith.constant 31 : index
    %c0 = arith.constant 0 : index
    %c1 = arith.constant 1 : index
    %c32 = arith.constant 32 : index
    %alloca = memref.alloca() : memref<32x32xf32, 5>
    %alloca_0 = memref.alloca() : memref<32x32xf32, 5>
    %alloca_1 = memref.alloca() : memref<32xf32>
    scf.parallel (%arg4) = (%c0) to (%c32) step (%c1) {
      memref.store %cst, %alloca_1[%arg4] : memref<32xf32>
      scf.yield
    }
    %0 = arith.muli %arg3, %c32_i32 : i32
    %1 = gpu.block_id  y
    %2 = arith.index_cast %1 : index to i32
    %3 = arith.muli %0, %2 : i32
    %4 = arith.index_cast %3 : i32 to index
    %5 = arith.addi %3, %arg3 : i32
    %6 = arith.index_cast %5 : i32 to index
    %7 = gpu.block_id  x
    %8 = arith.muli %7, %c32 : index
    %9 = arith.index_cast %arg3 : i32 to index
    %10 = arith.muli %9, %c32 : index
    %11 = arith.muli %arg3, %arg3 : i32
    %12 = arith.index_cast %11 : i32 to index
    scf.for %arg4 = %4 to %6 step %c32 {
      %22 = arith.muli %arg4, %c-1 : index
      %23 = arith.subi %arg4, %4 : index
      %24 = arith.cmpi slt, %23, %c0 : index
      %25 = arith.subi %c-1, %23 : index
      %26 = arith.select %24, %25, %23 : index
      %27 = arith.divsi %26, %c32 : index
      %28 = arith.subi %c-1, %27 : index
      %29 = arith.select %24, %28, %27 : index
      %30 = arith.muli %29, %10 : index
      scf.parallel (%arg5) = (%c0) to (%c32) step (%c1) {
        %31 = arith.addi %8, %arg5 : index
        %32 = arith.subi %22, %arg5 : index
        %33 = arith.addi %32, %12 : index
        %34 = arith.addi %33, %c-1 : index
        %35 = arith.cmpi sge, %34, %c0 : index
        %36 = arith.subi %c31, %arg5 : index
        %37 = arith.cmpi sge, %36, %c0 : index
        %38 = arith.andi %35, %37 : i1
        scf.if %38 {
          %39 = arith.addi %arg4, %arg5 : index
          %40 = memref.load %arg0[%39] : memref<?xf32>
          memref.store %40, %alloca_0[%c0, %arg5] : memref<32x32xf32, 5>
          %41 = arith.addi %30, %31 : index
          %42 = memref.load %arg1[%41] : memref<?xf32>
          memref.store %42, %alloca[%c0, %arg5] : memref<32x32xf32, 5>
        } else {
          memref.store %cst, %alloca_0[%c0, %arg5] : memref<32x32xf32, 5>
          memref.store %cst, %alloca[%c0, %arg5] : memref<32x32xf32, 5>
        }
        scf.yield
      }
      scf.parallel (%arg5) = (%c0) to (%c32) step (%c1) {
        %31 = memref.load %alloca_1[%arg5] : memref<32xf32>
        %32 = scf.for %arg6 = %c0 to %c32 step %c1 iter_args(%arg7 = %31) -> (f32) {
          %33 = memref.load %alloca_0[%c0, %arg6] : memref<32x32xf32, 5>
          %34 = memref.load %alloca[%arg6, %arg5] : memref<32x32xf32, 5>
          %35 = arith.mulf %33, %34 : f32
          %36 = arith.addf %arg7, %35 : f32
          scf.yield %36 : f32
        }
        memref.store %32, %alloca_1[%arg5] : memref<32xf32>
        scf.yield
      }
    }
    %13 = gpu.block_id  x
    %14 = arith.index_cast %13 : index to i32
    %15 = arith.muli %13, %c32 : index
    %16 = arith.muli %2, %c32_i32 : i32
    %17 = arith.muli %16, %arg3 : i32
    %18 = arith.index_cast %17 : i32 to index
    %19 = arith.cmpi slt, %16, %arg3 : i32
    %20 = arith.muli %14, %c32_i32 : i32
    %21 = arith.addi %18, %15 : index
    scf.parallel (%arg4) = (%c0) to (%c32) step (%c1) {
      %22 = arith.index_cast %arg4 : index to i32
      %23 = memref.load %alloca_1[%arg4] : memref<32xf32>
      %24 = arith.addi %20, %22 : i32
      %25 = arith.cmpi slt, %24, %arg3 : i32
      %26 = arith.andi %19, %25 : i1
      scf.if %26 {
        %27 = arith.addi %21, %arg4 : index
        memref.store %23, %arg2[%27] : memref<?xf32>
      }
      scf.yield
    }
    return
  }
}
[ict-debug] driver.cc: Before my pass process: end

[ict-debug] driver.cc: vectorizeSize = 1

[ict-debug] ConvertPolygeistToNPUPass::runOnOperation(): Before execute:

module attributes {dlti.dl_spec = #dlti.dl_spec<#dlti.dl_entry<i32, dense<32> : vector<2xi32>>, #dlti.dl_entry<i8, dense<8> : vector<2xi32>>, #dlti.dl_entry<i16, dense<16> : vector<2xi32>>, #dlti.dl_entry<f128, dense<128> : vector<2xi32>>, #dlti.dl_entry<f16, dense<16> : vector<2xi32>>, #dlti.dl_entry<!llvm.ptr<270>, dense<32> : vector<4xi32>>, #dlti.dl_entry<f64, dense<64> : vector<2xi32>>, #dlti.dl_entry<i64, dense<64> : vector<2xi32>>, #dlti.dl_entry<f80, dense<128> : vector<2xi32>>, #dlti.dl_entry<!llvm.ptr<271>, dense<32> : vector<4xi32>>, #dlti.dl_entry<!llvm.ptr<272>, dense<64> : vector<4xi32>>, #dlti.dl_entry<!llvm.ptr, dense<64> : vector<4xi32>>, #dlti.dl_entry<i1, dense<8> : vector<2xi32>>, #dlti.dl_entry<"dlti.endianness", "little">, #dlti.dl_entry<"dlti.stack_alignment", 128 : i32>>, llvm.data_layout = "e-m:e-p270:32:32-p271:32:32-p272:64:64-i64:64-f80:128-n8:16:32:64-S128", llvm.target_triple = "x86_64-unknown-linux-gnu", polygeist.gpu_module.llvm.data_layout = "e-i64:64-i128:128-v16:16-v32:32-n16:32:64", polygeist.gpu_module.llvm.target_triple = "nvptx64-nvidia-cuda", "polygeist.target-cpu" = "x86-64", "polygeist.target-features" = "+cmov,+cx8,+fxsr,+mmx,+sse,+sse2,+x87", "polygeist.tune-cpu" = "generic"} {
  gpu.module @_Z23symmetric_matmul_kernelPKfS0_Pfi_0 {
    gpu.func @_Z23symmetric_matmul_kernelPKfS0_Pfi(%arg0: memref<?xf32>, %arg1: memref<?xf32>, %arg2: memref<?xf32>, %arg3: i32) {
      %cst = arith.constant 0.000000e+00 : f32
      %c32_i32 = arith.constant 32 : i32
      %c-1 = arith.constant -1 : index
      %c31 = arith.constant 31 : index
      %c0 = arith.constant 0 : index
      %c1 = arith.constant 1 : index
      %c32 = arith.constant 32 : index
      %alloca = memref.alloca() : memref<32x32xf32, 5>
      %alloca_0 = memref.alloca() : memref<32x32xf32, 5>
      %alloca_1 = memref.alloca() : memref<32xf32>
      scf.parallel (%arg4) = (%c0) to (%c32) step (%c1) {
        memref.store %cst, %alloca_1[%arg4] : memref<32xf32>
        scf.yield
      }
      %0 = arith.muli %arg3, %c32_i32 : i32
      %1 = gpu.block_id  y
      %2 = arith.index_cast %1 : index to i32
      %3 = arith.muli %0, %2 : i32
      %4 = arith.index_cast %3 : i32 to index
      %5 = arith.addi %3, %arg3 : i32
      %6 = arith.index_cast %5 : i32 to index
      %7 = gpu.block_id  x
      %8 = arith.muli %7, %c32 : index
      %9 = arith.index_cast %arg3 : i32 to index
      %10 = arith.muli %9, %c32 : index
      %11 = arith.muli %arg3, %arg3 : i32
      %12 = arith.index_cast %11 : i32 to index
      scf.for %arg4 = %4 to %6 step %c32 {
        %20 = arith.muli %arg4, %c-1 : index
        %21 = arith.subi %arg4, %4 : index
        %22 = arith.cmpi slt, %21, %c0 : index
        %23 = arith.subi %c-1, %21 : index
        %24 = arith.select %22, %23, %21 : index
        %25 = arith.divsi %24, %c32 : index
        %26 = arith.subi %c-1, %25 : index
        %27 = arith.select %22, %26, %25 : index
        %28 = arith.muli %27, %10 : index
        scf.parallel (%arg5) = (%c0) to (%c32) step (%c1) {
          %29 = arith.addi %8, %arg5 : index
          %30 = arith.subi %20, %arg5 : index
          %31 = arith.addi %30, %12 : index
          %32 = arith.addi %31, %c-1 : index
          %33 = arith.cmpi sge, %32, %c0 : index
          %34 = arith.subi %c31, %arg5 : index
          %35 = arith.cmpi sge, %34, %c0 : index
          %36 = arith.andi %33, %35 : i1
          scf.if %36 {
            %37 = arith.addi %arg4, %arg5 : index
            %38 = memref.load %arg0[%37] : memref<?xf32>
            memref.store %38, %alloca_0[%c0, %arg5] : memref<32x32xf32, 5>
            %39 = arith.addi %28, %29 : index
            %40 = memref.load %arg1[%39] : memref<?xf32>
            memref.store %40, %alloca[%c0, %arg5] : memref<32x32xf32, 5>
          } else {
            memref.store %cst, %alloca_0[%c0, %arg5] : memref<32x32xf32, 5>
            memref.store %cst, %alloca[%c0, %arg5] : memref<32x32xf32, 5>
          }
          scf.yield
        }
        scf.parallel (%arg5) = (%c0) to (%c32) step (%c1) {
          %29 = memref.load %alloca_1[%arg5] : memref<32xf32>
          %30 = scf.for %arg6 = %c0 to %c32 step %c1 iter_args(%arg7 = %29) -> (f32) {
            %31 = memref.load %alloca_0[%c0, %arg6] : memref<32x32xf32, 5>
            %32 = memref.load %alloca[%arg6, %arg5] : memref<32x32xf32, 5>
            %33 = arith.mulf %31, %32 : f32
            %34 = arith.addf %arg7, %33 : f32
            scf.yield %34 : f32
          }
          memref.store %30, %alloca_1[%arg5] : memref<32xf32>
          scf.yield
        }
      }
      %13 = arith.index_cast %7 : index to i32
      %14 = arith.muli %2, %c32_i32 : i32
      %15 = arith.muli %14, %arg3 : i32
      %16 = arith.index_cast %15 : i32 to index
      %17 = arith.cmpi slt, %14, %arg3 : i32
      %18 = arith.muli %13, %c32_i32 : i32
      %19 = arith.addi %16, %8 : index
      scf.parallel (%arg4) = (%c0) to (%c32) step (%c1) {
        %20 = arith.index_cast %arg4 : index to i32
        %21 = memref.load %alloca_1[%arg4] : memref<32xf32>
        %22 = arith.addi %18, %20 : i32
        %23 = arith.cmpi slt, %22, %arg3 : i32
        %24 = arith.andi %17, %23 : i1
        scf.if %24 {
          %25 = arith.addi %19, %arg4 : index
          memref.store %21, %arg2[%25] : memref<?xf32>
        }
        scf.yield
      }
      gpu.return
    }
  }
}
[ict-debug] ConvertPolygeistToNPUPass::runOnOperation(): Before execute: end

[ict-debug] ConvertPolygeistToNPUPass::runOnOperation(): After vectorize:

module attributes {dlti.dl_spec = #dlti.dl_spec<#dlti.dl_entry<i32, dense<32> : vector<2xi32>>, #dlti.dl_entry<i8, dense<8> : vector<2xi32>>, #dlti.dl_entry<i16, dense<16> : vector<2xi32>>, #dlti.dl_entry<f128, dense<128> : vector<2xi32>>, #dlti.dl_entry<f16, dense<16> : vector<2xi32>>, #dlti.dl_entry<!llvm.ptr<270>, dense<32> : vector<4xi32>>, #dlti.dl_entry<f64, dense<64> : vector<2xi32>>, #dlti.dl_entry<i64, dense<64> : vector<2xi32>>, #dlti.dl_entry<f80, dense<128> : vector<2xi32>>, #dlti.dl_entry<!llvm.ptr<271>, dense<32> : vector<4xi32>>, #dlti.dl_entry<!llvm.ptr<272>, dense<64> : vector<4xi32>>, #dlti.dl_entry<!llvm.ptr, dense<64> : vector<4xi32>>, #dlti.dl_entry<i1, dense<8> : vector<2xi32>>, #dlti.dl_entry<"dlti.endianness", "little">, #dlti.dl_entry<"dlti.stack_alignment", 128 : i32>>, llvm.data_layout = "e-m:e-p270:32:32-p271:32:32-p272:64:64-i64:64-f80:128-n8:16:32:64-S128", llvm.target_triple = "x86_64-unknown-linux-gnu", polygeist.gpu_module.llvm.data_layout = "e-i64:64-i128:128-v16:16-v32:32-n16:32:64", polygeist.gpu_module.llvm.target_triple = "nvptx64-nvidia-cuda", "polygeist.target-cpu" = "x86-64", "polygeist.target-features" = "+cmov,+cx8,+fxsr,+mmx,+sse,+sse2,+x87", "polygeist.tune-cpu" = "generic"} {
  gpu.module @_Z23symmetric_matmul_kernelPKfS0_Pfi_0 {
    gpu.func @_Z23symmetric_matmul_kernelPKfS0_Pfi(%arg0: memref<?xf32>, %arg1: memref<?xf32>, %arg2: memref<?xf32>, %arg3: i32) {
      %cst = arith.constant 0.000000e+00 : f32
      %c32_i32 = arith.constant 32 : i32
      %c-1 = arith.constant -1 : index
      %c31 = arith.constant 31 : index
      %c0 = arith.constant 0 : index
      %c1 = arith.constant 1 : index
      %c32 = arith.constant 32 : index
      %alloca = memref.alloca() : memref<32x32xf32, 5>
      %alloca_0 = memref.alloca() : memref<32x32xf32, 5>
      %alloca_1 = memref.alloca() : memref<32xf32>
      %c1_2 = arith.constant 1 : index
      scf.for %arg4 = %c0 to %c32 step %c1_2 {
        memref.store %cst, %alloca_1[%arg4] : memref<32xf32>
      }
      %0 = arith.muli %arg3, %c32_i32 : i32
      %1 = gpu.block_id  y
      %2 = arith.index_cast %1 : index to i32
      %3 = arith.muli %0, %2 : i32
      %4 = arith.index_cast %3 : i32 to index
      %5 = arith.addi %3, %arg3 : i32
      %6 = arith.index_cast %5 : i32 to index
      %7 = gpu.block_id  x
      %8 = arith.muli %7, %c32 : index
      %9 = arith.index_cast %arg3 : i32 to index
      %10 = arith.muli %9, %c32 : index
      %11 = arith.muli %arg3, %arg3 : i32
      %12 = arith.index_cast %11 : i32 to index
      scf.for %arg4 = %4 to %6 step %c32 {
        %20 = arith.muli %arg4, %c-1 : index
        %21 = arith.subi %arg4, %4 : index
        %22 = arith.cmpi slt, %21, %c0 : index
        %23 = arith.subi %c-1, %21 : index
        %24 = arith.select %22, %23, %21 : index
        %25 = arith.divsi %24, %c32 : index
        %26 = arith.subi %c-1, %25 : index
        %27 = arith.select %22, %26, %25 : index
        %28 = arith.muli %27, %10 : index
        %c1_4 = arith.constant 1 : index
        scf.for %arg5 = %c0 to %c32 step %c1_4 {
          %29 = arith.addi %8, %arg5 : index
          %30 = arith.subi %20, %arg5 : index
          %31 = arith.addi %30, %12 : index
          %32 = arith.addi %31, %c-1 : index
          %33 = arith.cmpi sge, %32, %c0 : index
          %34 = arith.subi %c31, %arg5 : index
          %35 = arith.cmpi sge, %34, %c0 : index
          %36 = arith.andi %33, %35 : i1
          scf.if %36 {
            %37 = arith.addi %arg4, %arg5 : index
            %38 = memref.load %arg0[%37] : memref<?xf32>
            memref.store %38, %alloca_0[%c0, %arg5] : memref<32x32xf32, 5>
            %39 = arith.addi %28, %29 : index
            %40 = memref.load %arg1[%39] : memref<?xf32>
            memref.store %40, %alloca[%c0, %arg5] : memref<32x32xf32, 5>
          } else {
            memref.store %cst, %alloca_0[%c0, %arg5] : memref<32x32xf32, 5>
            memref.store %cst, %alloca[%c0, %arg5] : memref<32x32xf32, 5>
          }
        }
        %c1_5 = arith.constant 1 : index
        scf.for %arg5 = %c0 to %c32 step %c1_5 {
          %29 = memref.load %alloca_1[%arg5] : memref<32xf32>
          %30 = scf.for %arg6 = %c0 to %c32 step %c1 iter_args(%arg7 = %29) -> (f32) {
            %31 = memref.load %alloca_0[%c0, %arg6] : memref<32x32xf32, 5>
            %32 = memref.load %alloca[%arg6, %arg5] : memref<32x32xf32, 5>
            %33 = arith.mulf %31, %32 : f32
            %34 = arith.addf %arg7, %33 : f32
            scf.yield %34 : f32
          }
          memref.store %30, %alloca_1[%arg5] : memref<32xf32>
        }
      }
      %13 = arith.index_cast %7 : index to i32
      %14 = arith.muli %2, %c32_i32 : i32
      %15 = arith.muli %14, %arg3 : i32
      %16 = arith.index_cast %15 : i32 to index
      %17 = arith.cmpi slt, %14, %arg3 : i32
      %18 = arith.muli %13, %c32_i32 : i32
      %19 = arith.addi %16, %8 : index
      %c1_3 = arith.constant 1 : index
      scf.for %arg4 = %c0 to %c32 step %c1_3 {
        %20 = arith.index_cast %arg4 : index to i32
        %21 = memref.load %alloca_1[%arg4] : memref<32xf32>
        %22 = arith.addi %18, %20 : i32
        %23 = arith.cmpi slt, %22, %arg3 : i32
        %24 = arith.andi %17, %23 : i1
        scf.if %24 {
          %25 = arith.addi %19, %arg4 : index
          memref.store %21, %arg2[%25] : memref<?xf32>
        }
      }
      gpu.return
    }
  }
}
[ict-debug] ConvertPolygeistToNPUPass::runOnOperation(): After vectorize: end

[ict-debug] MemRefAllocaToNPULowering: process op: 

%alloca = memref.alloca() : memref<32x32xf32, 5>
[ict-debug] MemRefAllocaToNPULowering: memory space is 5

MemRefAllocaToNPULowering: newAllocaOp: 
%0 = "npu.alloca"() <{numElems = 1024 : i32}> : () -> !llvm.ptr<6>
MemRefAllocaToNPULowering: old allocaOp: 
%alloca = memref.alloca() : memref<32x32xf32, 5>
MemRefAllocaToNPULowering: module: 
module attributes {dlti.dl_spec = #dlti.dl_spec<#dlti.dl_entry<i32, dense<32> : vector<2xi32>>, #dlti.dl_entry<i8, dense<8> : vector<2xi32>>, #dlti.dl_entry<i16, dense<16> : vector<2xi32>>, #dlti.dl_entry<f128, dense<128> : vector<2xi32>>, #dlti.dl_entry<f16, dense<16> : vector<2xi32>>, #dlti.dl_entry<!llvm.ptr<270>, dense<32> : vector<4xi32>>, #dlti.dl_entry<f64, dense<64> : vector<2xi32>>, #dlti.dl_entry<i64, dense<64> : vector<2xi32>>, #dlti.dl_entry<f80, dense<128> : vector<2xi32>>, #dlti.dl_entry<!llvm.ptr<271>, dense<32> : vector<4xi32>>, #dlti.dl_entry<!llvm.ptr<272>, dense<64> : vector<4xi32>>, #dlti.dl_entry<!llvm.ptr, dense<64> : vector<4xi32>>, #dlti.dl_entry<i1, dense<8> : vector<2xi32>>, #dlti.dl_entry<"dlti.endianness", "little">, #dlti.dl_entry<"dlti.stack_alignment", 128 : i32>>, llvm.data_layout = "e-m:e-p270:32:32-p271:32:32-p272:64:64-i64:64-f80:128-n8:16:32:64-S128", llvm.target_triple = "x86_64-unknown-linux-gnu", polygeist.gpu_module.llvm.data_layout = "e-i64:64-i128:128-v16:16-v32:32-n16:32:64", polygeist.gpu_module.llvm.target_triple = "nvptx64-nvidia-cuda", "polygeist.target-cpu" = "x86-64", "polygeist.target-features" = "+cmov,+cx8,+fxsr,+mmx,+sse,+sse2,+x87", "polygeist.tune-cpu" = "generic"} {
  gpu.module @_Z23symmetric_matmul_kernelPKfS0_Pfi_0 {
    gpu.func @_Z23symmetric_matmul_kernelPKfS0_Pfi(%arg0: memref<?xf32>, %arg1: memref<?xf32>, %arg2: memref<?xf32>, %arg3: i32) {
      %cst = arith.constant 0.000000e+00 : f32
      %c32_i32 = arith.constant 32 : i32
      %c-1 = arith.constant -1 : index
      %c31 = arith.constant 31 : index
      %c0 = arith.constant 0 : index
      %c1 = arith.constant 1 : index
      %c32 = arith.constant 32 : index
      %0 = "npu.alloca"() <{numElems = 1024 : i32}> : () -> !llvm.ptr<6>
      %alloca = memref.alloca() : memref<32x32xf32, 5>
      %alloca_0 = memref.alloca() : memref<32x32xf32, 5>
      %alloca_1 = memref.alloca() : memref<32xf32, 5>
      %c1_2 = arith.constant 1 : index
      scf.for %arg4 = %c0 to %c32 step %c1_2 {
        memref.store %cst, %alloca_1[%arg4] : memref<32xf32, 5>
      }
      %1 = arith.muli %arg3, %c32_i32 : i32
      %2 = gpu.block_id  y
      %3 = arith.index_cast %2 : index to i32
      %4 = arith.muli %1, %3 : i32
      %5 = arith.index_cast %4 : i32 to index
      %6 = arith.addi %4, %arg3 : i32
      %7 = arith.index_cast %6 : i32 to index
      %8 = gpu.block_id  x
      %9 = arith.muli %8, %c32 : index
      %10 = arith.index_cast %arg3 : i32 to index
      %11 = arith.muli %10, %c32 : index
      %12 = arith.muli %arg3, %arg3 : i32
      %13 = arith.index_cast %12 : i32 to index
      scf.for %arg4 = %5 to %7 step %c32 {
        %21 = arith.muli %arg4, %c-1 : index
        %22 = arith.subi %arg4, %5 : index
        %23 = arith.cmpi slt, %22, %c0 : index
        %24 = arith.subi %c-1, %22 : index
        %25 = arith.select %23, %24, %22 : index
        %26 = arith.divsi %25, %c32 : index
        %27 = arith.subi %c-1, %26 : index
        %28 = arith.select %23, %27, %26 : index
        %29 = arith.muli %28, %11 : index
        %c1_4 = arith.constant 1 : index
        scf.for %arg5 = %c0 to %c32 step %c1_4 {
          %30 = arith.addi %9, %arg5 : index
          %31 = arith.subi %21, %arg5 : index
          %32 = arith.addi %31, %13 : index
          %33 = arith.addi %32, %c-1 : index
          %34 = arith.cmpi sge, %33, %c0 : index
          %35 = arith.subi %c31, %arg5 : index
          %36 = arith.cmpi sge, %35, %c0 : index
          %37 = arith.andi %34, %36 : i1
          scf.if %37 {
            %38 = arith.addi %arg4, %arg5 : index
            %39 = memref.load %arg0[%38] : memref<?xf32>
            memref.store %39, %alloca_0[%c0, %arg5] : memref<32x32xf32, 5>
            %40 = arith.addi %29, %30 : index
            %41 = memref.load %arg1[%40] : memref<?xf32>
            memref.store %41, %alloca[%c0, %arg5] : memref<32x32xf32, 5>
          } else {
            memref.store %cst, %alloca_0[%c0, %arg5] : memref<32x32xf32, 5>
            memref.store %cst, %alloca[%c0, %arg5] : memref<32x32xf32, 5>
          }
        }
        %c1_5 = arith.constant 1 : index
        scf.for %arg5 = %c0 to %c32 step %c1_5 {
          %30 = memref.load %alloca_1[%arg5] : memref<32xf32, 5>
          %31 = scf.for %arg6 = %c0 to %c32 step %c1 iter_args(%arg7 = %30) -> (f32) {
            %32 = memref.load %alloca_0[%c0, %arg6] : memref<32x32xf32, 5>
            %33 = memref.load %alloca[%arg6, %arg5] : memref<32x32xf32, 5>
            %34 = arith.mulf %32, %33 : f32
            %35 = arith.addf %arg7, %34 : f32
            scf.yield %35 : f32
          }
          memref.store %31, %alloca_1[%arg5] : memref<32xf32, 5>
        }
      }
      %14 = arith.index_cast %8 : index to i32
      %15 = arith.muli %3, %c32_i32 : i32
      %16 = arith.muli %15, %arg3 : i32
      %17 = arith.index_cast %16 : i32 to index
      %18 = arith.cmpi slt, %15, %arg3 : i32
      %19 = arith.muli %14, %c32_i32 : i32
      %20 = arith.addi %17, %9 : index
      %c1_3 = arith.constant 1 : index
      scf.for %arg4 = %c0 to %c32 step %c1_3 {
        %21 = arith.index_cast %arg4 : index to i32
        %22 = memref.load %alloca_1[%arg4] : memref<32xf32, 5>
        %23 = arith.addi %19, %21 : i32
        %24 = arith.cmpi slt, %23, %arg3 : i32
        %25 = arith.andi %18, %24 : i1
        scf.if %25 {
          %26 = arith.addi %20, %arg4 : index
          memref.store %22, %arg2[%26] : memref<?xf32>
        }
      }
      gpu.return
    }
  }
}
MemRefAllocaToNPULowering: module: end
[ict-debug] MemRefAllocaToNPULowering: process op: 

%alloca_0 = memref.alloca() : memref<32x32xf32, 5>
[ict-debug] MemRefAllocaToNPULowering: memory space is 5

MemRefAllocaToNPULowering: newAllocaOp: 
%1 = "npu.alloca"() <{numElems = 1024 : i32}> : () -> !llvm.ptr<6>
MemRefAllocaToNPULowering: old allocaOp: 
%alloca_0 = memref.alloca() : memref<32x32xf32, 5>
MemRefAllocaToNPULowering: module: 
module attributes {dlti.dl_spec = #dlti.dl_spec<#dlti.dl_entry<i32, dense<32> : vector<2xi32>>, #dlti.dl_entry<i8, dense<8> : vector<2xi32>>, #dlti.dl_entry<i16, dense<16> : vector<2xi32>>, #dlti.dl_entry<f128, dense<128> : vector<2xi32>>, #dlti.dl_entry<f16, dense<16> : vector<2xi32>>, #dlti.dl_entry<!llvm.ptr<270>, dense<32> : vector<4xi32>>, #dlti.dl_entry<f64, dense<64> : vector<2xi32>>, #dlti.dl_entry<i64, dense<64> : vector<2xi32>>, #dlti.dl_entry<f80, dense<128> : vector<2xi32>>, #dlti.dl_entry<!llvm.ptr<271>, dense<32> : vector<4xi32>>, #dlti.dl_entry<!llvm.ptr<272>, dense<64> : vector<4xi32>>, #dlti.dl_entry<!llvm.ptr, dense<64> : vector<4xi32>>, #dlti.dl_entry<i1, dense<8> : vector<2xi32>>, #dlti.dl_entry<"dlti.endianness", "little">, #dlti.dl_entry<"dlti.stack_alignment", 128 : i32>>, llvm.data_layout = "e-m:e-p270:32:32-p271:32:32-p272:64:64-i64:64-f80:128-n8:16:32:64-S128", llvm.target_triple = "x86_64-unknown-linux-gnu", polygeist.gpu_module.llvm.data_layout = "e-i64:64-i128:128-v16:16-v32:32-n16:32:64", polygeist.gpu_module.llvm.target_triple = "nvptx64-nvidia-cuda", "polygeist.target-cpu" = "x86-64", "polygeist.target-features" = "+cmov,+cx8,+fxsr,+mmx,+sse,+sse2,+x87", "polygeist.tune-cpu" = "generic"} {
  gpu.module @_Z23symmetric_matmul_kernelPKfS0_Pfi_0 {
    gpu.func @_Z23symmetric_matmul_kernelPKfS0_Pfi(%arg0: memref<?xf32>, %arg1: memref<?xf32>, %arg2: memref<?xf32>, %arg3: i32) {
      %cst = arith.constant 0.000000e+00 : f32
      %c32_i32 = arith.constant 32 : i32
      %c-1 = arith.constant -1 : index
      %c31 = arith.constant 31 : index
      %c0 = arith.constant 0 : index
      %c1 = arith.constant 1 : index
      %c32 = arith.constant 32 : index
      %0 = "npu.alloca"() <{numElems = 1024 : i32}> : () -> !llvm.ptr<6>
      %alloca = memref.alloca() : memref<32x32xf32, 5>
      %1 = "npu.alloca"() <{numElems = 1024 : i32}> : () -> !llvm.ptr<6>
      %alloca_0 = memref.alloca() : memref<32x32xf32, 5>
      %alloca_1 = memref.alloca() : memref<32xf32, 5>
      %c1_2 = arith.constant 1 : index
      scf.for %arg4 = %c0 to %c32 step %c1_2 {
        memref.store %cst, %alloca_1[%arg4] : memref<32xf32, 5>
      }
      %2 = arith.muli %arg3, %c32_i32 : i32
      %3 = gpu.block_id  y
      %4 = arith.index_cast %3 : index to i32
      %5 = arith.muli %2, %4 : i32
      %6 = arith.index_cast %5 : i32 to index
      %7 = arith.addi %5, %arg3 : i32
      %8 = arith.index_cast %7 : i32 to index
      %9 = gpu.block_id  x
      %10 = arith.muli %9, %c32 : index
      %11 = arith.index_cast %arg3 : i32 to index
      %12 = arith.muli %11, %c32 : index
      %13 = arith.muli %arg3, %arg3 : i32
      %14 = arith.index_cast %13 : i32 to index
      scf.for %arg4 = %6 to %8 step %c32 {
        %22 = arith.muli %arg4, %c-1 : index
        %23 = arith.subi %arg4, %6 : index
        %24 = arith.cmpi slt, %23, %c0 : index
        %25 = arith.subi %c-1, %23 : index
        %26 = arith.select %24, %25, %23 : index
        %27 = arith.divsi %26, %c32 : index
        %28 = arith.subi %c-1, %27 : index
        %29 = arith.select %24, %28, %27 : index
        %30 = arith.muli %29, %12 : index
        %c1_4 = arith.constant 1 : index
        scf.for %arg5 = %c0 to %c32 step %c1_4 {
          %31 = arith.addi %10, %arg5 : index
          %32 = arith.subi %22, %arg5 : index
          %33 = arith.addi %32, %14 : index
          %34 = arith.addi %33, %c-1 : index
          %35 = arith.cmpi sge, %34, %c0 : index
          %36 = arith.subi %c31, %arg5 : index
          %37 = arith.cmpi sge, %36, %c0 : index
          %38 = arith.andi %35, %37 : i1
          scf.if %38 {
            %39 = arith.addi %arg4, %arg5 : index
            %40 = memref.load %arg0[%39] : memref<?xf32>
            memref.store %40, %alloca_0[%c0, %arg5] : memref<32x32xf32, 5>
            %41 = arith.addi %30, %31 : index
            %42 = memref.load %arg1[%41] : memref<?xf32>
            memref.store %42, %alloca[%c0, %arg5] : memref<32x32xf32, 5>
          } else {
            memref.store %cst, %alloca_0[%c0, %arg5] : memref<32x32xf32, 5>
            memref.store %cst, %alloca[%c0, %arg5] : memref<32x32xf32, 5>
          }
        }
        %c1_5 = arith.constant 1 : index
        scf.for %arg5 = %c0 to %c32 step %c1_5 {
          %31 = memref.load %alloca_1[%arg5] : memref<32xf32, 5>
          %32 = scf.for %arg6 = %c0 to %c32 step %c1 iter_args(%arg7 = %31) -> (f32) {
            %33 = memref.load %alloca_0[%c0, %arg6] : memref<32x32xf32, 5>
            %34 = memref.load %alloca[%arg6, %arg5] : memref<32x32xf32, 5>
            %35 = arith.mulf %33, %34 : f32
            %36 = arith.addf %arg7, %35 : f32
            scf.yield %36 : f32
          }
          memref.store %32, %alloca_1[%arg5] : memref<32xf32, 5>
        }
      }
      %15 = arith.index_cast %9 : index to i32
      %16 = arith.muli %4, %c32_i32 : i32
      %17 = arith.muli %16, %arg3 : i32
      %18 = arith.index_cast %17 : i32 to index
      %19 = arith.cmpi slt, %16, %arg3 : i32
      %20 = arith.muli %15, %c32_i32 : i32
      %21 = arith.addi %18, %10 : index
      %c1_3 = arith.constant 1 : index
      scf.for %arg4 = %c0 to %c32 step %c1_3 {
        %22 = arith.index_cast %arg4 : index to i32
        %23 = memref.load %alloca_1[%arg4] : memref<32xf32, 5>
        %24 = arith.addi %20, %22 : i32
        %25 = arith.cmpi slt, %24, %arg3 : i32
        %26 = arith.andi %19, %25 : i1
        scf.if %26 {
          %27 = arith.addi %21, %arg4 : index
          memref.store %23, %arg2[%27] : memref<?xf32>
        }
      }
      gpu.return
    }
  }
}
MemRefAllocaToNPULowering: module: end
[ict-debug] MemRefAllocaToNPULowering: process op: 

%alloca_1 = memref.alloca() : memref<32xf32, 5>
[ict-debug] MemRefAllocaToNPULowering: memory space is 5

MemRefAllocaToNPULowering: newAllocaOp: 
%2 = "npu.alloca"() <{numElems = 32 : i32}> : () -> !llvm.ptr<6>
MemRefAllocaToNPULowering: old allocaOp: 
%alloca_1 = memref.alloca() : memref<32xf32, 5>
MemRefAllocaToNPULowering: module: 
module attributes {dlti.dl_spec = #dlti.dl_spec<#dlti.dl_entry<i32, dense<32> : vector<2xi32>>, #dlti.dl_entry<i8, dense<8> : vector<2xi32>>, #dlti.dl_entry<i16, dense<16> : vector<2xi32>>, #dlti.dl_entry<f128, dense<128> : vector<2xi32>>, #dlti.dl_entry<f16, dense<16> : vector<2xi32>>, #dlti.dl_entry<!llvm.ptr<270>, dense<32> : vector<4xi32>>, #dlti.dl_entry<f64, dense<64> : vector<2xi32>>, #dlti.dl_entry<i64, dense<64> : vector<2xi32>>, #dlti.dl_entry<f80, dense<128> : vector<2xi32>>, #dlti.dl_entry<!llvm.ptr<271>, dense<32> : vector<4xi32>>, #dlti.dl_entry<!llvm.ptr<272>, dense<64> : vector<4xi32>>, #dlti.dl_entry<!llvm.ptr, dense<64> : vector<4xi32>>, #dlti.dl_entry<i1, dense<8> : vector<2xi32>>, #dlti.dl_entry<"dlti.endianness", "little">, #dlti.dl_entry<"dlti.stack_alignment", 128 : i32>>, llvm.data_layout = "e-m:e-p270:32:32-p271:32:32-p272:64:64-i64:64-f80:128-n8:16:32:64-S128", llvm.target_triple = "x86_64-unknown-linux-gnu", polygeist.gpu_module.llvm.data_layout = "e-i64:64-i128:128-v16:16-v32:32-n16:32:64", polygeist.gpu_module.llvm.target_triple = "nvptx64-nvidia-cuda", "polygeist.target-cpu" = "x86-64", "polygeist.target-features" = "+cmov,+cx8,+fxsr,+mmx,+sse,+sse2,+x87", "polygeist.tune-cpu" = "generic"} {
  gpu.module @_Z23symmetric_matmul_kernelPKfS0_Pfi_0 {
    gpu.func @_Z23symmetric_matmul_kernelPKfS0_Pfi(%arg0: memref<?xf32>, %arg1: memref<?xf32>, %arg2: memref<?xf32>, %arg3: i32) {
      %cst = arith.constant 0.000000e+00 : f32
      %c32_i32 = arith.constant 32 : i32
      %c-1 = arith.constant -1 : index
      %c31 = arith.constant 31 : index
      %c0 = arith.constant 0 : index
      %c1 = arith.constant 1 : index
      %c32 = arith.constant 32 : index
      %0 = "npu.alloca"() <{numElems = 1024 : i32}> : () -> !llvm.ptr<6>
      %alloca = memref.alloca() : memref<32x32xf32, 5>
      %1 = "npu.alloca"() <{numElems = 1024 : i32}> : () -> !llvm.ptr<6>
      %alloca_0 = memref.alloca() : memref<32x32xf32, 5>
      %2 = "npu.alloca"() <{numElems = 32 : i32}> : () -> !llvm.ptr<6>
      %alloca_1 = memref.alloca() : memref<32xf32, 5>
      %c1_2 = arith.constant 1 : index
      scf.for %arg4 = %c0 to %c32 step %c1_2 {
        memref.store %cst, %alloca_1[%arg4] : memref<32xf32, 5>
      }
      %3 = arith.muli %arg3, %c32_i32 : i32
      %4 = gpu.block_id  y
      %5 = arith.index_cast %4 : index to i32
      %6 = arith.muli %3, %5 : i32
      %7 = arith.index_cast %6 : i32 to index
      %8 = arith.addi %6, %arg3 : i32
      %9 = arith.index_cast %8 : i32 to index
      %10 = gpu.block_id  x
      %11 = arith.muli %10, %c32 : index
      %12 = arith.index_cast %arg3 : i32 to index
      %13 = arith.muli %12, %c32 : index
      %14 = arith.muli %arg3, %arg3 : i32
      %15 = arith.index_cast %14 : i32 to index
      scf.for %arg4 = %7 to %9 step %c32 {
        %23 = arith.muli %arg4, %c-1 : index
        %24 = arith.subi %arg4, %7 : index
        %25 = arith.cmpi slt, %24, %c0 : index
        %26 = arith.subi %c-1, %24 : index
        %27 = arith.select %25, %26, %24 : index
        %28 = arith.divsi %27, %c32 : index
        %29 = arith.subi %c-1, %28 : index
        %30 = arith.select %25, %29, %28 : index
        %31 = arith.muli %30, %13 : index
        %c1_4 = arith.constant 1 : index
        scf.for %arg5 = %c0 to %c32 step %c1_4 {
          %32 = arith.addi %11, %arg5 : index
          %33 = arith.subi %23, %arg5 : index
          %34 = arith.addi %33, %15 : index
          %35 = arith.addi %34, %c-1 : index
          %36 = arith.cmpi sge, %35, %c0 : index
          %37 = arith.subi %c31, %arg5 : index
          %38 = arith.cmpi sge, %37, %c0 : index
          %39 = arith.andi %36, %38 : i1
          scf.if %39 {
            %40 = arith.addi %arg4, %arg5 : index
            %41 = memref.load %arg0[%40] : memref<?xf32>
            memref.store %41, %alloca_0[%c0, %arg5] : memref<32x32xf32, 5>
            %42 = arith.addi %31, %32 : index
            %43 = memref.load %arg1[%42] : memref<?xf32>
            memref.store %43, %alloca[%c0, %arg5] : memref<32x32xf32, 5>
          } else {
            memref.store %cst, %alloca_0[%c0, %arg5] : memref<32x32xf32, 5>
            memref.store %cst, %alloca[%c0, %arg5] : memref<32x32xf32, 5>
          }
        }
        %c1_5 = arith.constant 1 : index
        scf.for %arg5 = %c0 to %c32 step %c1_5 {
          %32 = memref.load %alloca_1[%arg5] : memref<32xf32, 5>
          %33 = scf.for %arg6 = %c0 to %c32 step %c1 iter_args(%arg7 = %32) -> (f32) {
            %34 = memref.load %alloca_0[%c0, %arg6] : memref<32x32xf32, 5>
            %35 = memref.load %alloca[%arg6, %arg5] : memref<32x32xf32, 5>
            %36 = arith.mulf %34, %35 : f32
            %37 = arith.addf %arg7, %36 : f32
            scf.yield %37 : f32
          }
          memref.store %33, %alloca_1[%arg5] : memref<32xf32, 5>
        }
      }
      %16 = arith.index_cast %10 : index to i32
      %17 = arith.muli %5, %c32_i32 : i32
      %18 = arith.muli %17, %arg3 : i32
      %19 = arith.index_cast %18 : i32 to index
      %20 = arith.cmpi slt, %17, %arg3 : i32
      %21 = arith.muli %16, %c32_i32 : i32
      %22 = arith.addi %19, %11 : index
      %c1_3 = arith.constant 1 : index
      scf.for %arg4 = %c0 to %c32 step %c1_3 {
        %23 = arith.index_cast %arg4 : index to i32
        %24 = memref.load %alloca_1[%arg4] : memref<32xf32, 5>
        %25 = arith.addi %21, %23 : i32
        %26 = arith.cmpi slt, %25, %arg3 : i32
        %27 = arith.andi %20, %26 : i1
        scf.if %27 {
          %28 = arith.addi %22, %arg4 : index
          memref.store %24, %arg2[%28] : memref<?xf32>
        }
      }
      gpu.return
    }
  }
}
MemRefAllocaToNPULowering: module: end
[ict-debug] GPUBlockIdToNPULowering: process op: 

%4 = gpu.block_id  y
[ict-debug] GPUBlockIdToNPULowering: process op: 

%11 = gpu.block_id  x
[ict-debug] ConvertPolygeistToNPUPass::runOnOperation(): After convert to NPU:

module attributes {dlti.dl_spec = #dlti.dl_spec<#dlti.dl_entry<i32, dense<32> : vector<2xi32>>, #dlti.dl_entry<i8, dense<8> : vector<2xi32>>, #dlti.dl_entry<i16, dense<16> : vector<2xi32>>, #dlti.dl_entry<f128, dense<128> : vector<2xi32>>, #dlti.dl_entry<f16, dense<16> : vector<2xi32>>, #dlti.dl_entry<!llvm.ptr<270>, dense<32> : vector<4xi32>>, #dlti.dl_entry<f64, dense<64> : vector<2xi32>>, #dlti.dl_entry<i64, dense<64> : vector<2xi32>>, #dlti.dl_entry<f80, dense<128> : vector<2xi32>>, #dlti.dl_entry<!llvm.ptr<271>, dense<32> : vector<4xi32>>, #dlti.dl_entry<!llvm.ptr<272>, dense<64> : vector<4xi32>>, #dlti.dl_entry<!llvm.ptr, dense<64> : vector<4xi32>>, #dlti.dl_entry<i1, dense<8> : vector<2xi32>>, #dlti.dl_entry<"dlti.endianness", "little">, #dlti.dl_entry<"dlti.stack_alignment", 128 : i32>>, llvm.data_layout = "e-m:e-p270:32:32-p271:32:32-p272:64:64-i64:64-f80:128-n8:16:32:64-S128", llvm.target_triple = "x86_64-unknown-linux-gnu", polygeist.gpu_module.llvm.data_layout = "e-i64:64-i128:128-v16:16-v32:32-n16:32:64", polygeist.gpu_module.llvm.target_triple = "nvptx64-nvidia-cuda", "polygeist.target-cpu" = "x86-64", "polygeist.target-features" = "+cmov,+cx8,+fxsr,+mmx,+sse,+sse2,+x87", "polygeist.tune-cpu" = "generic"} {
  gpu.module @_Z23symmetric_matmul_kernelPKfS0_Pfi_0 {
    gpu.func @_Z23symmetric_matmul_kernelPKfS0_Pfi(%arg0: memref<?xf32>, %arg1: memref<?xf32>, %arg2: memref<?xf32>, %arg3: i32) {
      %cst = arith.constant 0.000000e+00 : f32
      %c32_i32 = arith.constant 32 : i32
      %c-1 = arith.constant -1 : index
      %c31 = arith.constant 31 : index
      %c0 = arith.constant 0 : index
      %c1 = arith.constant 1 : index
      %c32 = arith.constant 32 : index
      %0 = "npu.alloca"() <{numElems = 1024 : i32}> : () -> !llvm.ptr<6>
      %1 = builtin.unrealized_conversion_cast %0 : !llvm.ptr<6> to memref<32x32xf32, 5>
      %2 = "npu.alloca"() <{numElems = 1024 : i32}> : () -> !llvm.ptr<6>
      %3 = builtin.unrealized_conversion_cast %2 : !llvm.ptr<6> to memref<32x32xf32, 5>
      %4 = "npu.alloca"() <{numElems = 32 : i32}> : () -> !llvm.ptr<6>
      %5 = builtin.unrealized_conversion_cast %4 : !llvm.ptr<6> to memref<32xf32, 5>
      %c1_0 = arith.constant 1 : index
      scf.for %arg4 = %c0 to %c32 step %c1_0 {
        memref.store %cst, %5[%arg4] : memref<32xf32, 5>
      }
      %6 = arith.muli %arg3, %c32_i32 : i32
      %7 = "npu.block_id"() <{dimension = "Y"}> : () -> i64
      %8 = builtin.unrealized_conversion_cast %7 : i64 to index
      %9 = arith.index_cast %8 : index to i32
      %10 = arith.muli %6, %9 : i32
      %11 = arith.index_cast %10 : i32 to index
      %12 = arith.addi %10, %arg3 : i32
      %13 = arith.index_cast %12 : i32 to index
      %14 = "npu.block_id"() <{dimension = "X"}> : () -> i64
      %15 = builtin.unrealized_conversion_cast %14 : i64 to index
      %16 = arith.muli %15, %c32 : index
      %17 = arith.index_cast %arg3 : i32 to index
      %18 = arith.muli %17, %c32 : index
      %19 = arith.muli %arg3, %arg3 : i32
      %20 = arith.index_cast %19 : i32 to index
      scf.for %arg4 = %11 to %13 step %c32 {
        %28 = arith.muli %arg4, %c-1 : index
        %29 = arith.subi %arg4, %11 : index
        %30 = arith.cmpi slt, %29, %c0 : index
        %31 = arith.subi %c-1, %29 : index
        %32 = arith.select %30, %31, %29 : index
        %33 = arith.divsi %32, %c32 : index
        %34 = arith.subi %c-1, %33 : index
        %35 = arith.select %30, %34, %33 : index
        %36 = arith.muli %35, %18 : index
        %c1_2 = arith.constant 1 : index
        scf.for %arg5 = %c0 to %c32 step %c1_2 {
          %37 = arith.addi %16, %arg5 : index
          %38 = arith.subi %28, %arg5 : index
          %39 = arith.addi %38, %20 : index
          %40 = arith.addi %39, %c-1 : index
          %41 = arith.cmpi sge, %40, %c0 : index
          %42 = arith.subi %c31, %arg5 : index
          %43 = arith.cmpi sge, %42, %c0 : index
          %44 = arith.andi %41, %43 : i1
          scf.if %44 {
            %45 = arith.addi %arg4, %arg5 : index
            %46 = memref.load %arg0[%45] : memref<?xf32>
            memref.store %46, %3[%c0, %arg5] : memref<32x32xf32, 5>
            %47 = arith.addi %36, %37 : index
            %48 = memref.load %arg1[%47] : memref<?xf32>
            memref.store %48, %1[%c0, %arg5] : memref<32x32xf32, 5>
          } else {
            memref.store %cst, %3[%c0, %arg5] : memref<32x32xf32, 5>
            memref.store %cst, %1[%c0, %arg5] : memref<32x32xf32, 5>
          }
        }
        %c1_3 = arith.constant 1 : index
        scf.for %arg5 = %c0 to %c32 step %c1_3 {
          %37 = memref.load %5[%arg5] : memref<32xf32, 5>
          %38 = scf.for %arg6 = %c0 to %c32 step %c1 iter_args(%arg7 = %37) -> (f32) {
            %39 = memref.load %3[%c0, %arg6] : memref<32x32xf32, 5>
            %40 = memref.load %1[%arg6, %arg5] : memref<32x32xf32, 5>
            %41 = emitc.mul %39, %40 : (f32, f32) -> f32
            %42 = emitc.add %arg7, %41 : (f32, f32) -> f32
            scf.yield %42 : f32
          }
          memref.store %38, %5[%arg5] : memref<32xf32, 5>
        }
      }
      %21 = arith.index_cast %15 : index to i32
      %22 = arith.muli %9, %c32_i32 : i32
      %23 = arith.muli %22, %arg3 : i32
      %24 = arith.index_cast %23 : i32 to index
      %25 = arith.cmpi slt, %22, %arg3 : i32
      %26 = arith.muli %21, %c32_i32 : i32
      %27 = arith.addi %24, %16 : index
      %c1_1 = arith.constant 1 : index
      scf.for %arg4 = %c0 to %c32 step %c1_1 {
        %28 = arith.index_cast %arg4 : index to i32
        %29 = memref.load %5[%arg4] : memref<32xf32, 5>
        %30 = arith.addi %26, %28 : i32
        %31 = arith.cmpi slt, %30, %arg3 : i32
        %32 = arith.andi %25, %31 : i1
        scf.if %32 {
          %33 = arith.addi %27, %arg4 : index
          memref.store %29, %arg2[%33] : memref<?xf32>
        }
      }
      gpu.return
    }
  }
}
[ict-debug] ConvertPolygeistToNPUPass::runOnOperation(): After convert to NPU: end

[ict-debug] driver.cc: Before convert to EmitC dialect:

module attributes {dlti.dl_spec = #dlti.dl_spec<#dlti.dl_entry<i32, dense<32> : vector<2xi32>>, #dlti.dl_entry<i8, dense<8> : vector<2xi32>>, #dlti.dl_entry<i16, dense<16> : vector<2xi32>>, #dlti.dl_entry<f128, dense<128> : vector<2xi32>>, #dlti.dl_entry<f16, dense<16> : vector<2xi32>>, #dlti.dl_entry<!llvm.ptr<270>, dense<32> : vector<4xi32>>, #dlti.dl_entry<f64, dense<64> : vector<2xi32>>, #dlti.dl_entry<i64, dense<64> : vector<2xi32>>, #dlti.dl_entry<f80, dense<128> : vector<2xi32>>, #dlti.dl_entry<!llvm.ptr<271>, dense<32> : vector<4xi32>>, #dlti.dl_entry<!llvm.ptr<272>, dense<64> : vector<4xi32>>, #dlti.dl_entry<!llvm.ptr, dense<64> : vector<4xi32>>, #dlti.dl_entry<i1, dense<8> : vector<2xi32>>, #dlti.dl_entry<"dlti.endianness", "little">, #dlti.dl_entry<"dlti.stack_alignment", 128 : i32>>, llvm.data_layout = "e-m:e-p270:32:32-p271:32:32-p272:64:64-i64:64-f80:128-n8:16:32:64-S128", llvm.target_triple = "x86_64-unknown-linux-gnu", polygeist.gpu_module.llvm.data_layout = "e-i64:64-i128:128-v16:16-v32:32-n16:32:64", polygeist.gpu_module.llvm.target_triple = "nvptx64-nvidia-cuda", "polygeist.target-cpu" = "x86-64", "polygeist.target-features" = "+cmov,+cx8,+fxsr,+mmx,+sse,+sse2,+x87", "polygeist.tune-cpu" = "generic"} {
  gpu.module @_Z23symmetric_matmul_kernelPKfS0_Pfi_0 {
    gpu.func @_Z23symmetric_matmul_kernelPKfS0_Pfi(%arg0: memref<?xf32>, %arg1: memref<?xf32>, %arg2: memref<?xf32>, %arg3: i32) {
      %cst = arith.constant 0.000000e+00 : f32
      %c32_i32 = arith.constant 32 : i32
      %c-1 = arith.constant -1 : index
      %c31 = arith.constant 31 : index
      %c0 = arith.constant 0 : index
      %c1 = arith.constant 1 : index
      %c32 = arith.constant 32 : index
      %0 = "npu.alloca"() <{numElems = 1024 : i32}> : () -> !llvm.ptr<6>
      %1 = builtin.unrealized_conversion_cast %0 : !llvm.ptr<6> to memref<32x32xf32, 5>
      %2 = "npu.alloca"() <{numElems = 1024 : i32}> : () -> !llvm.ptr<6>
      %3 = builtin.unrealized_conversion_cast %2 : !llvm.ptr<6> to memref<32x32xf32, 5>
      %4 = "npu.alloca"() <{numElems = 32 : i32}> : () -> !llvm.ptr<6>
      %5 = builtin.unrealized_conversion_cast %4 : !llvm.ptr<6> to memref<32xf32, 5>
      scf.for %arg4 = %c0 to %c32 step %c1 {
        memref.store %cst, %5[%arg4] : memref<32xf32, 5>
      }
      %6 = arith.muli %arg3, %c32_i32 : i32
      %7 = "npu.block_id"() <{dimension = "Y"}> : () -> i64
      %8 = builtin.unrealized_conversion_cast %7 : i64 to index
      %9 = arith.index_cast %8 : index to i32
      %10 = arith.muli %6, %9 : i32
      %11 = arith.index_cast %10 : i32 to index
      %12 = arith.addi %10, %arg3 : i32
      %13 = arith.index_cast %12 : i32 to index
      %14 = "npu.block_id"() <{dimension = "X"}> : () -> i64
      %15 = builtin.unrealized_conversion_cast %14 : i64 to index
      %16 = arith.muli %15, %c32 : index
      %17 = arith.index_cast %arg3 : i32 to index
      %18 = arith.muli %17, %c32 : index
      %19 = arith.muli %arg3, %arg3 : i32
      %20 = arith.index_cast %19 : i32 to index
      scf.for %arg4 = %11 to %13 step %c32 {
        %28 = arith.muli %arg4, %c-1 : index
        %29 = arith.subi %arg4, %11 : index
        %30 = arith.cmpi slt, %29, %c0 : index
        %31 = arith.subi %c-1, %29 : index
        %32 = arith.select %30, %31, %29 : index
        %33 = arith.divsi %32, %c32 : index
        %34 = arith.subi %c-1, %33 : index
        %35 = arith.select %30, %34, %33 : index
        %36 = arith.muli %35, %18 : index
        scf.for %arg5 = %c0 to %c32 step %c1 {
          %37 = arith.addi %16, %arg5 : index
          %38 = arith.subi %28, %arg5 : index
          %39 = arith.addi %38, %20 : index
          %40 = arith.addi %39, %c-1 : index
          %41 = arith.cmpi sge, %40, %c0 : index
          %42 = arith.subi %c31, %arg5 : index
          %43 = arith.cmpi sge, %42, %c0 : index
          %44 = arith.andi %41, %43 : i1
          scf.if %44 {
            %45 = arith.addi %arg4, %arg5 : index
            %46 = memref.load %arg0[%45] : memref<?xf32>
            memref.store %46, %3[%c0, %arg5] : memref<32x32xf32, 5>
            %47 = arith.addi %36, %37 : index
            %48 = memref.load %arg1[%47] : memref<?xf32>
            memref.store %48, %1[%c0, %arg5] : memref<32x32xf32, 5>
          } else {
            memref.store %cst, %3[%c0, %arg5] : memref<32x32xf32, 5>
            memref.store %cst, %1[%c0, %arg5] : memref<32x32xf32, 5>
          }
        }
        scf.for %arg5 = %c0 to %c32 step %c1 {
          %37 = memref.load %5[%arg5] : memref<32xf32, 5>
          %38 = scf.for %arg6 = %c0 to %c32 step %c1 iter_args(%arg7 = %37) -> (f32) {
            %39 = memref.load %3[%c0, %arg6] : memref<32x32xf32, 5>
            %40 = memref.load %1[%arg6, %arg5] : memref<32x32xf32, 5>
            %41 = emitc.mul %39, %40 : (f32, f32) -> f32
            %42 = emitc.add %arg7, %41 : (f32, f32) -> f32
            scf.yield %42 : f32
          }
          memref.store %38, %5[%arg5] : memref<32xf32, 5>
        }
      }
      %21 = arith.index_cast %15 : index to i32
      %22 = arith.muli %9, %c32_i32 : i32
      %23 = arith.muli %22, %arg3 : i32
      %24 = arith.index_cast %23 : i32 to index
      %25 = arith.cmpi slt, %22, %arg3 : i32
      %26 = arith.muli %21, %c32_i32 : i32
      %27 = arith.addi %24, %16 : index
      scf.for %arg4 = %c0 to %c32 step %c1 {
        %28 = arith.index_cast %arg4 : index to i32
        %29 = memref.load %5[%arg4] : memref<32xf32, 5>
        %30 = arith.addi %26, %28 : i32
        %31 = arith.cmpi slt, %30, %arg3 : i32
        %32 = arith.andi %25, %31 : i1
        scf.if %32 {
          %33 = arith.addi %27, %arg4 : index
          memref.store %29, %arg2[%33] : memref<?xf32>
        }
      }
      gpu.return
    }
  }
}
[ict-debug] driver.cc: Before convert to EmitC dialect: end

[ict-debug] driver.cc: After convert to EmitC dialect:

module attributes {dlti.dl_spec = #dlti.dl_spec<#dlti.dl_entry<i32, dense<32> : vector<2xi32>>, #dlti.dl_entry<i8, dense<8> : vector<2xi32>>, #dlti.dl_entry<i16, dense<16> : vector<2xi32>>, #dlti.dl_entry<f128, dense<128> : vector<2xi32>>, #dlti.dl_entry<f16, dense<16> : vector<2xi32>>, #dlti.dl_entry<!llvm.ptr<270>, dense<32> : vector<4xi32>>, #dlti.dl_entry<f64, dense<64> : vector<2xi32>>, #dlti.dl_entry<i64, dense<64> : vector<2xi32>>, #dlti.dl_entry<f80, dense<128> : vector<2xi32>>, #dlti.dl_entry<!llvm.ptr<271>, dense<32> : vector<4xi32>>, #dlti.dl_entry<!llvm.ptr<272>, dense<64> : vector<4xi32>>, #dlti.dl_entry<!llvm.ptr, dense<64> : vector<4xi32>>, #dlti.dl_entry<i1, dense<8> : vector<2xi32>>, #dlti.dl_entry<"dlti.endianness", "little">, #dlti.dl_entry<"dlti.stack_alignment", 128 : i32>>, llvm.data_layout = "e-m:e-p270:32:32-p271:32:32-p272:64:64-i64:64-f80:128-n8:16:32:64-S128", llvm.target_triple = "x86_64-unknown-linux-gnu", polygeist.gpu_module.llvm.data_layout = "e-i64:64-i128:128-v16:16-v32:32-n16:32:64", polygeist.gpu_module.llvm.target_triple = "nvptx64-nvidia-cuda", "polygeist.target-cpu" = "x86-64", "polygeist.target-features" = "+cmov,+cx8,+fxsr,+mmx,+sse,+sse2,+x87", "polygeist.tune-cpu" = "generic"} {
  gpu.module @_Z23symmetric_matmul_kernelPKfS0_Pfi_0 {
    gpu.func @_Z23symmetric_matmul_kernelPKfS0_Pfi(%arg0: memref<?xf32>, %arg1: memref<?xf32>, %arg2: memref<?xf32>, %arg3: i32) {
      %cst = arith.constant 0.000000e+00 : f32
      %c32_i32 = arith.constant 32 : i32
      %c-1 = arith.constant -1 : index
      %c31 = arith.constant 31 : index
      %c0 = arith.constant 0 : index
      %c1 = arith.constant 1 : index
      %c32 = arith.constant 32 : index
      %0 = "npu.alloca"() <{numElems = 1024 : i32}> : () -> !llvm.ptr<6>
      %1 = builtin.unrealized_conversion_cast %0 : !llvm.ptr<6> to memref<32x32xf32, 5>
      %2 = "npu.alloca"() <{numElems = 1024 : i32}> : () -> !llvm.ptr<6>
      %3 = builtin.unrealized_conversion_cast %2 : !llvm.ptr<6> to memref<32x32xf32, 5>
      %4 = "npu.alloca"() <{numElems = 32 : i32}> : () -> !llvm.ptr<6>
      %5 = builtin.unrealized_conversion_cast %4 : !llvm.ptr<6> to memref<32xf32, 5>
      scf.for %arg4 = %c0 to %c32 step %c1 {
        memref.store %cst, %5[%arg4] : memref<32xf32, 5>
      }
      %6 = arith.muli %arg3, %c32_i32 : i32
      %7 = "npu.block_id"() <{dimension = "Y"}> : () -> i64
      %8 = builtin.unrealized_conversion_cast %7 : i64 to index
      %9 = arith.index_cast %8 : index to i32
      %10 = arith.muli %6, %9 : i32
      %11 = arith.index_cast %10 : i32 to index
      %12 = arith.addi %10, %arg3 : i32
      %13 = arith.index_cast %12 : i32 to index
      %14 = "npu.block_id"() <{dimension = "X"}> : () -> i64
      %15 = builtin.unrealized_conversion_cast %14 : i64 to index
      %16 = arith.muli %15, %c32 : index
      %17 = arith.index_cast %arg3 : i32 to index
      %18 = arith.muli %17, %c32 : index
      %19 = arith.muli %arg3, %arg3 : i32
      %20 = arith.index_cast %19 : i32 to index
      scf.for %arg4 = %11 to %13 step %c32 {
        %28 = arith.muli %arg4, %c-1 : index
        %29 = arith.subi %arg4, %11 : index
        %30 = arith.cmpi slt, %29, %c0 : index
        %31 = arith.subi %c-1, %29 : index
        %32 = arith.select %30, %31, %29 : index
        %33 = arith.divsi %32, %c32 : index
        %34 = arith.subi %c-1, %33 : index
        %35 = arith.select %30, %34, %33 : index
        %36 = arith.muli %35, %18 : index
        scf.for %arg5 = %c0 to %c32 step %c1 {
          %37 = arith.addi %16, %arg5 : index
          %38 = arith.subi %28, %arg5 : index
          %39 = arith.addi %38, %20 : index
          %40 = arith.addi %39, %c-1 : index
          %41 = arith.cmpi sge, %40, %c0 : index
          %42 = arith.subi %c31, %arg5 : index
          %43 = arith.cmpi sge, %42, %c0 : index
          %44 = arith.andi %41, %43 : i1
          emitc.if %44 {
            %45 = arith.addi %arg4, %arg5 : index
            %46 = memref.load %arg0[%45] : memref<?xf32>
            memref.store %46, %3[%c0, %arg5] : memref<32x32xf32, 5>
            %47 = arith.addi %36, %37 : index
            %48 = memref.load %arg1[%47] : memref<?xf32>
            memref.store %48, %1[%c0, %arg5] : memref<32x32xf32, 5>
          } else {
            memref.store %cst, %3[%c0, %arg5] : memref<32x32xf32, 5>
            memref.store %cst, %1[%c0, %arg5] : memref<32x32xf32, 5>
          }
        }
        scf.for %arg5 = %c0 to %c32 step %c1 {
          %37 = memref.load %5[%arg5] : memref<32xf32, 5>
          %38 = scf.for %arg6 = %c0 to %c32 step %c1 iter_args(%arg7 = %37) -> (f32) {
            %39 = memref.load %3[%c0, %arg6] : memref<32x32xf32, 5>
            %40 = memref.load %1[%arg6, %arg5] : memref<32x32xf32, 5>
            %41 = emitc.mul %39, %40 : (f32, f32) -> f32
            %42 = emitc.add %arg7, %41 : (f32, f32) -> f32
            scf.yield %42 : f32
          }
          memref.store %38, %5[%arg5] : memref<32xf32, 5>
        }
      }
      %21 = arith.index_cast %15 : index to i32
      %22 = arith.muli %9, %c32_i32 : i32
      %23 = arith.muli %22, %arg3 : i32
      %24 = arith.index_cast %23 : i32 to index
      %25 = arith.cmpi slt, %22, %arg3 : i32
      %26 = arith.muli %21, %c32_i32 : i32
      %27 = arith.addi %24, %16 : index
      scf.for %arg4 = %c0 to %c32 step %c1 {
        %28 = arith.index_cast %arg4 : index to i32
        %29 = memref.load %5[%arg4] : memref<32xf32, 5>
        %30 = arith.addi %26, %28 : i32
        %31 = arith.cmpi slt, %30, %arg3 : i32
        %32 = arith.andi %25, %31 : i1
        emitc.if %32 {
          %33 = arith.addi %27, %arg4 : index
          memref.store %29, %arg2[%33] : memref<?xf32>
        }
      }
      gpu.return
    }
  }
}
[ict-debug] driver.cc: After convert to EmitC dialect: end

loc("./Ascend_kernels/gen_cuda_kernels/level_1_prlblem_13_sample_0_Matmul_for_symmetric_matrices.cu":13:14): error: 'arith.index_cast' op unable to find printer for op
[ict-debug] driver.cc: After emitc::translateToCpp:

