warning: CUDA version 12.1 is only partially supported
warning: CUDA version 12.1 is only partially supported
[ict-debug] driver.cc: After return 5, module:

module attributes {dlti.dl_spec = #dlti.dl_spec<#dlti.dl_entry<!llvm.ptr<270>, dense<32> : vector<4xi32>>, #dlti.dl_entry<!llvm.ptr<272>, dense<64> : vector<4xi32>>, #dlti.dl_entry<f64, dense<64> : vector<2xi32>>, #dlti.dl_entry<!llvm.ptr<271>, dense<32> : vector<4xi32>>, #dlti.dl_entry<f128, dense<128> : vector<2xi32>>, #dlti.dl_entry<i32, dense<32> : vector<2xi32>>, #dlti.dl_entry<f16, dense<16> : vector<2xi32>>, #dlti.dl_entry<i8, dense<8> : vector<2xi32>>, #dlti.dl_entry<i16, dense<16> : vector<2xi32>>, #dlti.dl_entry<i1, dense<8> : vector<2xi32>>, #dlti.dl_entry<!llvm.ptr, dense<64> : vector<4xi32>>, #dlti.dl_entry<i64, dense<64> : vector<2xi32>>, #dlti.dl_entry<f80, dense<128> : vector<2xi32>>, #dlti.dl_entry<"dlti.endianness", "little">, #dlti.dl_entry<"dlti.stack_alignment", 128 : i32>>, llvm.data_layout = "e-m:e-p270:32:32-p271:32:32-p272:64:64-i64:64-f80:128-n8:16:32:64-S128", llvm.target_triple = "x86_64-unknown-linux-gnu", polygeist.gpu_module.llvm.data_layout = "e-i64:64-i128:128-v16:16-v32:32-n16:32:64", polygeist.gpu_module.llvm.target_triple = "nvptx64-nvidia-cuda", "polygeist.target-cpu" = "x86-64", "polygeist.target-features" = "+cmov,+cx8,+fxsr,+mmx,+sse,+sse2,+x87", "polygeist.tune-cpu" = "generic"} {
  func.func private @_Z27__device_stub__MatMulKernelPKfS0_Pfiii(%arg0: memref<?xf32>, %arg1: memref<?xf32>, %arg2: memref<?xf32>, %arg3: i32, %arg4: i32, %arg5: i32) attributes {llvm.linkage = #llvm.linkage<external>, polygeist.device_only_func = "1"} {
    call @_Z12MatMulKernelPKfS0_Pfiii(%arg0, %arg1, %arg2, %arg3, %arg4, %arg5) : (memref<?xf32>, memref<?xf32>, memref<?xf32>, i32, i32, i32) -> ()
    return
  }
  func.func private @_Z12MatMulKernelPKfS0_Pfiii(%arg0: memref<?xf32>, %arg1: memref<?xf32>, %arg2: memref<?xf32>, %arg3: i32, %arg4: i32, %arg5: i32) attributes {llvm.linkage = #llvm.linkage<external>, polygeist.device_only_func = "1"} {
    %c16_i32 = arith.constant 16 : i32
    %cst = arith.constant 0.000000e+00 : f32
    %false = arith.constant false
    %c15_i32 = arith.constant 15 : i32
    %0 = arith.index_cast %arg3 : i32 to index
    %1 = arith.index_cast %arg4 : i32 to index
    %2 = arith.index_cast %arg5 : i32 to index
    %alloca = memref.alloca() : memref<16x16xf32, 5>
    %alloca_0 = memref.alloca() : memref<16x16xf32, 5>
    %3 = gpu.block_id  y
    %4 = arith.index_cast %3 : index to i32
    %5 = arith.muli %4, %c16_i32 : i32
    %6 = gpu.thread_id  y
    %7 = arith.index_cast %6 : index to i32
    %8 = arith.addi %5, %7 : i32
    %9 = arith.index_cast %8 : i32 to index
    %10 = arith.muli %8, %arg5 : i32
    %11 = arith.index_cast %10 : i32 to index
    %12 = gpu.block_id  x
    %13 = arith.index_cast %12 : index to i32
    %14 = arith.muli %13, %c16_i32 : i32
    %15 = gpu.thread_id  x
    %16 = arith.index_cast %15 : index to i32
    %17 = arith.addi %14, %16 : i32
    %18 = arith.index_cast %17 : i32 to index
    %19 = arith.index_cast %17 : i32 to index
    %20 = arith.addi %arg4, %c15_i32 : i32
    %21 = arith.divsi %20, %c16_i32 : i32
    %22 = arith.index_cast %21 : i32 to index
    %23 = gpu.thread_id  x
    %24 = arith.index_cast %23 : index to i32
    %25 = gpu.thread_id  y
    %26 = gpu.thread_id  y
    %27 = gpu.thread_id  x
    %28 = gpu.thread_id  y
    %29 = gpu.thread_id  x
    %30 = arith.muli %8, %arg4 : i32
    %31 = arith.index_cast %30 : i32 to index
    %32 = gpu.thread_id  y
    %33 = gpu.thread_id  x
    %34 = arith.cmpi slt, %17, %arg5 : i32
    %35 = gpu.thread_id  y
    %36 = gpu.thread_id  x
    %37 = gpu.thread_id  y
    %38 = gpu.thread_id  x
    %39 = affine.for %arg6 = 0 to %22 iter_args(%arg7 = %cst) -> (f32) {
      %43 = arith.index_cast %arg6 : index to i32
      %44 = arith.muli %43, %c16_i32 : i32
      %45 = arith.addi %44, %24 : i32
      %46 = affine.if affine_set<()[s0, s1] : (-s0 + s1 - 1 >= 0)>()[%9, %0] -> i1 {
        %49 = arith.cmpi slt, %45, %arg4 : i32
        affine.yield %49 : i1
      } else {
        affine.yield %false : i1
      }
      scf.if %46 {
        %49 = affine.load %arg0[%arg6 * 16 + symbol(%31) + symbol(%23)] : memref<?xf32>
        affine.store %49, %alloca_0[symbol(%28), symbol(%29)] : memref<16x16xf32, 5>
      } else {
        affine.store %cst, %alloca_0[symbol(%32), symbol(%33)] : memref<16x16xf32, 5>
      }
      %47 = affine.if affine_set<(d0)[s0, s1] : (d0 * -16 - s0 + s1 - 1 >= 0)>(%arg6)[%25, %1] -> i1 {
        affine.yield %34 : i1
      } else {
        affine.yield %false : i1
      }
      scf.if %47 {
        %49 = affine.load %arg1[(%arg6 * 16 + symbol(%25)) * symbol(%2) + symbol(%18)] : memref<?xf32>
        affine.store %49, %alloca[symbol(%35), symbol(%36)] : memref<16x16xf32, 5>
      } else {
        affine.store %cst, %alloca[symbol(%37), symbol(%38)] : memref<16x16xf32, 5>
      }
      nvvm.barrier0
      %48 = affine.for %arg8 = 0 to 16 iter_args(%arg9 = %arg7) -> (f32) {
        %49 = affine.load %alloca_0[symbol(%26), %arg8] : memref<16x16xf32, 5>
        %50 = affine.load %alloca[%arg8, symbol(%27)] : memref<16x16xf32, 5>
        %51 = arith.mulf %49, %50 : f32
        %52 = arith.addf %arg9, %51 : f32
        affine.yield %52 : f32
      }
      nvvm.barrier0
      affine.yield %48 : f32
    }
    %40 = arith.cmpi slt, %8, %arg3 : i32
    %41 = arith.cmpi slt, %17, %arg5 : i32
    %42 = arith.andi %40, %41 : i1
    scf.if %42 {
      affine.store %39, %arg2[symbol(%11) + symbol(%19)] : memref<?xf32>
    }
    return
  }
}
[ict-debug] driver.cc: After return 5, module: end

[ict-debug] driver.cc: After return 6, module:

module attributes {dlti.dl_spec = #dlti.dl_spec<#dlti.dl_entry<!llvm.ptr<270>, dense<32> : vector<4xi32>>, #dlti.dl_entry<!llvm.ptr<272>, dense<64> : vector<4xi32>>, #dlti.dl_entry<f64, dense<64> : vector<2xi32>>, #dlti.dl_entry<!llvm.ptr<271>, dense<32> : vector<4xi32>>, #dlti.dl_entry<f128, dense<128> : vector<2xi32>>, #dlti.dl_entry<i32, dense<32> : vector<2xi32>>, #dlti.dl_entry<f16, dense<16> : vector<2xi32>>, #dlti.dl_entry<i8, dense<8> : vector<2xi32>>, #dlti.dl_entry<i16, dense<16> : vector<2xi32>>, #dlti.dl_entry<i1, dense<8> : vector<2xi32>>, #dlti.dl_entry<!llvm.ptr, dense<64> : vector<4xi32>>, #dlti.dl_entry<i64, dense<64> : vector<2xi32>>, #dlti.dl_entry<f80, dense<128> : vector<2xi32>>, #dlti.dl_entry<"dlti.endianness", "little">, #dlti.dl_entry<"dlti.stack_alignment", 128 : i32>>, llvm.data_layout = "e-m:e-p270:32:32-p271:32:32-p272:64:64-i64:64-f80:128-n8:16:32:64-S128", llvm.target_triple = "x86_64-unknown-linux-gnu", polygeist.gpu_module.llvm.data_layout = "e-i64:64-i128:128-v16:16-v32:32-n16:32:64", polygeist.gpu_module.llvm.target_triple = "nvptx64-nvidia-cuda", "polygeist.target-cpu" = "x86-64", "polygeist.target-features" = "+cmov,+cx8,+fxsr,+mmx,+sse,+sse2,+x87", "polygeist.tune-cpu" = "generic"} {
  func.func private @_Z12MatMulKernelPKfS0_Pfiii(%arg0: memref<?xf32>, %arg1: memref<?xf32>, %arg2: memref<?xf32>, %arg3: i32, %arg4: i32, %arg5: i32) attributes {llvm.linkage = #llvm.linkage<external>, polygeist.device_only_func = "1"} {
    %c16_i32 = arith.constant 16 : i32
    %cst = arith.constant 0.000000e+00 : f32
    %false = arith.constant false
    %c15_i32 = arith.constant 15 : i32
    %0 = arith.index_cast %arg3 : i32 to index
    %1 = arith.index_cast %arg4 : i32 to index
    %2 = arith.index_cast %arg5 : i32 to index
    %alloca = memref.alloca() : memref<16x16xf32, 5>
    %alloca_0 = memref.alloca() : memref<16x16xf32, 5>
    %3 = gpu.block_id  y
    %4 = arith.index_cast %3 : index to i32
    %5 = arith.muli %4, %c16_i32 : i32
    %6 = gpu.thread_id  y
    %7 = arith.index_cast %6 : index to i32
    %8 = arith.addi %5, %7 : i32
    %9 = arith.index_cast %8 : i32 to index
    %10 = arith.muli %8, %arg5 : i32
    %11 = arith.index_cast %10 : i32 to index
    %12 = gpu.block_id  x
    %13 = arith.index_cast %12 : index to i32
    %14 = arith.muli %13, %c16_i32 : i32
    %15 = gpu.thread_id  x
    %16 = arith.index_cast %15 : index to i32
    %17 = arith.addi %14, %16 : i32
    %18 = arith.index_cast %17 : i32 to index
    %19 = arith.addi %arg4, %c15_i32 : i32
    %20 = arith.divsi %19, %c16_i32 : i32
    %21 = arith.index_cast %20 : i32 to index
    %22 = arith.muli %8, %arg4 : i32
    %23 = arith.index_cast %22 : i32 to index
    %24 = arith.cmpi slt, %17, %arg5 : i32
    %25 = affine.for %arg6 = 0 to %21 iter_args(%arg7 = %cst) -> (f32) {
      %28 = arith.index_cast %arg6 : index to i32
      %29 = arith.muli %28, %c16_i32 : i32
      %30 = arith.addi %29, %16 : i32
      %31 = affine.if affine_set<()[s0, s1] : (s0 - s1 - 1 >= 0)>()[%0, %9] -> i1 {
        %33 = arith.cmpi slt, %30, %arg4 : i32
        affine.yield %33 : i1
      } else {
        affine.yield %false : i1
      }
      scf.if %31 {
        %33 = affine.load %arg0[%arg6 * 16 + symbol(%23) + symbol(%15)] : memref<?xf32>
        affine.store %33, %alloca_0[symbol(%6), symbol(%15)] : memref<16x16xf32, 5>
      } else {
        affine.store %cst, %alloca_0[symbol(%6), symbol(%15)] : memref<16x16xf32, 5>
      }
      affine.if affine_set<(d0)[s0, s1, s2, s3] : (d0 * -16 - s0 + s1 - 1 >= 0, -s2 + s3 - 1 >= 0)>(%arg6)[%6, %1, %18, %2] {
        %33 = affine.load %arg1[(%arg6 * 16 + symbol(%6)) * symbol(%2) + symbol(%18)] : memref<?xf32>
        affine.store %33, %alloca[symbol(%6), symbol(%15)] : memref<16x16xf32, 5>
      } else {
        affine.store %cst, %alloca[symbol(%6), symbol(%15)] : memref<16x16xf32, 5>
      }
      nvvm.barrier0
      %32 = affine.for %arg8 = 0 to 16 iter_args(%arg9 = %arg7) -> (f32) {
        %33 = affine.load %alloca_0[symbol(%6), %arg8] : memref<16x16xf32, 5>
        %34 = affine.load %alloca[%arg8, symbol(%15)] : memref<16x16xf32, 5>
        %35 = arith.mulf %33, %34 : f32
        %36 = arith.addf %arg9, %35 : f32
        affine.yield %36 : f32
      }
      nvvm.barrier0
      affine.yield %32 : f32
    }
    %26 = arith.cmpi slt, %8, %arg3 : i32
    %27 = arith.andi %26, %24 : i1
    scf.if %27 {
      affine.store %25, %arg2[symbol(%11) + symbol(%18)] : memref<?xf32>
    }
    return
  }
}
[ict-debug] driver.cc: After return 6, module: end

WrapAndReplaceBarrierPass::runOnOperation(): before execute: 
module attributes {dlti.dl_spec = #dlti.dl_spec<#dlti.dl_entry<!llvm.ptr<270>, dense<32> : vector<4xi32>>, #dlti.dl_entry<!llvm.ptr<272>, dense<64> : vector<4xi32>>, #dlti.dl_entry<f64, dense<64> : vector<2xi32>>, #dlti.dl_entry<!llvm.ptr<271>, dense<32> : vector<4xi32>>, #dlti.dl_entry<f128, dense<128> : vector<2xi32>>, #dlti.dl_entry<i32, dense<32> : vector<2xi32>>, #dlti.dl_entry<f16, dense<16> : vector<2xi32>>, #dlti.dl_entry<i8, dense<8> : vector<2xi32>>, #dlti.dl_entry<i16, dense<16> : vector<2xi32>>, #dlti.dl_entry<i1, dense<8> : vector<2xi32>>, #dlti.dl_entry<!llvm.ptr, dense<64> : vector<4xi32>>, #dlti.dl_entry<i64, dense<64> : vector<2xi32>>, #dlti.dl_entry<f80, dense<128> : vector<2xi32>>, #dlti.dl_entry<"dlti.endianness", "little">, #dlti.dl_entry<"dlti.stack_alignment", 128 : i32>>, llvm.data_layout = "e-m:e-p270:32:32-p271:32:32-p272:64:64-i64:64-f80:128-n8:16:32:64-S128", llvm.target_triple = "x86_64-unknown-linux-gnu", polygeist.gpu_module.llvm.data_layout = "e-i64:64-i128:128-v16:16-v32:32-n16:32:64", polygeist.gpu_module.llvm.target_triple = "nvptx64-nvidia-cuda", "polygeist.target-cpu" = "x86-64", "polygeist.target-features" = "+cmov,+cx8,+fxsr,+mmx,+sse,+sse2,+x87", "polygeist.tune-cpu" = "generic"} {
  func.func private @_Z12MatMulKernelPKfS0_Pfiii(%arg0: memref<?xf32>, %arg1: memref<?xf32>, %arg2: memref<?xf32>, %arg3: i32, %arg4: i32, %arg5: i32) attributes {llvm.linkage = #llvm.linkage<external>, polygeist.device_only_func = "1"} {
    %c-16 = arith.constant -16 : index
    %c16 = arith.constant 16 : index
    %c-1 = arith.constant -1 : index
    %c1 = arith.constant 1 : index
    %c0 = arith.constant 0 : index
    %c16_i32 = arith.constant 16 : i32
    %cst = arith.constant 0.000000e+00 : f32
    %false = arith.constant false
    %c15_i32 = arith.constant 15 : i32
    %0 = arith.index_cast %arg3 : i32 to index
    %1 = arith.index_cast %arg4 : i32 to index
    %2 = arith.index_cast %arg5 : i32 to index
    %alloca = memref.alloca() : memref<16x16xf32, 5>
    %alloca_0 = memref.alloca() : memref<16x16xf32, 5>
    %3 = gpu.block_id  y
    %4 = arith.index_cast %3 : index to i32
    %5 = arith.muli %4, %c16_i32 : i32
    %6 = gpu.thread_id  y
    %7 = arith.index_cast %6 : index to i32
    %8 = arith.addi %5, %7 : i32
    %9 = arith.index_cast %8 : i32 to index
    %10 = arith.muli %8, %arg5 : i32
    %11 = arith.index_cast %10 : i32 to index
    %12 = gpu.block_id  x
    %13 = arith.index_cast %12 : index to i32
    %14 = arith.muli %13, %c16_i32 : i32
    %15 = gpu.thread_id  x
    %16 = arith.index_cast %15 : index to i32
    %17 = arith.addi %14, %16 : i32
    %18 = arith.index_cast %17 : i32 to index
    %19 = arith.addi %arg4, %c15_i32 : i32
    %20 = arith.divsi %19, %c16_i32 : i32
    %21 = arith.index_cast %20 : i32 to index
    %22 = arith.muli %8, %arg4 : i32
    %23 = arith.index_cast %22 : i32 to index
    %24 = arith.cmpi slt, %17, %arg5 : i32
    %25 = scf.for %arg6 = %c0 to %21 step %c1 iter_args(%arg7 = %cst) -> (f32) {
      %28 = arith.index_cast %arg6 : index to i32
      %29 = arith.muli %28, %c16_i32 : i32
      %30 = arith.addi %29, %16 : i32
      %31 = arith.subi %0, %9 : index
      %32 = arith.addi %31, %c-1 : index
      %33 = arith.cmpi sge, %32, %c0 : index
      %34 = scf.if %33 -> (i1) {
        %45 = arith.cmpi slt, %30, %arg4 : i32
        scf.yield %45 : i1
      } else {
        scf.yield %false : i1
      }
      scf.if %34 {
        %45 = arith.muli %arg6, %c16 : index
        %46 = arith.addi %45, %23 : index
        %47 = arith.addi %46, %15 : index
        %48 = memref.load %arg0[%47] : memref<?xf32>
        memref.store %48, %alloca_0[%6, %15] : memref<16x16xf32, 5>
      } else {
        memref.store %cst, %alloca_0[%6, %15] : memref<16x16xf32, 5>
      }
      %35 = arith.muli %arg6, %c-16 : index
      %36 = arith.subi %35, %6 : index
      %37 = arith.addi %36, %1 : index
      %38 = arith.addi %37, %c-1 : index
      %39 = arith.cmpi sge, %38, %c0 : index
      %40 = arith.subi %2, %18 : index
      %41 = arith.addi %40, %c-1 : index
      %42 = arith.cmpi sge, %41, %c0 : index
      %43 = arith.andi %39, %42 : i1
      scf.if %43 {
        %45 = arith.muli %arg6, %c16 : index
        %46 = arith.addi %45, %6 : index
        %47 = arith.muli %46, %2 : index
        %48 = arith.addi %47, %18 : index
        %49 = memref.load %arg1[%48] : memref<?xf32>
        memref.store %49, %alloca[%6, %15] : memref<16x16xf32, 5>
      } else {
        memref.store %cst, %alloca[%6, %15] : memref<16x16xf32, 5>
      }
      nvvm.barrier0
      %44 = scf.for %arg8 = %c0 to %c16 step %c1 iter_args(%arg9 = %arg7) -> (f32) {
        %45 = memref.load %alloca_0[%6, %arg8] : memref<16x16xf32, 5>
        %46 = memref.load %alloca[%arg8, %15] : memref<16x16xf32, 5>
        %47 = arith.mulf %45, %46 : f32
        %48 = arith.addf %arg9, %47 : f32
        scf.yield %48 : f32
      }
      nvvm.barrier0
      scf.yield %44 : f32
    }
    %26 = arith.cmpi slt, %8, %arg3 : i32
    %27 = arith.andi %26, %24 : i1
    scf.if %27 {
      %28 = arith.addi %11, %18 : index
      memref.store %25, %arg2[%28] : memref<?xf32>
    }
    return
  }
}
WrapAndReplaceBarrierPass::runOnOperation(): before execute: end
[ict-error] WrapAndReplaceBarrierPass::runOnOperation(): gpuThreadIdOp.getDimension() != gpu::Dimension::x

