warning: CUDA version 12.1 is only partially supported
warning: CUDA version 12.1 is only partially supported
[ict-debug] driver.cc: After return 5, module:

module attributes {dlti.dl_spec = #dlti.dl_spec<#dlti.dl_entry<i64, dense<64> : vector<2xi32>>, #dlti.dl_entry<!llvm.ptr<272>, dense<64> : vector<4xi32>>, #dlti.dl_entry<f80, dense<128> : vector<2xi32>>, #dlti.dl_entry<i1, dense<8> : vector<2xi32>>, #dlti.dl_entry<!llvm.ptr, dense<64> : vector<4xi32>>, #dlti.dl_entry<i32, dense<32> : vector<2xi32>>, #dlti.dl_entry<i8, dense<8> : vector<2xi32>>, #dlti.dl_entry<i16, dense<16> : vector<2xi32>>, #dlti.dl_entry<!llvm.ptr<271>, dense<32> : vector<4xi32>>, #dlti.dl_entry<f16, dense<16> : vector<2xi32>>, #dlti.dl_entry<f64, dense<64> : vector<2xi32>>, #dlti.dl_entry<!llvm.ptr<270>, dense<32> : vector<4xi32>>, #dlti.dl_entry<f128, dense<128> : vector<2xi32>>, #dlti.dl_entry<"dlti.stack_alignment", 128 : i32>, #dlti.dl_entry<"dlti.endianness", "little">>, llvm.data_layout = "e-m:e-p270:32:32-p271:32:32-p272:64:64-i64:64-f80:128-n8:16:32:64-S128", llvm.target_triple = "x86_64-unknown-linux-gnu", polygeist.gpu_module.llvm.data_layout = "e-i64:64-i128:128-v16:16-v32:32-n16:32:64", polygeist.gpu_module.llvm.target_triple = "nvptx64-nvidia-cuda", "polygeist.target-cpu" = "x86-64", "polygeist.target-features" = "+cmov,+cx8,+fxsr,+mmx,+sse,+sse2,+x87", "polygeist.tune-cpu" = "generic"} {
  func.func private @_Z28__device_stub__matmul_kernelPKfS0_Pfiii(%arg0: memref<?xf32>, %arg1: memref<?xf32>, %arg2: memref<?xf32>, %arg3: i32, %arg4: i32, %arg5: i32) attributes {llvm.linkage = #llvm.linkage<external>, polygeist.device_only_func = "1"} {
    call @_Z13matmul_kernelPKfS0_Pfiii(%arg0, %arg1, %arg2, %arg3, %arg4, %arg5) : (memref<?xf32>, memref<?xf32>, memref<?xf32>, i32, i32, i32) -> ()
    return
  }
  func.func private @_Z13matmul_kernelPKfS0_Pfiii(%arg0: memref<?xf32>, %arg1: memref<?xf32>, %arg2: memref<?xf32>, %arg3: i32, %arg4: i32, %arg5: i32) attributes {llvm.linkage = #llvm.linkage<external>, polygeist.device_only_func = "1"} {
    %c32_i32 = arith.constant 32 : i32
    %cst = arith.constant 0.000000e+00 : f32
    %false = arith.constant false
    %c-1_i32 = arith.constant -1 : i32
    %0 = arith.index_cast %arg3 : i32 to index
    %1 = arith.index_cast %arg5 : i32 to index
    %2 = arith.index_cast %arg4 : i32 to index
    %alloca = memref.alloca() : memref<32x32xf32, 5>
    %alloca_0 = memref.alloca() : memref<32x32xf32, 5>
    %3 = gpu.block_id  x
    %4 = arith.index_cast %3 : index to i32
    %5 = gpu.block_id  y
    %6 = arith.index_cast %5 : index to i32
    %7 = gpu.thread_id  x
    %8 = arith.index_cast %7 : index to i32
    %9 = gpu.thread_id  y
    %10 = arith.index_cast %9 : index to i32
    %11 = arith.muli %6, %c32_i32 : i32
    %12 = arith.addi %11, %10 : i32
    %13 = arith.index_cast %12 : i32 to index
    %14 = arith.muli %12, %arg4 : i32
    %15 = arith.index_cast %14 : i32 to index
    %16 = arith.muli %4, %c32_i32 : i32
    %17 = arith.addi %16, %8 : i32
    %18 = arith.index_cast %17 : i32 to index
    %19 = arith.index_cast %17 : i32 to index
    %20 = arith.addi %arg5, %c-1_i32 : i32
    %21 = arith.divsi %20, %c32_i32 : i32
    %22 = arith.index_cast %21 : i32 to index
    %23 = arith.muli %12, %arg5 : i32
    %24 = arith.index_cast %23 : i32 to index
    %25 = arith.cmpi slt, %17, %arg4 : i32
    %26 = affine.for %arg6 = 0 to affine_map<()[s0] -> (s0 + 1)>()[%22] iter_args(%arg7 = %cst) -> (f32) {
      %30 = arith.index_cast %arg6 : index to i32
      %31 = affine.if affine_set<()[s0, s1] : (-s0 + s1 - 1 >= 0)>()[%13, %0] -> i1 {
        %34 = arith.muli %30, %c32_i32 : i32
        %35 = arith.addi %34, %8 : i32
        %36 = arith.cmpi slt, %35, %arg5 : i32
        affine.yield %36 : i1
      } else {
        affine.yield %false : i1
      }
      scf.if %31 {
        %34 = affine.load %arg0[%arg6 * 32 + symbol(%24) + symbol(%7)] : memref<?xf32>
        affine.store %34, %alloca_0[symbol(%9), symbol(%7)] : memref<32x32xf32, 5>
      } else {
        affine.store %cst, %alloca_0[symbol(%9), symbol(%7)] : memref<32x32xf32, 5>
      }
      %32 = affine.if affine_set<(d0)[s0, s1] : (d0 * -32 - s0 + s1 - 1 >= 0)>(%arg6)[%9, %1] -> i1 {
        affine.yield %25 : i1
      } else {
        affine.yield %false : i1
      }
      scf.if %32 {
        %34 = affine.load %arg1[(%arg6 * 32 + symbol(%9)) * symbol(%2) + symbol(%18)] : memref<?xf32>
        affine.store %34, %alloca[symbol(%9), symbol(%7)] : memref<32x32xf32, 5>
      } else {
        affine.store %cst, %alloca[symbol(%9), symbol(%7)] : memref<32x32xf32, 5>
      }
      nvvm.barrier0
      %33 = affine.for %arg8 = 0 to 32 iter_args(%arg9 = %arg7) -> (f32) {
        %34 = affine.load %alloca_0[symbol(%9), %arg8] : memref<32x32xf32, 5>
        %35 = affine.load %alloca[%arg8, symbol(%7)] : memref<32x32xf32, 5>
        %36 = arith.mulf %34, %35 : f32
        %37 = arith.addf %arg9, %36 : f32
        affine.yield %37 : f32
      }
      nvvm.barrier0
      affine.yield %33 : f32
    }
    %27 = arith.cmpi slt, %12, %arg3 : i32
    %28 = arith.cmpi slt, %17, %arg4 : i32
    %29 = arith.andi %27, %28 : i1
    scf.if %29 {
      affine.store %26, %arg2[symbol(%15) + symbol(%19)] : memref<?xf32>
    }
    return
  }
}
[ict-debug] driver.cc: After return 5, module: end

[ict-debug] driver.cc: After return 6, module:

module attributes {dlti.dl_spec = #dlti.dl_spec<#dlti.dl_entry<i64, dense<64> : vector<2xi32>>, #dlti.dl_entry<!llvm.ptr<272>, dense<64> : vector<4xi32>>, #dlti.dl_entry<f80, dense<128> : vector<2xi32>>, #dlti.dl_entry<i1, dense<8> : vector<2xi32>>, #dlti.dl_entry<!llvm.ptr, dense<64> : vector<4xi32>>, #dlti.dl_entry<i32, dense<32> : vector<2xi32>>, #dlti.dl_entry<i8, dense<8> : vector<2xi32>>, #dlti.dl_entry<i16, dense<16> : vector<2xi32>>, #dlti.dl_entry<!llvm.ptr<271>, dense<32> : vector<4xi32>>, #dlti.dl_entry<f16, dense<16> : vector<2xi32>>, #dlti.dl_entry<f64, dense<64> : vector<2xi32>>, #dlti.dl_entry<!llvm.ptr<270>, dense<32> : vector<4xi32>>, #dlti.dl_entry<f128, dense<128> : vector<2xi32>>, #dlti.dl_entry<"dlti.stack_alignment", 128 : i32>, #dlti.dl_entry<"dlti.endianness", "little">>, llvm.data_layout = "e-m:e-p270:32:32-p271:32:32-p272:64:64-i64:64-f80:128-n8:16:32:64-S128", llvm.target_triple = "x86_64-unknown-linux-gnu", polygeist.gpu_module.llvm.data_layout = "e-i64:64-i128:128-v16:16-v32:32-n16:32:64", polygeist.gpu_module.llvm.target_triple = "nvptx64-nvidia-cuda", "polygeist.target-cpu" = "x86-64", "polygeist.target-features" = "+cmov,+cx8,+fxsr,+mmx,+sse,+sse2,+x87", "polygeist.tune-cpu" = "generic"} {
  func.func private @_Z13matmul_kernelPKfS0_Pfiii(%arg0: memref<?xf32>, %arg1: memref<?xf32>, %arg2: memref<?xf32>, %arg3: i32, %arg4: i32, %arg5: i32) attributes {llvm.linkage = #llvm.linkage<external>, polygeist.device_only_func = "1"} {
    %c32_i32 = arith.constant 32 : i32
    %cst = arith.constant 0.000000e+00 : f32
    %false = arith.constant false
    %c-1_i32 = arith.constant -1 : i32
    %0 = arith.index_cast %arg3 : i32 to index
    %1 = arith.index_cast %arg5 : i32 to index
    %2 = arith.index_cast %arg4 : i32 to index
    %alloca = memref.alloca() : memref<32x32xf32, 5>
    %alloca_0 = memref.alloca() : memref<32x32xf32, 5>
    %3 = gpu.block_id  x
    %4 = arith.index_cast %3 : index to i32
    %5 = gpu.block_id  y
    %6 = arith.index_cast %5 : index to i32
    %7 = gpu.thread_id  x
    %8 = arith.index_cast %7 : index to i32
    %9 = gpu.thread_id  y
    %10 = arith.index_cast %9 : index to i32
    %11 = arith.muli %6, %c32_i32 : i32
    %12 = arith.addi %11, %10 : i32
    %13 = arith.index_cast %12 : i32 to index
    %14 = arith.muli %12, %arg4 : i32
    %15 = arith.index_cast %14 : i32 to index
    %16 = arith.muli %4, %c32_i32 : i32
    %17 = arith.addi %16, %8 : i32
    %18 = arith.index_cast %17 : i32 to index
    %19 = arith.addi %arg5, %c-1_i32 : i32
    %20 = arith.divsi %19, %c32_i32 : i32
    %21 = arith.index_cast %20 : i32 to index
    %22 = arith.muli %12, %arg5 : i32
    %23 = arith.index_cast %22 : i32 to index
    %24 = arith.cmpi slt, %17, %arg4 : i32
    %25 = affine.for %arg6 = 0 to affine_map<()[s0] -> (s0 + 1)>()[%21] iter_args(%arg7 = %cst) -> (f32) {
      %28 = arith.index_cast %arg6 : index to i32
      %29 = affine.if affine_set<()[s0, s1] : (s0 - s1 - 1 >= 0)>()[%0, %13] -> i1 {
        %31 = arith.muli %28, %c32_i32 : i32
        %32 = arith.addi %31, %8 : i32
        %33 = arith.cmpi slt, %32, %arg5 : i32
        affine.yield %33 : i1
      } else {
        affine.yield %false : i1
      }
      scf.if %29 {
        %31 = affine.load %arg0[%arg6 * 32 + symbol(%23) + symbol(%7)] : memref<?xf32>
        affine.store %31, %alloca_0[symbol(%9), symbol(%7)] : memref<32x32xf32, 5>
      } else {
        affine.store %cst, %alloca_0[symbol(%9), symbol(%7)] : memref<32x32xf32, 5>
      }
      affine.if affine_set<(d0)[s0, s1, s2, s3] : (d0 * -32 - s0 + s1 - 1 >= 0, -s2 + s3 - 1 >= 0)>(%arg6)[%9, %1, %18, %2] {
        %31 = affine.load %arg1[(%arg6 * 32 + symbol(%9)) * symbol(%2) + symbol(%18)] : memref<?xf32>
        affine.store %31, %alloca[symbol(%9), symbol(%7)] : memref<32x32xf32, 5>
      } else {
        affine.store %cst, %alloca[symbol(%9), symbol(%7)] : memref<32x32xf32, 5>
      }
      nvvm.barrier0
      %30 = affine.for %arg8 = 0 to 32 iter_args(%arg9 = %arg7) -> (f32) {
        %31 = affine.load %alloca_0[symbol(%9), %arg8] : memref<32x32xf32, 5>
        %32 = affine.load %alloca[%arg8, symbol(%7)] : memref<32x32xf32, 5>
        %33 = arith.mulf %31, %32 : f32
        %34 = arith.addf %arg9, %33 : f32
        affine.yield %34 : f32
      }
      nvvm.barrier0
      affine.yield %30 : f32
    }
    %26 = arith.cmpi slt, %12, %arg3 : i32
    %27 = arith.andi %26, %24 : i1
    scf.if %27 {
      affine.store %25, %arg2[symbol(%15) + symbol(%18)] : memref<?xf32>
    }
    return
  }
}
[ict-debug] driver.cc: After return 6, module: end

WrapAndReplaceBarrierPass::runOnOperation(): before execute: 
module attributes {dlti.dl_spec = #dlti.dl_spec<#dlti.dl_entry<i64, dense<64> : vector<2xi32>>, #dlti.dl_entry<!llvm.ptr<272>, dense<64> : vector<4xi32>>, #dlti.dl_entry<f80, dense<128> : vector<2xi32>>, #dlti.dl_entry<i1, dense<8> : vector<2xi32>>, #dlti.dl_entry<!llvm.ptr, dense<64> : vector<4xi32>>, #dlti.dl_entry<i32, dense<32> : vector<2xi32>>, #dlti.dl_entry<i8, dense<8> : vector<2xi32>>, #dlti.dl_entry<i16, dense<16> : vector<2xi32>>, #dlti.dl_entry<!llvm.ptr<271>, dense<32> : vector<4xi32>>, #dlti.dl_entry<f16, dense<16> : vector<2xi32>>, #dlti.dl_entry<f64, dense<64> : vector<2xi32>>, #dlti.dl_entry<!llvm.ptr<270>, dense<32> : vector<4xi32>>, #dlti.dl_entry<f128, dense<128> : vector<2xi32>>, #dlti.dl_entry<"dlti.stack_alignment", 128 : i32>, #dlti.dl_entry<"dlti.endianness", "little">>, llvm.data_layout = "e-m:e-p270:32:32-p271:32:32-p272:64:64-i64:64-f80:128-n8:16:32:64-S128", llvm.target_triple = "x86_64-unknown-linux-gnu", polygeist.gpu_module.llvm.data_layout = "e-i64:64-i128:128-v16:16-v32:32-n16:32:64", polygeist.gpu_module.llvm.target_triple = "nvptx64-nvidia-cuda", "polygeist.target-cpu" = "x86-64", "polygeist.target-features" = "+cmov,+cx8,+fxsr,+mmx,+sse,+sse2,+x87", "polygeist.tune-cpu" = "generic"} {
  func.func private @_Z13matmul_kernelPKfS0_Pfiii(%arg0: memref<?xf32>, %arg1: memref<?xf32>, %arg2: memref<?xf32>, %arg3: i32, %arg4: i32, %arg5: i32) attributes {llvm.linkage = #llvm.linkage<external>, polygeist.device_only_func = "1"} {
    %c-32 = arith.constant -32 : index
    %c32 = arith.constant 32 : index
    %c-1 = arith.constant -1 : index
    %c1 = arith.constant 1 : index
    %c0 = arith.constant 0 : index
    %c32_i32 = arith.constant 32 : i32
    %cst = arith.constant 0.000000e+00 : f32
    %false = arith.constant false
    %c-1_i32 = arith.constant -1 : i32
    %0 = arith.index_cast %arg3 : i32 to index
    %1 = arith.index_cast %arg5 : i32 to index
    %2 = arith.index_cast %arg4 : i32 to index
    %alloca = memref.alloca() : memref<32x32xf32, 5>
    %alloca_0 = memref.alloca() : memref<32x32xf32, 5>
    %3 = gpu.block_id  x
    %4 = arith.index_cast %3 : index to i32
    %5 = gpu.block_id  y
    %6 = arith.index_cast %5 : index to i32
    %7 = gpu.thread_id  x
    %8 = arith.index_cast %7 : index to i32
    %9 = gpu.thread_id  y
    %10 = arith.index_cast %9 : index to i32
    %11 = arith.muli %6, %c32_i32 : i32
    %12 = arith.addi %11, %10 : i32
    %13 = arith.index_cast %12 : i32 to index
    %14 = arith.muli %12, %arg4 : i32
    %15 = arith.index_cast %14 : i32 to index
    %16 = arith.muli %4, %c32_i32 : i32
    %17 = arith.addi %16, %8 : i32
    %18 = arith.index_cast %17 : i32 to index
    %19 = arith.addi %arg5, %c-1_i32 : i32
    %20 = arith.divsi %19, %c32_i32 : i32
    %21 = arith.index_cast %20 : i32 to index
    %22 = arith.muli %12, %arg5 : i32
    %23 = arith.index_cast %22 : i32 to index
    %24 = arith.cmpi slt, %17, %arg4 : i32
    %25 = arith.addi %21, %c1 : index
    %26 = scf.for %arg6 = %c0 to %25 step %c1 iter_args(%arg7 = %cst) -> (f32) {
      %29 = arith.index_cast %arg6 : index to i32
      %30 = arith.subi %0, %13 : index
      %31 = arith.addi %30, %c-1 : index
      %32 = arith.cmpi sge, %31, %c0 : index
      %33 = scf.if %32 -> (i1) {
        %44 = arith.muli %29, %c32_i32 : i32
        %45 = arith.addi %44, %8 : i32
        %46 = arith.cmpi slt, %45, %arg5 : i32
        scf.yield %46 : i1
      } else {
        scf.yield %false : i1
      }
      scf.if %33 {
        %44 = arith.muli %arg6, %c32 : index
        %45 = arith.addi %44, %23 : index
        %46 = arith.addi %45, %7 : index
        %47 = memref.load %arg0[%46] : memref<?xf32>
        memref.store %47, %alloca_0[%9, %7] : memref<32x32xf32, 5>
      } else {
        memref.store %cst, %alloca_0[%9, %7] : memref<32x32xf32, 5>
      }
      %34 = arith.muli %arg6, %c-32 : index
      %35 = arith.subi %34, %9 : index
      %36 = arith.addi %35, %1 : index
      %37 = arith.addi %36, %c-1 : index
      %38 = arith.cmpi sge, %37, %c0 : index
      %39 = arith.subi %2, %18 : index
      %40 = arith.addi %39, %c-1 : index
      %41 = arith.cmpi sge, %40, %c0 : index
      %42 = arith.andi %38, %41 : i1
      scf.if %42 {
        %44 = arith.muli %arg6, %c32 : index
        %45 = arith.addi %44, %9 : index
        %46 = arith.muli %45, %2 : index
        %47 = arith.addi %46, %18 : index
        %48 = memref.load %arg1[%47] : memref<?xf32>
        memref.store %48, %alloca[%9, %7] : memref<32x32xf32, 5>
      } else {
        memref.store %cst, %alloca[%9, %7] : memref<32x32xf32, 5>
      }
      nvvm.barrier0
      %43 = scf.for %arg8 = %c0 to %c32 step %c1 iter_args(%arg9 = %arg7) -> (f32) {
        %44 = memref.load %alloca_0[%9, %arg8] : memref<32x32xf32, 5>
        %45 = memref.load %alloca[%arg8, %7] : memref<32x32xf32, 5>
        %46 = arith.mulf %44, %45 : f32
        %47 = arith.addf %arg9, %46 : f32
        scf.yield %47 : f32
      }
      nvvm.barrier0
      scf.yield %43 : f32
    }
    %27 = arith.cmpi slt, %12, %arg3 : i32
    %28 = arith.andi %27, %24 : i1
    scf.if %28 {
      %29 = arith.addi %15, %18 : index
      memref.store %26, %arg2[%29] : memref<?xf32>
    }
    return
  }
}
WrapAndReplaceBarrierPass::runOnOperation(): before execute: end
[ict-error] WrapAndReplaceBarrierPass::runOnOperation(): gpuThreadIdOp.getDimension() != gpu::Dimension::x

