warning: CUDA version 12.1 is only partially supported
warning: CUDA version 12.1 is only partially supported
[ict-debug] driver.cc: After return 5, module:

module attributes {dlti.dl_spec = #dlti.dl_spec<#dlti.dl_entry<!llvm.ptr<272>, dense<64> : vector<4xi32>>, #dlti.dl_entry<!llvm.ptr<271>, dense<32> : vector<4xi32>>, #dlti.dl_entry<i64, dense<64> : vector<2xi32>>, #dlti.dl_entry<f64, dense<64> : vector<2xi32>>, #dlti.dl_entry<f128, dense<128> : vector<2xi32>>, #dlti.dl_entry<!llvm.ptr<270>, dense<32> : vector<4xi32>>, #dlti.dl_entry<f16, dense<16> : vector<2xi32>>, #dlti.dl_entry<i16, dense<16> : vector<2xi32>>, #dlti.dl_entry<i32, dense<32> : vector<2xi32>>, #dlti.dl_entry<i1, dense<8> : vector<2xi32>>, #dlti.dl_entry<i8, dense<8> : vector<2xi32>>, #dlti.dl_entry<!llvm.ptr, dense<64> : vector<4xi32>>, #dlti.dl_entry<f80, dense<128> : vector<2xi32>>, #dlti.dl_entry<"dlti.endianness", "little">, #dlti.dl_entry<"dlti.stack_alignment", 128 : i32>>, llvm.data_layout = "e-m:e-p270:32:32-p271:32:32-p272:64:64-i64:64-f80:128-n8:16:32:64-S128", llvm.target_triple = "x86_64-unknown-linux-gnu", polygeist.gpu_module.llvm.data_layout = "e-i64:64-i128:128-v16:16-v32:32-n16:32:64", polygeist.gpu_module.llvm.target_triple = "nvptx64-nvidia-cuda", "polygeist.target-cpu" = "x86-64", "polygeist.target-features" = "+cmov,+cx8,+fxsr,+mmx,+sse,+sse2,+x87", "polygeist.tune-cpu" = "generic"} {
  func.func private @_Z33__device_stub__diag_matmul_kernelPKfS0_Pfii(%arg0: memref<?xf32>, %arg1: memref<?xf32>, %arg2: memref<?xf32>, %arg3: i32, %arg4: i32) attributes {llvm.linkage = #llvm.linkage<external>, polygeist.device_only_func = "1"} {
    call @_Z18diag_matmul_kernelPKfS0_Pfii(%arg0, %arg1, %arg2, %arg3, %arg4) : (memref<?xf32>, memref<?xf32>, memref<?xf32>, i32, i32) -> ()
    return
  }
  func.func private @_Z18diag_matmul_kernelPKfS0_Pfii(%arg0: memref<?xf32>, %arg1: memref<?xf32>, %arg2: memref<?xf32>, %arg3: i32, %arg4: i32) attributes {llvm.linkage = #llvm.linkage<external>, polygeist.device_only_func = "1"} {
    %0 = gpu.block_id  y
    %1 = arith.index_cast %0 : index to i32
    %2 = gpu.block_dim  y
    %3 = arith.index_cast %2 : index to i32
    %4 = arith.muli %1, %3 : i32
    %5 = gpu.thread_id  y
    %6 = arith.index_cast %5 : index to i32
    %7 = arith.addi %4, %6 : i32
    %8 = arith.index_cast %7 : i32 to index
    %9 = arith.muli %7, %arg4 : i32
    %10 = arith.index_cast %9 : i32 to index
    %11 = arith.index_cast %9 : i32 to index
    %12 = gpu.block_id  x
    %13 = arith.index_cast %12 : index to i32
    %14 = gpu.block_dim  x
    %15 = arith.index_cast %14 : index to i32
    %16 = arith.muli %13, %15 : i32
    %17 = gpu.thread_id  x
    %18 = arith.index_cast %17 : index to i32
    %19 = arith.addi %16, %18 : i32
    %20 = arith.index_cast %19 : i32 to index
    %21 = arith.index_cast %19 : i32 to index
    %22 = arith.cmpi slt, %7, %arg3 : i32
    %23 = arith.cmpi slt, %19, %arg4 : i32
    %24 = arith.andi %22, %23 : i1
    scf.if %24 {
      %25 = affine.load %arg0[symbol(%8)] : memref<?xf32>
      %26 = affine.load %arg1[symbol(%10) + symbol(%20)] : memref<?xf32>
      %27 = arith.mulf %25, %26 : f32
      affine.store %27, %arg2[symbol(%11) + symbol(%21)] : memref<?xf32>
    }
    return
  }
}
[ict-debug] driver.cc: After return 5, module: end

[ict-debug] driver.cc: After return 6, module:

module attributes {dlti.dl_spec = #dlti.dl_spec<#dlti.dl_entry<!llvm.ptr<272>, dense<64> : vector<4xi32>>, #dlti.dl_entry<!llvm.ptr<271>, dense<32> : vector<4xi32>>, #dlti.dl_entry<i64, dense<64> : vector<2xi32>>, #dlti.dl_entry<f64, dense<64> : vector<2xi32>>, #dlti.dl_entry<f128, dense<128> : vector<2xi32>>, #dlti.dl_entry<!llvm.ptr<270>, dense<32> : vector<4xi32>>, #dlti.dl_entry<f16, dense<16> : vector<2xi32>>, #dlti.dl_entry<i16, dense<16> : vector<2xi32>>, #dlti.dl_entry<i32, dense<32> : vector<2xi32>>, #dlti.dl_entry<i1, dense<8> : vector<2xi32>>, #dlti.dl_entry<i8, dense<8> : vector<2xi32>>, #dlti.dl_entry<!llvm.ptr, dense<64> : vector<4xi32>>, #dlti.dl_entry<f80, dense<128> : vector<2xi32>>, #dlti.dl_entry<"dlti.endianness", "little">, #dlti.dl_entry<"dlti.stack_alignment", 128 : i32>>, llvm.data_layout = "e-m:e-p270:32:32-p271:32:32-p272:64:64-i64:64-f80:128-n8:16:32:64-S128", llvm.target_triple = "x86_64-unknown-linux-gnu", polygeist.gpu_module.llvm.data_layout = "e-i64:64-i128:128-v16:16-v32:32-n16:32:64", polygeist.gpu_module.llvm.target_triple = "nvptx64-nvidia-cuda", "polygeist.target-cpu" = "x86-64", "polygeist.target-features" = "+cmov,+cx8,+fxsr,+mmx,+sse,+sse2,+x87", "polygeist.tune-cpu" = "generic"} {
  func.func private @_Z18diag_matmul_kernelPKfS0_Pfii(%arg0: memref<?xf32>, %arg1: memref<?xf32>, %arg2: memref<?xf32>, %arg3: i32, %arg4: i32) attributes {llvm.linkage = #llvm.linkage<external>, polygeist.device_only_func = "1"} {
    %0 = gpu.block_id  y
    %1 = arith.index_cast %0 : index to i32
    %2 = gpu.block_dim  y
    %3 = arith.index_cast %2 : index to i32
    %4 = arith.muli %1, %3 : i32
    %5 = gpu.thread_id  y
    %6 = arith.index_cast %5 : index to i32
    %7 = arith.addi %4, %6 : i32
    %8 = arith.index_cast %7 : i32 to index
    %9 = arith.muli %7, %arg4 : i32
    %10 = arith.index_cast %9 : i32 to index
    %11 = gpu.block_id  x
    %12 = arith.index_cast %11 : index to i32
    %13 = gpu.block_dim  x
    %14 = arith.index_cast %13 : index to i32
    %15 = arith.muli %12, %14 : i32
    %16 = gpu.thread_id  x
    %17 = arith.index_cast %16 : index to i32
    %18 = arith.addi %15, %17 : i32
    %19 = arith.index_cast %18 : i32 to index
    %20 = arith.cmpi slt, %7, %arg3 : i32
    %21 = arith.cmpi slt, %18, %arg4 : i32
    %22 = arith.andi %20, %21 : i1
    scf.if %22 {
      %23 = affine.load %arg0[symbol(%8)] : memref<?xf32>
      %24 = affine.load %arg1[symbol(%10) + symbol(%19)] : memref<?xf32>
      %25 = arith.mulf %23, %24 : f32
      affine.store %25, %arg2[symbol(%10) + symbol(%19)] : memref<?xf32>
    }
    return
  }
}
[ict-debug] driver.cc: After return 6, module: end

WrapAndReplaceBarrierPass::runOnOperation(): before execute: 
module attributes {dlti.dl_spec = #dlti.dl_spec<#dlti.dl_entry<!llvm.ptr<272>, dense<64> : vector<4xi32>>, #dlti.dl_entry<!llvm.ptr<271>, dense<32> : vector<4xi32>>, #dlti.dl_entry<i64, dense<64> : vector<2xi32>>, #dlti.dl_entry<f64, dense<64> : vector<2xi32>>, #dlti.dl_entry<f128, dense<128> : vector<2xi32>>, #dlti.dl_entry<!llvm.ptr<270>, dense<32> : vector<4xi32>>, #dlti.dl_entry<f16, dense<16> : vector<2xi32>>, #dlti.dl_entry<i16, dense<16> : vector<2xi32>>, #dlti.dl_entry<i32, dense<32> : vector<2xi32>>, #dlti.dl_entry<i1, dense<8> : vector<2xi32>>, #dlti.dl_entry<i8, dense<8> : vector<2xi32>>, #dlti.dl_entry<!llvm.ptr, dense<64> : vector<4xi32>>, #dlti.dl_entry<f80, dense<128> : vector<2xi32>>, #dlti.dl_entry<"dlti.endianness", "little">, #dlti.dl_entry<"dlti.stack_alignment", 128 : i32>>, llvm.data_layout = "e-m:e-p270:32:32-p271:32:32-p272:64:64-i64:64-f80:128-n8:16:32:64-S128", llvm.target_triple = "x86_64-unknown-linux-gnu", polygeist.gpu_module.llvm.data_layout = "e-i64:64-i128:128-v16:16-v32:32-n16:32:64", polygeist.gpu_module.llvm.target_triple = "nvptx64-nvidia-cuda", "polygeist.target-cpu" = "x86-64", "polygeist.target-features" = "+cmov,+cx8,+fxsr,+mmx,+sse,+sse2,+x87", "polygeist.tune-cpu" = "generic"} {
  func.func private @_Z18diag_matmul_kernelPKfS0_Pfii(%arg0: memref<?xf32>, %arg1: memref<?xf32>, %arg2: memref<?xf32>, %arg3: i32, %arg4: i32) attributes {llvm.linkage = #llvm.linkage<external>, polygeist.device_only_func = "1"} {
    %0 = gpu.block_id  y
    %1 = arith.index_cast %0 : index to i32
    %2 = gpu.block_dim  y
    %3 = arith.index_cast %2 : index to i32
    %4 = arith.muli %1, %3 : i32
    %5 = gpu.thread_id  y
    %6 = arith.index_cast %5 : index to i32
    %7 = arith.addi %4, %6 : i32
    %8 = arith.index_cast %7 : i32 to index
    %9 = arith.muli %7, %arg4 : i32
    %10 = arith.index_cast %9 : i32 to index
    %11 = gpu.block_id  x
    %12 = arith.index_cast %11 : index to i32
    %13 = gpu.block_dim  x
    %14 = arith.index_cast %13 : index to i32
    %15 = arith.muli %12, %14 : i32
    %16 = gpu.thread_id  x
    %17 = arith.index_cast %16 : index to i32
    %18 = arith.addi %15, %17 : i32
    %19 = arith.index_cast %18 : i32 to index
    %20 = arith.cmpi slt, %7, %arg3 : i32
    %21 = arith.cmpi slt, %18, %arg4 : i32
    %22 = arith.andi %20, %21 : i1
    scf.if %22 {
      %23 = memref.load %arg0[%8] : memref<?xf32>
      %24 = arith.addi %10, %19 : index
      %25 = memref.load %arg1[%24] : memref<?xf32>
      %26 = arith.mulf %23, %25 : f32
      memref.store %26, %arg2[%24] : memref<?xf32>
    }
    return
  }
}
WrapAndReplaceBarrierPass::runOnOperation(): before execute: end
WrapAndReplaceBarrierPass::runOnOperation(): after execute: 
module attributes {dlti.dl_spec = #dlti.dl_spec<#dlti.dl_entry<!llvm.ptr<272>, dense<64> : vector<4xi32>>, #dlti.dl_entry<!llvm.ptr<271>, dense<32> : vector<4xi32>>, #dlti.dl_entry<i64, dense<64> : vector<2xi32>>, #dlti.dl_entry<f64, dense<64> : vector<2xi32>>, #dlti.dl_entry<f128, dense<128> : vector<2xi32>>, #dlti.dl_entry<!llvm.ptr<270>, dense<32> : vector<4xi32>>, #dlti.dl_entry<f16, dense<16> : vector<2xi32>>, #dlti.dl_entry<i16, dense<16> : vector<2xi32>>, #dlti.dl_entry<i32, dense<32> : vector<2xi32>>, #dlti.dl_entry<i1, dense<8> : vector<2xi32>>, #dlti.dl_entry<i8, dense<8> : vector<2xi32>>, #dlti.dl_entry<!llvm.ptr, dense<64> : vector<4xi32>>, #dlti.dl_entry<f80, dense<128> : vector<2xi32>>, #dlti.dl_entry<"dlti.endianness", "little">, #dlti.dl_entry<"dlti.stack_alignment", 128 : i32>>, llvm.data_layout = "e-m:e-p270:32:32-p271:32:32-p272:64:64-i64:64-f80:128-n8:16:32:64-S128", llvm.target_triple = "x86_64-unknown-linux-gnu", polygeist.gpu_module.llvm.data_layout = "e-i64:64-i128:128-v16:16-v32:32-n16:32:64", polygeist.gpu_module.llvm.target_triple = "nvptx64-nvidia-cuda", "polygeist.target-cpu" = "x86-64", "polygeist.target-features" = "+cmov,+cx8,+fxsr,+mmx,+sse,+sse2,+x87", "polygeist.tune-cpu" = "generic"} {
  func.func @_Z18diag_matmul_kernelPKfS0_Pfii(%arg0: memref<?xf32>, %arg1: memref<?xf32>, %arg2: memref<?xf32>, %arg3: i32, %arg4: i32) attributes {llvm.linkage = #llvm.linkage<external>, polygeist.device_only_func = "1"} {
    %c0 = arith.constant 0 : index
    %c1 = arith.constant 1 : index
    %c32 = arith.constant 32 : index
    scf.parallel (%arg5) = (%c0) to (%c32) step (%c1) {
      %c1_0 = arith.constant 1 : index
      %0 = arith.divui %arg5, %c1_0 : index
      %c1_1 = arith.constant 1 : index
      %1 = arith.remui %arg5, %c1_1 : index
      %2 = gpu.block_id  y
      %3 = arith.index_cast %2 : index to i32
      %4 = gpu.block_dim  y
      %5 = arith.index_cast %4 : index to i32
      %6 = arith.muli %3, %5 : i32
      %7 = arith.index_cast %1 : index to i32
      %8 = arith.addi %6, %7 : i32
      %9 = arith.index_cast %8 : i32 to index
      %10 = arith.muli %8, %arg4 : i32
      %11 = arith.index_cast %10 : i32 to index
      %12 = gpu.block_id  x
      %13 = arith.index_cast %12 : index to i32
      %14 = gpu.block_dim  x
      %15 = arith.index_cast %14 : index to i32
      %16 = arith.muli %13, %15 : i32
      %17 = arith.index_cast %0 : index to i32
      %18 = arith.addi %16, %17 : i32
      %19 = arith.index_cast %18 : i32 to index
      %20 = arith.cmpi slt, %8, %arg3 : i32
      %21 = arith.cmpi slt, %18, %arg4 : i32
      %22 = arith.andi %20, %21 : i1
      scf.if %22 {
        %23 = memref.load %arg0[%9] : memref<?xf32>
        %24 = arith.addi %11, %19 : index
        %25 = memref.load %arg1[%24] : memref<?xf32>
        %26 = arith.mulf %23, %25 : f32
        memref.store %26, %arg2[%24] : memref<?xf32>
      }
      scf.yield
    }
    return
  }
}
WrapAndReplaceBarrierPass::runOnOperation(): after execute: end
[ict-debug] driver.cc: After return 7, module:

module attributes {dlti.dl_spec = #dlti.dl_spec<#dlti.dl_entry<!llvm.ptr<272>, dense<64> : vector<4xi32>>, #dlti.dl_entry<!llvm.ptr<271>, dense<32> : vector<4xi32>>, #dlti.dl_entry<i64, dense<64> : vector<2xi32>>, #dlti.dl_entry<f64, dense<64> : vector<2xi32>>, #dlti.dl_entry<f128, dense<128> : vector<2xi32>>, #dlti.dl_entry<!llvm.ptr<270>, dense<32> : vector<4xi32>>, #dlti.dl_entry<f16, dense<16> : vector<2xi32>>, #dlti.dl_entry<i16, dense<16> : vector<2xi32>>, #dlti.dl_entry<i32, dense<32> : vector<2xi32>>, #dlti.dl_entry<i1, dense<8> : vector<2xi32>>, #dlti.dl_entry<i8, dense<8> : vector<2xi32>>, #dlti.dl_entry<!llvm.ptr, dense<64> : vector<4xi32>>, #dlti.dl_entry<f80, dense<128> : vector<2xi32>>, #dlti.dl_entry<"dlti.endianness", "little">, #dlti.dl_entry<"dlti.stack_alignment", 128 : i32>>, llvm.data_layout = "e-m:e-p270:32:32-p271:32:32-p272:64:64-i64:64-f80:128-n8:16:32:64-S128", llvm.target_triple = "x86_64-unknown-linux-gnu", polygeist.gpu_module.llvm.data_layout = "e-i64:64-i128:128-v16:16-v32:32-n16:32:64", polygeist.gpu_module.llvm.target_triple = "nvptx64-nvidia-cuda", "polygeist.target-cpu" = "x86-64", "polygeist.target-features" = "+cmov,+cx8,+fxsr,+mmx,+sse,+sse2,+x87", "polygeist.tune-cpu" = "generic"} {
  func.func @_Z18diag_matmul_kernelPKfS0_Pfii(%arg0: memref<?xf32>, %arg1: memref<?xf32>, %arg2: memref<?xf32>, %arg3: i32, %arg4: i32) attributes {llvm.linkage = #llvm.linkage<external>, polygeist.device_only_func = "1"} {
    %c0 = arith.constant 0 : index
    %c1 = arith.constant 1 : index
    %c32 = arith.constant 32 : index
    scf.parallel (%arg5) = (%c0) to (%c32) step (%c1) {
      %c1_0 = arith.constant 1 : index
      %0 = arith.divui %arg5, %c1_0 : index
      %c1_1 = arith.constant 1 : index
      %1 = arith.remui %arg5, %c1_1 : index
      %2 = gpu.block_id  y
      %3 = arith.index_cast %2 : index to i32
      %4 = gpu.block_dim  y
      %5 = arith.index_cast %4 : index to i32
      %6 = arith.muli %3, %5 : i32
      %7 = arith.index_cast %1 : index to i32
      %8 = arith.addi %6, %7 : i32
      %9 = arith.index_cast %8 : i32 to index
      %10 = arith.muli %8, %arg4 : i32
      %11 = arith.index_cast %10 : i32 to index
      %12 = gpu.block_id  x
      %13 = arith.index_cast %12 : index to i32
      %14 = gpu.block_dim  x
      %15 = arith.index_cast %14 : index to i32
      %16 = arith.muli %13, %15 : i32
      %17 = arith.index_cast %0 : index to i32
      %18 = arith.addi %16, %17 : i32
      %19 = arith.index_cast %18 : i32 to index
      %20 = arith.cmpi slt, %8, %arg3 : i32
      %21 = arith.cmpi slt, %18, %arg4 : i32
      %22 = arith.andi %20, %21 : i1
      scf.if %22 {
        %23 = memref.load %arg0[%9] : memref<?xf32>
        %24 = arith.addi %11, %19 : index
        %25 = memref.load %arg1[%24] : memref<?xf32>
        %26 = arith.mulf %23, %25 : f32
        memref.store %26, %arg2[%24] : memref<?xf32>
      }
      scf.yield
    }
    return
  }
}
[ict-debug] driver.cc: After return 7, module: end

[ict-debug] driver.cc: Before my pass process:

module attributes {dlti.dl_spec = #dlti.dl_spec<#dlti.dl_entry<!llvm.ptr<272>, dense<64> : vector<4xi32>>, #dlti.dl_entry<!llvm.ptr<271>, dense<32> : vector<4xi32>>, #dlti.dl_entry<i64, dense<64> : vector<2xi32>>, #dlti.dl_entry<f64, dense<64> : vector<2xi32>>, #dlti.dl_entry<f128, dense<128> : vector<2xi32>>, #dlti.dl_entry<!llvm.ptr<270>, dense<32> : vector<4xi32>>, #dlti.dl_entry<f16, dense<16> : vector<2xi32>>, #dlti.dl_entry<i16, dense<16> : vector<2xi32>>, #dlti.dl_entry<i32, dense<32> : vector<2xi32>>, #dlti.dl_entry<i1, dense<8> : vector<2xi32>>, #dlti.dl_entry<i8, dense<8> : vector<2xi32>>, #dlti.dl_entry<!llvm.ptr, dense<64> : vector<4xi32>>, #dlti.dl_entry<f80, dense<128> : vector<2xi32>>, #dlti.dl_entry<"dlti.endianness", "little">, #dlti.dl_entry<"dlti.stack_alignment", 128 : i32>>, llvm.data_layout = "e-m:e-p270:32:32-p271:32:32-p272:64:64-i64:64-f80:128-n8:16:32:64-S128", llvm.target_triple = "x86_64-unknown-linux-gnu", polygeist.gpu_module.llvm.data_layout = "e-i64:64-i128:128-v16:16-v32:32-n16:32:64", polygeist.gpu_module.llvm.target_triple = "nvptx64-nvidia-cuda", "polygeist.target-cpu" = "x86-64", "polygeist.target-features" = "+cmov,+cx8,+fxsr,+mmx,+sse,+sse2,+x87", "polygeist.tune-cpu" = "generic"} {
  func.func @_Z18diag_matmul_kernelPKfS0_Pfii(%arg0: memref<?xf32>, %arg1: memref<?xf32>, %arg2: memref<?xf32>, %arg3: i32, %arg4: i32) attributes {llvm.linkage = #llvm.linkage<external>, polygeist.device_only_func = "1"} {
    %c0 = arith.constant 0 : index
    %c1 = arith.constant 1 : index
    %c32 = arith.constant 32 : index
    %0 = gpu.block_id  y
    %1 = arith.index_cast %0 : index to i32
    %2 = gpu.block_dim  y
    %3 = arith.index_cast %2 : index to i32
    %4 = arith.muli %1, %3 : i32
    %5 = arith.index_cast %4 : i32 to index
    %6 = arith.muli %4, %arg4 : i32
    %7 = arith.index_cast %6 : i32 to index
    %8 = gpu.block_id  x
    %9 = arith.index_cast %8 : index to i32
    %10 = gpu.block_dim  x
    %11 = arith.index_cast %10 : index to i32
    %12 = arith.muli %9, %11 : i32
    %13 = arith.cmpi slt, %4, %arg3 : i32
    scf.parallel (%arg5) = (%c0) to (%c32) step (%c1) {
      %14 = arith.index_cast %arg5 : index to i32
      %15 = arith.addi %12, %14 : i32
      %16 = arith.index_cast %15 : i32 to index
      %17 = arith.cmpi slt, %15, %arg4 : i32
      %18 = arith.andi %13, %17 : i1
      scf.if %18 {
        %19 = memref.load %arg0[%5] : memref<?xf32>
        %20 = arith.addi %7, %16 : index
        %21 = memref.load %arg1[%20] : memref<?xf32>
        %22 = arith.mulf %19, %21 : f32
        memref.store %22, %arg2[%20] : memref<?xf32>
      }
      scf.yield
    }
    return
  }
}
[ict-debug] driver.cc: Before my pass process: end

[ict-debug] driver.cc: vectorizeSize = 1

[ict-debug] ConvertPolygeistToNPUPass::runOnOperation(): Before execute:

module attributes {dlti.dl_spec = #dlti.dl_spec<#dlti.dl_entry<!llvm.ptr<272>, dense<64> : vector<4xi32>>, #dlti.dl_entry<!llvm.ptr<271>, dense<32> : vector<4xi32>>, #dlti.dl_entry<i64, dense<64> : vector<2xi32>>, #dlti.dl_entry<f64, dense<64> : vector<2xi32>>, #dlti.dl_entry<f128, dense<128> : vector<2xi32>>, #dlti.dl_entry<!llvm.ptr<270>, dense<32> : vector<4xi32>>, #dlti.dl_entry<f16, dense<16> : vector<2xi32>>, #dlti.dl_entry<i16, dense<16> : vector<2xi32>>, #dlti.dl_entry<i32, dense<32> : vector<2xi32>>, #dlti.dl_entry<i1, dense<8> : vector<2xi32>>, #dlti.dl_entry<i8, dense<8> : vector<2xi32>>, #dlti.dl_entry<!llvm.ptr, dense<64> : vector<4xi32>>, #dlti.dl_entry<f80, dense<128> : vector<2xi32>>, #dlti.dl_entry<"dlti.endianness", "little">, #dlti.dl_entry<"dlti.stack_alignment", 128 : i32>>, llvm.data_layout = "e-m:e-p270:32:32-p271:32:32-p272:64:64-i64:64-f80:128-n8:16:32:64-S128", llvm.target_triple = "x86_64-unknown-linux-gnu", polygeist.gpu_module.llvm.data_layout = "e-i64:64-i128:128-v16:16-v32:32-n16:32:64", polygeist.gpu_module.llvm.target_triple = "nvptx64-nvidia-cuda", "polygeist.target-cpu" = "x86-64", "polygeist.target-features" = "+cmov,+cx8,+fxsr,+mmx,+sse,+sse2,+x87", "polygeist.tune-cpu" = "generic"} {
  gpu.module @_Z18diag_matmul_kernelPKfS0_Pfii_0 {
    gpu.func @_Z18diag_matmul_kernelPKfS0_Pfii(%arg0: memref<?xf32>, %arg1: memref<?xf32>, %arg2: memref<?xf32>, %arg3: i32, %arg4: i32) {
      %c0 = arith.constant 0 : index
      %c1 = arith.constant 1 : index
      %c32 = arith.constant 32 : index
      %0 = gpu.block_id  y
      %1 = arith.index_cast %0 : index to i32
      %2 = gpu.block_dim  y
      %3 = arith.index_cast %2 : index to i32
      %4 = arith.muli %1, %3 : i32
      %5 = arith.index_cast %4 : i32 to index
      %6 = arith.muli %4, %arg4 : i32
      %7 = arith.index_cast %6 : i32 to index
      %8 = gpu.block_id  x
      %9 = arith.index_cast %8 : index to i32
      %10 = gpu.block_dim  x
      %11 = arith.index_cast %10 : index to i32
      %12 = arith.muli %9, %11 : i32
      %13 = arith.cmpi slt, %4, %arg3 : i32
      scf.parallel (%arg5) = (%c0) to (%c32) step (%c1) {
        %14 = arith.index_cast %arg5 : index to i32
        %15 = arith.addi %12, %14 : i32
        %16 = arith.index_cast %15 : i32 to index
        %17 = arith.cmpi slt, %15, %arg4 : i32
        %18 = arith.andi %13, %17 : i1
        scf.if %18 {
          %19 = memref.load %arg0[%5] : memref<?xf32>
          %20 = arith.addi %7, %16 : index
          %21 = memref.load %arg1[%20] : memref<?xf32>
          %22 = arith.mulf %19, %21 : f32
          memref.store %22, %arg2[%20] : memref<?xf32>
        }
        scf.yield
      }
      gpu.return
    }
  }
}
[ict-debug] ConvertPolygeistToNPUPass::runOnOperation(): Before execute: end

[ict-debug] ConvertPolygeistToNPU:convertScfParallelToScfFor(): replace gpu.block_dim op with thread loop bound

[ict-debug] ConvertPolygeistToNPUPass::runOnOperation(): After vectorize:

module attributes {dlti.dl_spec = #dlti.dl_spec<#dlti.dl_entry<!llvm.ptr<272>, dense<64> : vector<4xi32>>, #dlti.dl_entry<!llvm.ptr<271>, dense<32> : vector<4xi32>>, #dlti.dl_entry<i64, dense<64> : vector<2xi32>>, #dlti.dl_entry<f64, dense<64> : vector<2xi32>>, #dlti.dl_entry<f128, dense<128> : vector<2xi32>>, #dlti.dl_entry<!llvm.ptr<270>, dense<32> : vector<4xi32>>, #dlti.dl_entry<f16, dense<16> : vector<2xi32>>, #dlti.dl_entry<i16, dense<16> : vector<2xi32>>, #dlti.dl_entry<i32, dense<32> : vector<2xi32>>, #dlti.dl_entry<i1, dense<8> : vector<2xi32>>, #dlti.dl_entry<i8, dense<8> : vector<2xi32>>, #dlti.dl_entry<!llvm.ptr, dense<64> : vector<4xi32>>, #dlti.dl_entry<f80, dense<128> : vector<2xi32>>, #dlti.dl_entry<"dlti.endianness", "little">, #dlti.dl_entry<"dlti.stack_alignment", 128 : i32>>, llvm.data_layout = "e-m:e-p270:32:32-p271:32:32-p272:64:64-i64:64-f80:128-n8:16:32:64-S128", llvm.target_triple = "x86_64-unknown-linux-gnu", polygeist.gpu_module.llvm.data_layout = "e-i64:64-i128:128-v16:16-v32:32-n16:32:64", polygeist.gpu_module.llvm.target_triple = "nvptx64-nvidia-cuda", "polygeist.target-cpu" = "x86-64", "polygeist.target-features" = "+cmov,+cx8,+fxsr,+mmx,+sse,+sse2,+x87", "polygeist.tune-cpu" = "generic"} {
  gpu.module @_Z18diag_matmul_kernelPKfS0_Pfii_0 {
    gpu.func @_Z18diag_matmul_kernelPKfS0_Pfii(%arg0: memref<?xf32>, %arg1: memref<?xf32>, %arg2: memref<?xf32>, %arg3: i32, %arg4: i32) {
      %c0 = arith.constant 0 : index
      %c1 = arith.constant 1 : index
      %c32 = arith.constant 32 : index
      %0 = gpu.block_id  y
      %1 = arith.index_cast %0 : index to i32
      %2 = gpu.block_dim  y
      %3 = arith.index_cast %2 : index to i32
      %4 = arith.muli %1, %3 : i32
      %5 = arith.index_cast %4 : i32 to index
      %6 = arith.muli %4, %arg4 : i32
      %7 = arith.index_cast %6 : i32 to index
      %8 = gpu.block_id  x
      %9 = arith.index_cast %8 : index to i32
      %c32_0 = arith.constant 32 : index
      %10 = arith.index_cast %c32_0 : index to i32
      %11 = arith.muli %9, %10 : i32
      %12 = arith.cmpi slt, %4, %arg3 : i32
      %c1_1 = arith.constant 1 : index
      scf.for %arg5 = %c0 to %c32 step %c1_1 {
        %13 = arith.index_cast %arg5 : index to i32
        %14 = arith.addi %11, %13 : i32
        %15 = arith.index_cast %14 : i32 to index
        %16 = arith.cmpi slt, %14, %arg4 : i32
        %17 = arith.andi %12, %16 : i1
        scf.if %17 {
          %18 = memref.load %arg0[%5] : memref<?xf32>
          %19 = arith.addi %7, %15 : index
          %20 = memref.load %arg1[%19] : memref<?xf32>
          %21 = arith.mulf %18, %20 : f32
          memref.store %21, %arg2[%19] : memref<?xf32>
        }
      }
      gpu.return
    }
  }
}
[ict-debug] ConvertPolygeistToNPUPass::runOnOperation(): After vectorize: end

[ict-debug] GPUBlockIdToNPULowering: process op: 

%0 = gpu.block_id  y
[ict-debug] GPUBlockIdToNPULowering: process op: 

%9 = gpu.block_id  x
[ict-debug] ConvertPolygeistToNPUPass::runOnOperation(): After convert to NPU:

module attributes {dlti.dl_spec = #dlti.dl_spec<#dlti.dl_entry<!llvm.ptr<272>, dense<64> : vector<4xi32>>, #dlti.dl_entry<!llvm.ptr<271>, dense<32> : vector<4xi32>>, #dlti.dl_entry<i64, dense<64> : vector<2xi32>>, #dlti.dl_entry<f64, dense<64> : vector<2xi32>>, #dlti.dl_entry<f128, dense<128> : vector<2xi32>>, #dlti.dl_entry<!llvm.ptr<270>, dense<32> : vector<4xi32>>, #dlti.dl_entry<f16, dense<16> : vector<2xi32>>, #dlti.dl_entry<i16, dense<16> : vector<2xi32>>, #dlti.dl_entry<i32, dense<32> : vector<2xi32>>, #dlti.dl_entry<i1, dense<8> : vector<2xi32>>, #dlti.dl_entry<i8, dense<8> : vector<2xi32>>, #dlti.dl_entry<!llvm.ptr, dense<64> : vector<4xi32>>, #dlti.dl_entry<f80, dense<128> : vector<2xi32>>, #dlti.dl_entry<"dlti.endianness", "little">, #dlti.dl_entry<"dlti.stack_alignment", 128 : i32>>, llvm.data_layout = "e-m:e-p270:32:32-p271:32:32-p272:64:64-i64:64-f80:128-n8:16:32:64-S128", llvm.target_triple = "x86_64-unknown-linux-gnu", polygeist.gpu_module.llvm.data_layout = "e-i64:64-i128:128-v16:16-v32:32-n16:32:64", polygeist.gpu_module.llvm.target_triple = "nvptx64-nvidia-cuda", "polygeist.target-cpu" = "x86-64", "polygeist.target-features" = "+cmov,+cx8,+fxsr,+mmx,+sse,+sse2,+x87", "polygeist.tune-cpu" = "generic"} {
  gpu.module @_Z18diag_matmul_kernelPKfS0_Pfii_0 {
    gpu.func @_Z18diag_matmul_kernelPKfS0_Pfii(%arg0: memref<?xf32>, %arg1: memref<?xf32>, %arg2: memref<?xf32>, %arg3: i32, %arg4: i32) {
      %c0 = arith.constant 0 : index
      %c1 = arith.constant 1 : index
      %c32 = arith.constant 32 : index
      %0 = "npu.block_id"() <{dimension = "Y"}> : () -> i64
      %1 = arith.index_cast %0 : i64 to index
      %2 = builtin.unrealized_conversion_cast %0 : i64 to index
      %3 = arith.index_cast %1 : index to i32
      %4 = gpu.block_dim  y
      %5 = arith.index_cast %4 : index to i32
      %6 = arith.muli %3, %5 : i32
      %7 = arith.index_cast %6 : i32 to index
      %8 = arith.muli %6, %arg4 : i32
      %9 = arith.index_cast %8 : i32 to index
      %10 = "npu.block_id"() <{dimension = "X"}> : () -> i64
      %11 = arith.index_cast %10 : i64 to index
      %12 = builtin.unrealized_conversion_cast %10 : i64 to index
      %13 = arith.index_cast %11 : index to i32
      %c32_0 = arith.constant 32 : index
      %14 = arith.index_cast %c32_0 : index to i32
      %15 = arith.muli %13, %14 : i32
      %16 = arith.cmpi slt, %6, %arg3 : i32
      %c1_1 = arith.constant 1 : index
      scf.for %arg5 = %c0 to %c32 step %c1_1 {
        %17 = arith.index_cast %arg5 : index to i32
        %18 = arith.addi %15, %17 : i32
        %19 = arith.index_cast %18 : i32 to index
        %20 = arith.cmpi slt, %18, %arg4 : i32
        %21 = arith.andi %16, %20 : i1
        scf.if %21 {
          %22 = memref.load %arg0[%7] : memref<?xf32>
          %23 = arith.addi %9, %19 : index
          %24 = memref.load %arg1[%23] : memref<?xf32>
          %25 = emitc.mul %22, %24 : (f32, f32) -> f32
          memref.store %25, %arg2[%23] : memref<?xf32>
        }
      }
      gpu.return
    }
  }
}
[ict-debug] ConvertPolygeistToNPUPass::runOnOperation(): After convert to NPU: end

[ict-debug] driver.cc: Before convert to EmitC dialect:

module attributes {dlti.dl_spec = #dlti.dl_spec<#dlti.dl_entry<!llvm.ptr<272>, dense<64> : vector<4xi32>>, #dlti.dl_entry<!llvm.ptr<271>, dense<32> : vector<4xi32>>, #dlti.dl_entry<i64, dense<64> : vector<2xi32>>, #dlti.dl_entry<f64, dense<64> : vector<2xi32>>, #dlti.dl_entry<f128, dense<128> : vector<2xi32>>, #dlti.dl_entry<!llvm.ptr<270>, dense<32> : vector<4xi32>>, #dlti.dl_entry<f16, dense<16> : vector<2xi32>>, #dlti.dl_entry<i16, dense<16> : vector<2xi32>>, #dlti.dl_entry<i32, dense<32> : vector<2xi32>>, #dlti.dl_entry<i1, dense<8> : vector<2xi32>>, #dlti.dl_entry<i8, dense<8> : vector<2xi32>>, #dlti.dl_entry<!llvm.ptr, dense<64> : vector<4xi32>>, #dlti.dl_entry<f80, dense<128> : vector<2xi32>>, #dlti.dl_entry<"dlti.endianness", "little">, #dlti.dl_entry<"dlti.stack_alignment", 128 : i32>>, llvm.data_layout = "e-m:e-p270:32:32-p271:32:32-p272:64:64-i64:64-f80:128-n8:16:32:64-S128", llvm.target_triple = "x86_64-unknown-linux-gnu", polygeist.gpu_module.llvm.data_layout = "e-i64:64-i128:128-v16:16-v32:32-n16:32:64", polygeist.gpu_module.llvm.target_triple = "nvptx64-nvidia-cuda", "polygeist.target-cpu" = "x86-64", "polygeist.target-features" = "+cmov,+cx8,+fxsr,+mmx,+sse,+sse2,+x87", "polygeist.tune-cpu" = "generic"} {
  gpu.module @_Z18diag_matmul_kernelPKfS0_Pfii_0 {
    gpu.func @_Z18diag_matmul_kernelPKfS0_Pfii(%arg0: memref<?xf32>, %arg1: memref<?xf32>, %arg2: memref<?xf32>, %arg3: i32, %arg4: i32) {
      %c32_i32 = arith.constant 32 : i32
      %c0 = arith.constant 0 : index
      %c1 = arith.constant 1 : index
      %c32 = arith.constant 32 : index
      %0 = "npu.block_id"() <{dimension = "Y"}> : () -> i64
      %1 = arith.index_cast %0 : i64 to index
      %2 = arith.index_cast %1 : index to i32
      %3 = gpu.block_dim  y
      %4 = arith.index_cast %3 : index to i32
      %5 = arith.muli %2, %4 : i32
      %6 = arith.index_cast %5 : i32 to index
      %7 = arith.muli %5, %arg4 : i32
      %8 = arith.index_cast %7 : i32 to index
      %9 = "npu.block_id"() <{dimension = "X"}> : () -> i64
      %10 = arith.index_cast %9 : i64 to index
      %11 = arith.index_cast %10 : index to i32
      %12 = arith.muli %11, %c32_i32 : i32
      %13 = arith.cmpi slt, %5, %arg3 : i32
      scf.for %arg5 = %c0 to %c32 step %c1 {
        %14 = arith.index_cast %arg5 : index to i32
        %15 = arith.addi %12, %14 : i32
        %16 = arith.index_cast %15 : i32 to index
        %17 = arith.cmpi slt, %15, %arg4 : i32
        %18 = arith.andi %13, %17 : i1
        scf.if %18 {
          %19 = memref.load %arg0[%6] : memref<?xf32>
          %20 = arith.addi %8, %16 : index
          %21 = memref.load %arg1[%20] : memref<?xf32>
          %22 = emitc.mul %19, %21 : (f32, f32) -> f32
          memref.store %22, %arg2[%20] : memref<?xf32>
        }
      }
      gpu.return
    }
  }
}
[ict-debug] driver.cc: Before convert to EmitC dialect: end

module attributes {dlti.dl_spec = #dlti.dl_spec<#dlti.dl_entry<!llvm.ptr<272>, dense<64> : vector<4xi32>>, #dlti.dl_entry<!llvm.ptr<271>, dense<32> : vector<4xi32>>, #dlti.dl_entry<i64, dense<64> : vector<2xi32>>, #dlti.dl_entry<f64, dense<64> : vector<2xi32>>, #dlti.dl_entry<f128, dense<128> : vector<2xi32>>, #dlti.dl_entry<!llvm.ptr<270>, dense<32> : vector<4xi32>>, #dlti.dl_entry<f16, dense<16> : vector<2xi32>>, #dlti.dl_entry<i16, dense<16> : vector<2xi32>>, #dlti.dl_entry<i32, dense<32> : vector<2xi32>>, #dlti.dl_entry<i1, dense<8> : vector<2xi32>>, #dlti.dl_entry<i8, dense<8> : vector<2xi32>>, #dlti.dl_entry<!llvm.ptr, dense<64> : vector<4xi32>>, #dlti.dl_entry<f80, dense<128> : vector<2xi32>>, #dlti.dl_entry<"dlti.endianness", "little">, #dlti.dl_entry<"dlti.stack_alignment", 128 : i32>>, llvm.data_layout = "e-m:e-p270:32:32-p271:32:32-p272:64:64-i64:64-f80:128-n8:16:32:64-S128", llvm.target_triple = "x86_64-unknown-linux-gnu", polygeist.gpu_module.llvm.data_layout = "e-i64:64-i128:128-v16:16-v32:32-n16:32:64", polygeist.gpu_module.llvm.target_triple = "nvptx64-nvidia-cuda", "polygeist.target-cpu" = "x86-64", "polygeist.target-features" = "+cmov,+cx8,+fxsr,+mmx,+sse,+sse2,+x87", "polygeist.tune-cpu" = "generic"} {
  gpu.module @_Z18diag_matmul_kernelPKfS0_Pfii_0 {
    gpu.func @_Z18diag_matmul_kernelPKfS0_Pfii(%arg0: memref<?xf32>, %arg1: memref<?xf32>, %arg2: memref<?xf32>, %arg3: i32, %arg4: i32) {
      %c32_i32 = arith.constant 32 : i32
      %c0 = arith.constant 0 : index
      %c1 = arith.constant 1 : index
      %c32 = arith.constant 32 : index
      %0 = "npu.block_id"() <{dimension = "Y"}> : () -> i64
      %1 = arith.index_cast %0 : i64 to index
      %2 = arith.index_cast %1 : index to i32
      %3 = gpu.block_dim  y
      %4 = arith.index_cast %3 : index to i32
      %5 = arith.muli %2, %4 : i32
      %6 = arith.index_cast %5 : i32 to index
      %7 = arith.muli %5, %arg4 : i32
      %8 = arith.index_cast %7 : i32 to index
      %9 = "npu.block_id"() <{dimension = "X"}> : () -> i64
      %10 = arith.index_cast %9 : i64 to index
      %11 = arith.index_cast %10 : index to i32
      %12 = arith.muli %11, %c32_i32 : i32
      %13 = arith.cmpi slt, %5, %arg3 : i32
      scf.for %arg5 = %c0 to %c32 step %c1 {
        %14 = arith.index_cast %arg5 : index to i32
        %15 = arith.addi %12, %14 : i32
        %16 = arith.index_cast %15 : i32 to index
        %17 = arith.cmpi slt, %15, %arg4 : i32
        %18 = arith.andi %13, %17 : i1
        emitc.if %18 {
          %19 = memref.load %arg0[%6] : memref<?xf32>
          %20 = arith.addi %8, %16 : index
          %21 = memref.load %arg1[%20] : memref<?xf32>
          %22 = emitc.mul %19, %21 : (f32, f32) -> f32
          memref.store %22, %arg2[%20] : memref<?xf32>
        }
      }
      gpu.return
    }
  }
}
[ict-debug] driver.cc: After convert to EmitC dialect:

module attributes {dlti.dl_spec = #dlti.dl_spec<#dlti.dl_entry<!llvm.ptr<272>, dense<64> : vector<4xi32>>, #dlti.dl_entry<!llvm.ptr<271>, dense<32> : vector<4xi32>>, #dlti.dl_entry<i64, dense<64> : vector<2xi32>>, #dlti.dl_entry<f64, dense<64> : vector<2xi32>>, #dlti.dl_entry<f128, dense<128> : vector<2xi32>>, #dlti.dl_entry<!llvm.ptr<270>, dense<32> : vector<4xi32>>, #dlti.dl_entry<f16, dense<16> : vector<2xi32>>, #dlti.dl_entry<i16, dense<16> : vector<2xi32>>, #dlti.dl_entry<i32, dense<32> : vector<2xi32>>, #dlti.dl_entry<i1, dense<8> : vector<2xi32>>, #dlti.dl_entry<i8, dense<8> : vector<2xi32>>, #dlti.dl_entry<!llvm.ptr, dense<64> : vector<4xi32>>, #dlti.dl_entry<f80, dense<128> : vector<2xi32>>, #dlti.dl_entry<"dlti.endianness", "little">, #dlti.dl_entry<"dlti.stack_alignment", 128 : i32>>, llvm.data_layout = "e-m:e-p270:32:32-p271:32:32-p272:64:64-i64:64-f80:128-n8:16:32:64-S128", llvm.target_triple = "x86_64-unknown-linux-gnu", polygeist.gpu_module.llvm.data_layout = "e-i64:64-i128:128-v16:16-v32:32-n16:32:64", polygeist.gpu_module.llvm.target_triple = "nvptx64-nvidia-cuda", "polygeist.target-cpu" = "x86-64", "polygeist.target-features" = "+cmov,+cx8,+fxsr,+mmx,+sse,+sse2,+x87", "polygeist.tune-cpu" = "generic"} {
  gpu.module @_Z18diag_matmul_kernelPKfS0_Pfii_0 {
    gpu.func @_Z18diag_matmul_kernelPKfS0_Pfii(%arg0: memref<?xf32>, %arg1: memref<?xf32>, %arg2: memref<?xf32>, %arg3: i32, %arg4: i32) {
      %c32_i32 = arith.constant 32 : i32
      %c0 = arith.constant 0 : index
      %c1 = arith.constant 1 : index
      %c32 = arith.constant 32 : index
      %0 = "npu.block_id"() <{dimension = "Y"}> : () -> i64
      %1 = arith.index_cast %0 : i64 to index
      %2 = arith.index_cast %1 : index to i32
      %3 = gpu.block_dim  y
      %4 = arith.index_cast %3 : index to i32
      %5 = arith.muli %2, %4 : i32
      %6 = arith.index_cast %5 : i32 to index
      %7 = arith.muli %5, %arg4 : i32
      %8 = arith.index_cast %7 : i32 to index
      %9 = "npu.block_id"() <{dimension = "X"}> : () -> i64
      %10 = arith.index_cast %9 : i64 to index
      %11 = arith.index_cast %10 : index to i32
      %12 = arith.muli %11, %c32_i32 : i32
      %13 = arith.cmpi slt, %5, %arg3 : i32
      scf.for %arg5 = %c0 to %c32 step %c1 {
        %14 = arith.index_cast %arg5 : index to i32
        %15 = arith.addi %12, %14 : i32
        %16 = arith.index_cast %15 : i32 to index
        %17 = arith.cmpi slt, %15, %arg4 : i32
        %18 = arith.andi %13, %17 : i1
        emitc.if %18 {
          %19 = memref.load %arg0[%6] : memref<?xf32>
          %20 = arith.addi %8, %16 : index
          %21 = memref.load %arg1[%20] : memref<?xf32>
          %22 = emitc.mul %19, %21 : (f32, f32) -> f32
          memref.store %22, %arg2[%20] : memref<?xf32>
        }
      }
      gpu.return
    }
  }
}
[ict-debug] driver.cc: After convert to EmitC dialect: end

loc("/CUDA2BANG/Cambricon_NaiveProfiling/cuda_ops_test/Ascend_kernels/gen_cuda_kernels/level_1_prlblem_12_sample_0_Matmul_with_diagonal_matrices_.cu":10:34): error: 'gpu.block_dim' op unable to find printer for op
[ict-debug] driver.cc: After emitc::translateToCpp:

