warning: CUDA version 12.1 is only partially supported
warning: CUDA version 12.1 is only partially supported
[ict-debug] driver.cc: After return 5, module:

module attributes {dlti.dl_spec = #dlti.dl_spec<#dlti.dl_entry<!llvm.ptr<270>, dense<32> : vector<4xi32>>, #dlti.dl_entry<f128, dense<128> : vector<2xi32>>, #dlti.dl_entry<f64, dense<64> : vector<2xi32>>, #dlti.dl_entry<f16, dense<16> : vector<2xi32>>, #dlti.dl_entry<i32, dense<32> : vector<2xi32>>, #dlti.dl_entry<i16, dense<16> : vector<2xi32>>, #dlti.dl_entry<i8, dense<8> : vector<2xi32>>, #dlti.dl_entry<i1, dense<8> : vector<2xi32>>, #dlti.dl_entry<!llvm.ptr, dense<64> : vector<4xi32>>, #dlti.dl_entry<f80, dense<128> : vector<2xi32>>, #dlti.dl_entry<i64, dense<64> : vector<2xi32>>, #dlti.dl_entry<!llvm.ptr<271>, dense<32> : vector<4xi32>>, #dlti.dl_entry<!llvm.ptr<272>, dense<64> : vector<4xi32>>, #dlti.dl_entry<"dlti.endianness", "little">, #dlti.dl_entry<"dlti.stack_alignment", 128 : i32>>, llvm.data_layout = "e-m:e-p270:32:32-p271:32:32-p272:64:64-i64:64-f80:128-n8:16:32:64-S128", llvm.target_triple = "x86_64-unknown-linux-gnu", polygeist.gpu_module.llvm.data_layout = "e-i64:64-i128:128-v16:16-v32:32-n16:32:64", polygeist.gpu_module.llvm.target_triple = "nvptx64-nvidia-cuda", "polygeist.target-cpu" = "x86-64", "polygeist.target-features" = "+cmov,+cx8,+fxsr,+mmx,+sse,+sse2,+x87", "polygeist.tune-cpu" = "generic"} {
  func.func private @_Z21smooth_l1_loss_kernelf(%arg0: f32) -> f32 attributes {llvm.linkage = #llvm.linkage<external>, polygeist.device_only_func = "1"} {
    %cst = arith.constant 5.000000e-01 : f32
    %cst_0 = arith.constant 1.000000e+00 : f32
    %0 = math.absf %arg0 : f32
    %1 = arith.cmpf olt, %0, %cst_0 : f32
    %2 = scf.if %1 -> (f32) {
      %3 = arith.mulf %0, %cst : f32
      %4 = arith.mulf %3, %0 : f32
      scf.yield %4 : f32
    } else {
      %3 = arith.subf %0, %cst : f32
      scf.yield %3 : f32
    }
    return %2 : f32
  }
  func.func private @_Z45__device_stub__smooth_l1_loss_kernel_launcherPKfS0_Pfi(%arg0: memref<?xf32>, %arg1: memref<?xf32>, %arg2: memref<?xf32>, %arg3: i32) attributes {llvm.linkage = #llvm.linkage<external>, polygeist.device_only_func = "1"} {
    call @_Z30smooth_l1_loss_kernel_launcherPKfS0_Pfi(%arg0, %arg1, %arg2, %arg3) : (memref<?xf32>, memref<?xf32>, memref<?xf32>, i32) -> ()
    return
  }
  func.func private @_Z30smooth_l1_loss_kernel_launcherPKfS0_Pfi(%arg0: memref<?xf32>, %arg1: memref<?xf32>, %arg2: memref<?xf32>, %arg3: i32) attributes {llvm.linkage = #llvm.linkage<external>, polygeist.device_only_func = "1"} {
    %0 = gpu.block_id  x
    %1 = arith.index_cast %0 : index to i32
    %2 = gpu.block_dim  x
    %3 = arith.index_cast %2 : index to i32
    %4 = arith.muli %1, %3 : i32
    %5 = gpu.thread_id  x
    %6 = arith.index_cast %5 : index to i32
    %7 = arith.addi %4, %6 : i32
    %8 = arith.index_cast %7 : i32 to index
    %9 = arith.cmpi slt, %7, %arg3 : i32
    scf.if %9 {
      %10 = affine.load %arg0[symbol(%8)] : memref<?xf32>
      %11 = affine.load %arg1[symbol(%8)] : memref<?xf32>
      %12 = arith.subf %10, %11 : f32
      %13 = func.call @_Z21smooth_l1_loss_kernelf(%12) : (f32) -> f32
      affine.store %13, %arg2[symbol(%8)] : memref<?xf32>
    }
    return
  }
}
[ict-debug] driver.cc: After return 5, module: end

[ict-debug] driver.cc: After return 6, module:

module attributes {dlti.dl_spec = #dlti.dl_spec<#dlti.dl_entry<!llvm.ptr<270>, dense<32> : vector<4xi32>>, #dlti.dl_entry<f128, dense<128> : vector<2xi32>>, #dlti.dl_entry<f64, dense<64> : vector<2xi32>>, #dlti.dl_entry<f16, dense<16> : vector<2xi32>>, #dlti.dl_entry<i32, dense<32> : vector<2xi32>>, #dlti.dl_entry<i16, dense<16> : vector<2xi32>>, #dlti.dl_entry<i8, dense<8> : vector<2xi32>>, #dlti.dl_entry<i1, dense<8> : vector<2xi32>>, #dlti.dl_entry<!llvm.ptr, dense<64> : vector<4xi32>>, #dlti.dl_entry<f80, dense<128> : vector<2xi32>>, #dlti.dl_entry<i64, dense<64> : vector<2xi32>>, #dlti.dl_entry<!llvm.ptr<271>, dense<32> : vector<4xi32>>, #dlti.dl_entry<!llvm.ptr<272>, dense<64> : vector<4xi32>>, #dlti.dl_entry<"dlti.endianness", "little">, #dlti.dl_entry<"dlti.stack_alignment", 128 : i32>>, llvm.data_layout = "e-m:e-p270:32:32-p271:32:32-p272:64:64-i64:64-f80:128-n8:16:32:64-S128", llvm.target_triple = "x86_64-unknown-linux-gnu", polygeist.gpu_module.llvm.data_layout = "e-i64:64-i128:128-v16:16-v32:32-n16:32:64", polygeist.gpu_module.llvm.target_triple = "nvptx64-nvidia-cuda", "polygeist.target-cpu" = "x86-64", "polygeist.target-features" = "+cmov,+cx8,+fxsr,+mmx,+sse,+sse2,+x87", "polygeist.tune-cpu" = "generic"} {
  func.func private @_Z30smooth_l1_loss_kernel_launcherPKfS0_Pfi(%arg0: memref<?xf32>, %arg1: memref<?xf32>, %arg2: memref<?xf32>, %arg3: i32) attributes {llvm.linkage = #llvm.linkage<external>, polygeist.device_only_func = "1"} {
    %cst = arith.constant 1.000000e+00 : f32
    %cst_0 = arith.constant 5.000000e-01 : f32
    %0 = gpu.block_id  x
    %1 = arith.index_cast %0 : index to i32
    %2 = gpu.block_dim  x
    %3 = arith.index_cast %2 : index to i32
    %4 = arith.muli %1, %3 : i32
    %5 = gpu.thread_id  x
    %6 = arith.index_cast %5 : index to i32
    %7 = arith.addi %4, %6 : i32
    %8 = arith.index_cast %7 : i32 to index
    %9 = arith.cmpi slt, %7, %arg3 : i32
    scf.if %9 {
      %10 = affine.load %arg0[symbol(%8)] : memref<?xf32>
      %11 = affine.load %arg1[symbol(%8)] : memref<?xf32>
      %12 = arith.subf %10, %11 : f32
      %13 = math.absf %12 : f32
      %14 = arith.cmpf olt, %13, %cst : f32
      %15 = scf.if %14 -> (f32) {
        %16 = arith.mulf %13, %cst_0 : f32
        %17 = arith.mulf %16, %13 : f32
        scf.yield %17 : f32
      } else {
        %16 = arith.subf %13, %cst_0 : f32
        scf.yield %16 : f32
      }
      affine.store %15, %arg2[symbol(%8)] : memref<?xf32>
    }
    return
  }
}
[ict-debug] driver.cc: After return 6, module: end

WrapAndReplaceBarrierPass::runOnOperation(): before execute: 
module attributes {dlti.dl_spec = #dlti.dl_spec<#dlti.dl_entry<!llvm.ptr<270>, dense<32> : vector<4xi32>>, #dlti.dl_entry<f128, dense<128> : vector<2xi32>>, #dlti.dl_entry<f64, dense<64> : vector<2xi32>>, #dlti.dl_entry<f16, dense<16> : vector<2xi32>>, #dlti.dl_entry<i32, dense<32> : vector<2xi32>>, #dlti.dl_entry<i16, dense<16> : vector<2xi32>>, #dlti.dl_entry<i8, dense<8> : vector<2xi32>>, #dlti.dl_entry<i1, dense<8> : vector<2xi32>>, #dlti.dl_entry<!llvm.ptr, dense<64> : vector<4xi32>>, #dlti.dl_entry<f80, dense<128> : vector<2xi32>>, #dlti.dl_entry<i64, dense<64> : vector<2xi32>>, #dlti.dl_entry<!llvm.ptr<271>, dense<32> : vector<4xi32>>, #dlti.dl_entry<!llvm.ptr<272>, dense<64> : vector<4xi32>>, #dlti.dl_entry<"dlti.endianness", "little">, #dlti.dl_entry<"dlti.stack_alignment", 128 : i32>>, llvm.data_layout = "e-m:e-p270:32:32-p271:32:32-p272:64:64-i64:64-f80:128-n8:16:32:64-S128", llvm.target_triple = "x86_64-unknown-linux-gnu", polygeist.gpu_module.llvm.data_layout = "e-i64:64-i128:128-v16:16-v32:32-n16:32:64", polygeist.gpu_module.llvm.target_triple = "nvptx64-nvidia-cuda", "polygeist.target-cpu" = "x86-64", "polygeist.target-features" = "+cmov,+cx8,+fxsr,+mmx,+sse,+sse2,+x87", "polygeist.tune-cpu" = "generic"} {
  func.func private @_Z30smooth_l1_loss_kernel_launcherPKfS0_Pfi(%arg0: memref<?xf32>, %arg1: memref<?xf32>, %arg2: memref<?xf32>, %arg3: i32) attributes {llvm.linkage = #llvm.linkage<external>, polygeist.device_only_func = "1"} {
    %cst = arith.constant 1.000000e+00 : f32
    %cst_0 = arith.constant 5.000000e-01 : f32
    %0 = gpu.block_id  x
    %1 = arith.index_cast %0 : index to i32
    %2 = gpu.block_dim  x
    %3 = arith.index_cast %2 : index to i32
    %4 = arith.muli %1, %3 : i32
    %5 = gpu.thread_id  x
    %6 = arith.index_cast %5 : index to i32
    %7 = arith.addi %4, %6 : i32
    %8 = arith.index_cast %7 : i32 to index
    %9 = arith.cmpi slt, %7, %arg3 : i32
    scf.if %9 {
      %10 = memref.load %arg0[%8] : memref<?xf32>
      %11 = memref.load %arg1[%8] : memref<?xf32>
      %12 = arith.subf %10, %11 : f32
      %13 = math.absf %12 : f32
      %14 = arith.cmpf olt, %13, %cst : f32
      %15 = scf.if %14 -> (f32) {
        %16 = arith.mulf %13, %cst_0 : f32
        %17 = arith.mulf %16, %13 : f32
        scf.yield %17 : f32
      } else {
        %16 = arith.subf %13, %cst_0 : f32
        scf.yield %16 : f32
      }
      memref.store %15, %arg2[%8] : memref<?xf32>
    }
    return
  }
}
WrapAndReplaceBarrierPass::runOnOperation(): before execute: end
WrapAndReplaceBarrierPass::runOnOperation(): after execute: 
module attributes {dlti.dl_spec = #dlti.dl_spec<#dlti.dl_entry<!llvm.ptr<270>, dense<32> : vector<4xi32>>, #dlti.dl_entry<f128, dense<128> : vector<2xi32>>, #dlti.dl_entry<f64, dense<64> : vector<2xi32>>, #dlti.dl_entry<f16, dense<16> : vector<2xi32>>, #dlti.dl_entry<i32, dense<32> : vector<2xi32>>, #dlti.dl_entry<i16, dense<16> : vector<2xi32>>, #dlti.dl_entry<i8, dense<8> : vector<2xi32>>, #dlti.dl_entry<i1, dense<8> : vector<2xi32>>, #dlti.dl_entry<!llvm.ptr, dense<64> : vector<4xi32>>, #dlti.dl_entry<f80, dense<128> : vector<2xi32>>, #dlti.dl_entry<i64, dense<64> : vector<2xi32>>, #dlti.dl_entry<!llvm.ptr<271>, dense<32> : vector<4xi32>>, #dlti.dl_entry<!llvm.ptr<272>, dense<64> : vector<4xi32>>, #dlti.dl_entry<"dlti.endianness", "little">, #dlti.dl_entry<"dlti.stack_alignment", 128 : i32>>, llvm.data_layout = "e-m:e-p270:32:32-p271:32:32-p272:64:64-i64:64-f80:128-n8:16:32:64-S128", llvm.target_triple = "x86_64-unknown-linux-gnu", polygeist.gpu_module.llvm.data_layout = "e-i64:64-i128:128-v16:16-v32:32-n16:32:64", polygeist.gpu_module.llvm.target_triple = "nvptx64-nvidia-cuda", "polygeist.target-cpu" = "x86-64", "polygeist.target-features" = "+cmov,+cx8,+fxsr,+mmx,+sse,+sse2,+x87", "polygeist.tune-cpu" = "generic"} {
  func.func @_Z30smooth_l1_loss_kernel_launcherPKfS0_Pfi(%arg0: memref<?xf32>, %arg1: memref<?xf32>, %arg2: memref<?xf32>, %arg3: i32) attributes {llvm.linkage = #llvm.linkage<external>, polygeist.device_only_func = "1"} {
    %c0 = arith.constant 0 : index
    %c1 = arith.constant 1 : index
    %c32 = arith.constant 32 : index
    scf.parallel (%arg4) = (%c0) to (%c32) step (%c1) {
      %cst = arith.constant 1.000000e+00 : f32
      %cst_0 = arith.constant 5.000000e-01 : f32
      %0 = gpu.block_id  x
      %1 = arith.index_cast %0 : index to i32
      %2 = gpu.block_dim  x
      %3 = arith.index_cast %2 : index to i32
      %4 = arith.muli %1, %3 : i32
      %5 = arith.index_cast %arg4 : index to i32
      %6 = arith.addi %4, %5 : i32
      %7 = arith.index_cast %6 : i32 to index
      %8 = arith.cmpi slt, %6, %arg3 : i32
      scf.if %8 {
        %9 = memref.load %arg0[%7] : memref<?xf32>
        %10 = memref.load %arg1[%7] : memref<?xf32>
        %11 = arith.subf %9, %10 : f32
        %12 = math.absf %11 : f32
        %13 = arith.cmpf olt, %12, %cst : f32
        %14 = scf.if %13 -> (f32) {
          %15 = arith.mulf %12, %cst_0 : f32
          %16 = arith.mulf %15, %12 : f32
          scf.yield %16 : f32
        } else {
          %15 = arith.subf %12, %cst_0 : f32
          scf.yield %15 : f32
        }
        memref.store %14, %arg2[%7] : memref<?xf32>
      }
      scf.yield
    }
    return
  }
}
WrapAndReplaceBarrierPass::runOnOperation(): after execute: end
[ict-debug] driver.cc: After return 7, module:

module attributes {dlti.dl_spec = #dlti.dl_spec<#dlti.dl_entry<!llvm.ptr<270>, dense<32> : vector<4xi32>>, #dlti.dl_entry<f128, dense<128> : vector<2xi32>>, #dlti.dl_entry<f64, dense<64> : vector<2xi32>>, #dlti.dl_entry<f16, dense<16> : vector<2xi32>>, #dlti.dl_entry<i32, dense<32> : vector<2xi32>>, #dlti.dl_entry<i16, dense<16> : vector<2xi32>>, #dlti.dl_entry<i8, dense<8> : vector<2xi32>>, #dlti.dl_entry<i1, dense<8> : vector<2xi32>>, #dlti.dl_entry<!llvm.ptr, dense<64> : vector<4xi32>>, #dlti.dl_entry<f80, dense<128> : vector<2xi32>>, #dlti.dl_entry<i64, dense<64> : vector<2xi32>>, #dlti.dl_entry<!llvm.ptr<271>, dense<32> : vector<4xi32>>, #dlti.dl_entry<!llvm.ptr<272>, dense<64> : vector<4xi32>>, #dlti.dl_entry<"dlti.endianness", "little">, #dlti.dl_entry<"dlti.stack_alignment", 128 : i32>>, llvm.data_layout = "e-m:e-p270:32:32-p271:32:32-p272:64:64-i64:64-f80:128-n8:16:32:64-S128", llvm.target_triple = "x86_64-unknown-linux-gnu", polygeist.gpu_module.llvm.data_layout = "e-i64:64-i128:128-v16:16-v32:32-n16:32:64", polygeist.gpu_module.llvm.target_triple = "nvptx64-nvidia-cuda", "polygeist.target-cpu" = "x86-64", "polygeist.target-features" = "+cmov,+cx8,+fxsr,+mmx,+sse,+sse2,+x87", "polygeist.tune-cpu" = "generic"} {
  func.func @_Z30smooth_l1_loss_kernel_launcherPKfS0_Pfi(%arg0: memref<?xf32>, %arg1: memref<?xf32>, %arg2: memref<?xf32>, %arg3: i32) attributes {llvm.linkage = #llvm.linkage<external>, polygeist.device_only_func = "1"} {
    %c0 = arith.constant 0 : index
    %c1 = arith.constant 1 : index
    %c32 = arith.constant 32 : index
    scf.parallel (%arg4) = (%c0) to (%c32) step (%c1) {
      %cst = arith.constant 1.000000e+00 : f32
      %cst_0 = arith.constant 5.000000e-01 : f32
      %0 = gpu.block_id  x
      %1 = arith.index_cast %0 : index to i32
      %2 = gpu.block_dim  x
      %3 = arith.index_cast %2 : index to i32
      %4 = arith.muli %1, %3 : i32
      %5 = arith.index_cast %arg4 : index to i32
      %6 = arith.addi %4, %5 : i32
      %7 = arith.index_cast %6 : i32 to index
      %8 = arith.cmpi slt, %6, %arg3 : i32
      scf.if %8 {
        %9 = memref.load %arg0[%7] : memref<?xf32>
        %10 = memref.load %arg1[%7] : memref<?xf32>
        %11 = arith.subf %9, %10 : f32
        %12 = math.absf %11 : f32
        %13 = arith.cmpf olt, %12, %cst : f32
        %14 = scf.if %13 -> (f32) {
          %15 = arith.mulf %12, %cst_0 : f32
          %16 = arith.mulf %15, %12 : f32
          scf.yield %16 : f32
        } else {
          %15 = arith.subf %12, %cst_0 : f32
          scf.yield %15 : f32
        }
        memref.store %14, %arg2[%7] : memref<?xf32>
      }
      scf.yield
    }
    return
  }
}
[ict-debug] driver.cc: After return 7, module: end

[ict-debug] driver.cc: Before my pass process:

module attributes {dlti.dl_spec = #dlti.dl_spec<#dlti.dl_entry<!llvm.ptr<270>, dense<32> : vector<4xi32>>, #dlti.dl_entry<f128, dense<128> : vector<2xi32>>, #dlti.dl_entry<f64, dense<64> : vector<2xi32>>, #dlti.dl_entry<f16, dense<16> : vector<2xi32>>, #dlti.dl_entry<i32, dense<32> : vector<2xi32>>, #dlti.dl_entry<i16, dense<16> : vector<2xi32>>, #dlti.dl_entry<i8, dense<8> : vector<2xi32>>, #dlti.dl_entry<i1, dense<8> : vector<2xi32>>, #dlti.dl_entry<!llvm.ptr, dense<64> : vector<4xi32>>, #dlti.dl_entry<f80, dense<128> : vector<2xi32>>, #dlti.dl_entry<i64, dense<64> : vector<2xi32>>, #dlti.dl_entry<!llvm.ptr<271>, dense<32> : vector<4xi32>>, #dlti.dl_entry<!llvm.ptr<272>, dense<64> : vector<4xi32>>, #dlti.dl_entry<"dlti.endianness", "little">, #dlti.dl_entry<"dlti.stack_alignment", 128 : i32>>, llvm.data_layout = "e-m:e-p270:32:32-p271:32:32-p272:64:64-i64:64-f80:128-n8:16:32:64-S128", llvm.target_triple = "x86_64-unknown-linux-gnu", polygeist.gpu_module.llvm.data_layout = "e-i64:64-i128:128-v16:16-v32:32-n16:32:64", polygeist.gpu_module.llvm.target_triple = "nvptx64-nvidia-cuda", "polygeist.target-cpu" = "x86-64", "polygeist.target-features" = "+cmov,+cx8,+fxsr,+mmx,+sse,+sse2,+x87", "polygeist.tune-cpu" = "generic"} {
  func.func @_Z30smooth_l1_loss_kernel_launcherPKfS0_Pfi(%arg0: memref<?xf32>, %arg1: memref<?xf32>, %arg2: memref<?xf32>, %arg3: i32) attributes {llvm.linkage = #llvm.linkage<external>, polygeist.device_only_func = "1"} {
    %cst = arith.constant 5.000000e-01 : f32
    %cst_0 = arith.constant 1.000000e+00 : f32
    %c0 = arith.constant 0 : index
    %c1 = arith.constant 1 : index
    %c32 = arith.constant 32 : index
    %0 = gpu.block_id  x
    %1 = arith.index_cast %0 : index to i32
    %2 = gpu.block_dim  x
    %3 = arith.index_cast %2 : index to i32
    %4 = arith.muli %1, %3 : i32
    scf.parallel (%arg4) = (%c0) to (%c32) step (%c1) {
      %5 = arith.index_cast %arg4 : index to i32
      %6 = arith.addi %4, %5 : i32
      %7 = arith.index_cast %6 : i32 to index
      %8 = arith.cmpi slt, %6, %arg3 : i32
      scf.if %8 {
        %9 = memref.load %arg0[%7] : memref<?xf32>
        %10 = memref.load %arg1[%7] : memref<?xf32>
        %11 = arith.subf %9, %10 : f32
        %12 = math.absf %11 : f32
        %13 = arith.cmpf olt, %12, %cst_0 : f32
        %14 = scf.if %13 -> (f32) {
          %15 = arith.mulf %12, %cst : f32
          %16 = arith.mulf %15, %12 : f32
          scf.yield %16 : f32
        } else {
          %15 = arith.subf %12, %cst : f32
          scf.yield %15 : f32
        }
        memref.store %14, %arg2[%7] : memref<?xf32>
      }
      scf.yield
    }
    return
  }
}
[ict-debug] driver.cc: Before my pass process: end

[ict-debug] driver.cc: vectorizeSize = 1

[ict-debug] ConvertPolygeistToNPUPass::runOnOperation(): Before execute:

module attributes {dlti.dl_spec = #dlti.dl_spec<#dlti.dl_entry<!llvm.ptr<270>, dense<32> : vector<4xi32>>, #dlti.dl_entry<f128, dense<128> : vector<2xi32>>, #dlti.dl_entry<f64, dense<64> : vector<2xi32>>, #dlti.dl_entry<f16, dense<16> : vector<2xi32>>, #dlti.dl_entry<i32, dense<32> : vector<2xi32>>, #dlti.dl_entry<i16, dense<16> : vector<2xi32>>, #dlti.dl_entry<i8, dense<8> : vector<2xi32>>, #dlti.dl_entry<i1, dense<8> : vector<2xi32>>, #dlti.dl_entry<!llvm.ptr, dense<64> : vector<4xi32>>, #dlti.dl_entry<f80, dense<128> : vector<2xi32>>, #dlti.dl_entry<i64, dense<64> : vector<2xi32>>, #dlti.dl_entry<!llvm.ptr<271>, dense<32> : vector<4xi32>>, #dlti.dl_entry<!llvm.ptr<272>, dense<64> : vector<4xi32>>, #dlti.dl_entry<"dlti.endianness", "little">, #dlti.dl_entry<"dlti.stack_alignment", 128 : i32>>, llvm.data_layout = "e-m:e-p270:32:32-p271:32:32-p272:64:64-i64:64-f80:128-n8:16:32:64-S128", llvm.target_triple = "x86_64-unknown-linux-gnu", polygeist.gpu_module.llvm.data_layout = "e-i64:64-i128:128-v16:16-v32:32-n16:32:64", polygeist.gpu_module.llvm.target_triple = "nvptx64-nvidia-cuda", "polygeist.target-cpu" = "x86-64", "polygeist.target-features" = "+cmov,+cx8,+fxsr,+mmx,+sse,+sse2,+x87", "polygeist.tune-cpu" = "generic"} {
  gpu.module @_Z30smooth_l1_loss_kernel_launcherPKfS0_Pfi_0 {
    gpu.func @_Z30smooth_l1_loss_kernel_launcherPKfS0_Pfi(%arg0: memref<?xf32>, %arg1: memref<?xf32>, %arg2: memref<?xf32>, %arg3: i32) {
      %cst = arith.constant 5.000000e-01 : f32
      %cst_0 = arith.constant 1.000000e+00 : f32
      %c0 = arith.constant 0 : index
      %c1 = arith.constant 1 : index
      %c32 = arith.constant 32 : index
      %0 = gpu.block_id  x
      %1 = arith.index_cast %0 : index to i32
      %2 = gpu.block_dim  x
      %3 = arith.index_cast %2 : index to i32
      %4 = arith.muli %1, %3 : i32
      scf.parallel (%arg4) = (%c0) to (%c32) step (%c1) {
        %5 = arith.index_cast %arg4 : index to i32
        %6 = arith.addi %4, %5 : i32
        %7 = arith.index_cast %6 : i32 to index
        %8 = arith.cmpi slt, %6, %arg3 : i32
        scf.if %8 {
          %9 = memref.load %arg0[%7] : memref<?xf32>
          %10 = memref.load %arg1[%7] : memref<?xf32>
          %11 = arith.subf %9, %10 : f32
          %12 = math.absf %11 : f32
          %13 = arith.cmpf olt, %12, %cst_0 : f32
          %14 = scf.if %13 -> (f32) {
            %15 = arith.mulf %12, %cst : f32
            %16 = arith.mulf %15, %12 : f32
            scf.yield %16 : f32
          } else {
            %15 = arith.subf %12, %cst : f32
            scf.yield %15 : f32
          }
          memref.store %14, %arg2[%7] : memref<?xf32>
        }
        scf.yield
      }
      gpu.return
    }
  }
}
[ict-debug] ConvertPolygeistToNPUPass::runOnOperation(): Before execute: end

[ict-debug] ConvertPolygeistToNPU:convertScfParallelToScfFor(): replace gpu.block_dim op with thread loop bound

[ict-debug] ConvertPolygeistToNPUPass::runOnOperation(): After vectorize:

module attributes {dlti.dl_spec = #dlti.dl_spec<#dlti.dl_entry<!llvm.ptr<270>, dense<32> : vector<4xi32>>, #dlti.dl_entry<f128, dense<128> : vector<2xi32>>, #dlti.dl_entry<f64, dense<64> : vector<2xi32>>, #dlti.dl_entry<f16, dense<16> : vector<2xi32>>, #dlti.dl_entry<i32, dense<32> : vector<2xi32>>, #dlti.dl_entry<i16, dense<16> : vector<2xi32>>, #dlti.dl_entry<i8, dense<8> : vector<2xi32>>, #dlti.dl_entry<i1, dense<8> : vector<2xi32>>, #dlti.dl_entry<!llvm.ptr, dense<64> : vector<4xi32>>, #dlti.dl_entry<f80, dense<128> : vector<2xi32>>, #dlti.dl_entry<i64, dense<64> : vector<2xi32>>, #dlti.dl_entry<!llvm.ptr<271>, dense<32> : vector<4xi32>>, #dlti.dl_entry<!llvm.ptr<272>, dense<64> : vector<4xi32>>, #dlti.dl_entry<"dlti.endianness", "little">, #dlti.dl_entry<"dlti.stack_alignment", 128 : i32>>, llvm.data_layout = "e-m:e-p270:32:32-p271:32:32-p272:64:64-i64:64-f80:128-n8:16:32:64-S128", llvm.target_triple = "x86_64-unknown-linux-gnu", polygeist.gpu_module.llvm.data_layout = "e-i64:64-i128:128-v16:16-v32:32-n16:32:64", polygeist.gpu_module.llvm.target_triple = "nvptx64-nvidia-cuda", "polygeist.target-cpu" = "x86-64", "polygeist.target-features" = "+cmov,+cx8,+fxsr,+mmx,+sse,+sse2,+x87", "polygeist.tune-cpu" = "generic"} {
  gpu.module @_Z30smooth_l1_loss_kernel_launcherPKfS0_Pfi_0 {
    gpu.func @_Z30smooth_l1_loss_kernel_launcherPKfS0_Pfi(%arg0: memref<?xf32>, %arg1: memref<?xf32>, %arg2: memref<?xf32>, %arg3: i32) {
      %cst = arith.constant 5.000000e-01 : f32
      %cst_0 = arith.constant 1.000000e+00 : f32
      %c0 = arith.constant 0 : index
      %c1 = arith.constant 1 : index
      %c32 = arith.constant 32 : index
      %0 = gpu.block_id  x
      %1 = arith.index_cast %0 : index to i32
      %c32_1 = arith.constant 32 : index
      %2 = arith.index_cast %c32_1 : index to i32
      %3 = arith.muli %1, %2 : i32
      %c1_2 = arith.constant 1 : index
      scf.for %arg4 = %c0 to %c32 step %c1_2 {
        %4 = arith.index_cast %arg4 : index to i32
        %5 = arith.addi %3, %4 : i32
        %6 = arith.index_cast %5 : i32 to index
        %7 = arith.cmpi slt, %5, %arg3 : i32
        scf.if %7 {
          %8 = memref.load %arg0[%6] : memref<?xf32>
          %9 = memref.load %arg1[%6] : memref<?xf32>
          %10 = arith.subf %8, %9 : f32
          %11 = math.absf %10 : f32
          %12 = arith.cmpf olt, %11, %cst_0 : f32
          %13 = scf.if %12 -> (f32) {
            %14 = arith.mulf %11, %cst : f32
            %15 = arith.mulf %14, %11 : f32
            scf.yield %15 : f32
          } else {
            %14 = arith.subf %11, %cst : f32
            scf.yield %14 : f32
          }
          memref.store %13, %arg2[%6] : memref<?xf32>
        }
      }
      gpu.return
    }
  }
}
[ict-debug] ConvertPolygeistToNPUPass::runOnOperation(): After vectorize: end

[ict-debug] GPUBlockIdToNPULowering: process op: 

%0 = gpu.block_id  x
[ict-debug] CastLikeOpToNPULowering: process op: 

%2 = arith.index_cast %1 : index to i32
[ict-debug] CastLikeOpToNPULowering: process op: 

%7 = arith.index_cast %arg4 : index to i32
[ict-debug] CastLikeOpToNPULowering: process op: 

%10 = arith.index_cast %9 : i32 to index
[ict-debug] ConvertPolygeistToNPUPass::runOnOperation(): After convert to NPU:

module attributes {dlti.dl_spec = #dlti.dl_spec<#dlti.dl_entry<!llvm.ptr<270>, dense<32> : vector<4xi32>>, #dlti.dl_entry<f128, dense<128> : vector<2xi32>>, #dlti.dl_entry<f64, dense<64> : vector<2xi32>>, #dlti.dl_entry<f16, dense<16> : vector<2xi32>>, #dlti.dl_entry<i32, dense<32> : vector<2xi32>>, #dlti.dl_entry<i16, dense<16> : vector<2xi32>>, #dlti.dl_entry<i8, dense<8> : vector<2xi32>>, #dlti.dl_entry<i1, dense<8> : vector<2xi32>>, #dlti.dl_entry<!llvm.ptr, dense<64> : vector<4xi32>>, #dlti.dl_entry<f80, dense<128> : vector<2xi32>>, #dlti.dl_entry<i64, dense<64> : vector<2xi32>>, #dlti.dl_entry<!llvm.ptr<271>, dense<32> : vector<4xi32>>, #dlti.dl_entry<!llvm.ptr<272>, dense<64> : vector<4xi32>>, #dlti.dl_entry<"dlti.endianness", "little">, #dlti.dl_entry<"dlti.stack_alignment", 128 : i32>>, llvm.data_layout = "e-m:e-p270:32:32-p271:32:32-p272:64:64-i64:64-f80:128-n8:16:32:64-S128", llvm.target_triple = "x86_64-unknown-linux-gnu", polygeist.gpu_module.llvm.data_layout = "e-i64:64-i128:128-v16:16-v32:32-n16:32:64", polygeist.gpu_module.llvm.target_triple = "nvptx64-nvidia-cuda", "polygeist.target-cpu" = "x86-64", "polygeist.target-features" = "+cmov,+cx8,+fxsr,+mmx,+sse,+sse2,+x87", "polygeist.tune-cpu" = "generic"} {
  gpu.module @_Z30smooth_l1_loss_kernel_launcherPKfS0_Pfi_0 {
    gpu.func @_Z30smooth_l1_loss_kernel_launcherPKfS0_Pfi(%arg0: memref<?xf32>, %arg1: memref<?xf32>, %arg2: memref<?xf32>, %arg3: i32) {
      %cst = arith.constant 5.000000e-01 : f32
      %cst_0 = arith.constant 1.000000e+00 : f32
      %c0 = arith.constant 0 : index
      %c1 = arith.constant 1 : index
      %c32 = arith.constant 32 : index
      %0 = "npu.block_id"() : () -> i64
      %1 = emitc.cast %0 : i64 to i32
      %c32_1 = arith.constant 32 : index
      %c32_i32 = arith.constant 32 : i32
      %2 = arith.muli %1, %c32_i32 : i32
      %c1_2 = arith.constant 1 : index
      scf.for %arg4 = %c0 to %c32 step %c1_2 {
        %3 = builtin.unrealized_conversion_cast %arg4 : index to i64
        %4 = emitc.cast %3 : i64 to i32
        %5 = arith.addi %2, %4 : i32
        %6 = emitc.cast %5 : i32 to index
        %7 = arith.cmpi slt, %5, %arg3 : i32
        scf.if %7 {
          %8 = memref.load %arg0[%6] : memref<?xf32>
          %9 = memref.load %arg1[%6] : memref<?xf32>
          %10 = emitc.sub %8, %9 : (f32, f32) -> f32
          %11 = math.absf %10 : f32
          %12 = arith.cmpf olt, %11, %cst_0 : f32
          %13 = scf.if %12 -> (f32) {
            %14 = emitc.mul %11, %cst : (f32, f32) -> f32
            %15 = emitc.mul %14, %11 : (f32, f32) -> f32
            scf.yield %15 : f32
          } else {
            %14 = emitc.sub %11, %cst : (f32, f32) -> f32
            scf.yield %14 : f32
          }
          memref.store %13, %arg2[%6] : memref<?xf32>
        }
      }
      gpu.return
    }
  }
}
[ict-debug] ConvertPolygeistToNPUPass::runOnOperation(): After convert to NPU: end

[ict-debug] driver.cc: Before convert to EmitC dialect:

module attributes {dlti.dl_spec = #dlti.dl_spec<#dlti.dl_entry<!llvm.ptr<270>, dense<32> : vector<4xi32>>, #dlti.dl_entry<f128, dense<128> : vector<2xi32>>, #dlti.dl_entry<f64, dense<64> : vector<2xi32>>, #dlti.dl_entry<f16, dense<16> : vector<2xi32>>, #dlti.dl_entry<i32, dense<32> : vector<2xi32>>, #dlti.dl_entry<i16, dense<16> : vector<2xi32>>, #dlti.dl_entry<i8, dense<8> : vector<2xi32>>, #dlti.dl_entry<i1, dense<8> : vector<2xi32>>, #dlti.dl_entry<!llvm.ptr, dense<64> : vector<4xi32>>, #dlti.dl_entry<f80, dense<128> : vector<2xi32>>, #dlti.dl_entry<i64, dense<64> : vector<2xi32>>, #dlti.dl_entry<!llvm.ptr<271>, dense<32> : vector<4xi32>>, #dlti.dl_entry<!llvm.ptr<272>, dense<64> : vector<4xi32>>, #dlti.dl_entry<"dlti.endianness", "little">, #dlti.dl_entry<"dlti.stack_alignment", 128 : i32>>, llvm.data_layout = "e-m:e-p270:32:32-p271:32:32-p272:64:64-i64:64-f80:128-n8:16:32:64-S128", llvm.target_triple = "x86_64-unknown-linux-gnu", polygeist.gpu_module.llvm.data_layout = "e-i64:64-i128:128-v16:16-v32:32-n16:32:64", polygeist.gpu_module.llvm.target_triple = "nvptx64-nvidia-cuda", "polygeist.target-cpu" = "x86-64", "polygeist.target-features" = "+cmov,+cx8,+fxsr,+mmx,+sse,+sse2,+x87", "polygeist.tune-cpu" = "generic"} {
  gpu.module @_Z30smooth_l1_loss_kernel_launcherPKfS0_Pfi_0 {
    gpu.func @_Z30smooth_l1_loss_kernel_launcherPKfS0_Pfi(%arg0: memref<?xf32>, %arg1: memref<?xf32>, %arg2: memref<?xf32>, %arg3: i32) {
      %c32_i32 = arith.constant 32 : i32
      %cst = arith.constant 5.000000e-01 : f32
      %cst_0 = arith.constant 1.000000e+00 : f32
      %c0 = arith.constant 0 : index
      %c1 = arith.constant 1 : index
      %c32 = arith.constant 32 : index
      %0 = "npu.block_id"() : () -> i64
      %1 = emitc.cast %0 : i64 to i32
      %2 = arith.muli %1, %c32_i32 : i32
      scf.for %arg4 = %c0 to %c32 step %c1 {
        %3 = builtin.unrealized_conversion_cast %arg4 : index to i64
        %4 = emitc.cast %3 : i64 to i32
        %5 = arith.addi %2, %4 : i32
        %6 = emitc.cast %5 : i32 to index
        %7 = arith.cmpi slt, %5, %arg3 : i32
        scf.if %7 {
          %8 = memref.load %arg0[%6] : memref<?xf32>
          %9 = memref.load %arg1[%6] : memref<?xf32>
          %10 = emitc.sub %8, %9 : (f32, f32) -> f32
          %11 = math.absf %10 : f32
          %12 = arith.cmpf olt, %11, %cst_0 : f32
          %13 = scf.if %12 -> (f32) {
            %14 = emitc.mul %11, %cst : (f32, f32) -> f32
            %15 = emitc.mul %14, %11 : (f32, f32) -> f32
            scf.yield %15 : f32
          } else {
            %14 = emitc.sub %11, %cst : (f32, f32) -> f32
            scf.yield %14 : f32
          }
          memref.store %13, %arg2[%6] : memref<?xf32>
        }
      }
      gpu.return
    }
  }
}
[ict-debug] driver.cc: Before convert to EmitC dialect: end

[ict-debug] driver.cc: After convert to EmitC dialect:

module attributes {dlti.dl_spec = #dlti.dl_spec<#dlti.dl_entry<!llvm.ptr<270>, dense<32> : vector<4xi32>>, #dlti.dl_entry<f128, dense<128> : vector<2xi32>>, #dlti.dl_entry<f64, dense<64> : vector<2xi32>>, #dlti.dl_entry<f16, dense<16> : vector<2xi32>>, #dlti.dl_entry<i32, dense<32> : vector<2xi32>>, #dlti.dl_entry<i16, dense<16> : vector<2xi32>>, #dlti.dl_entry<i8, dense<8> : vector<2xi32>>, #dlti.dl_entry<i1, dense<8> : vector<2xi32>>, #dlti.dl_entry<!llvm.ptr, dense<64> : vector<4xi32>>, #dlti.dl_entry<f80, dense<128> : vector<2xi32>>, #dlti.dl_entry<i64, dense<64> : vector<2xi32>>, #dlti.dl_entry<!llvm.ptr<271>, dense<32> : vector<4xi32>>, #dlti.dl_entry<!llvm.ptr<272>, dense<64> : vector<4xi32>>, #dlti.dl_entry<"dlti.endianness", "little">, #dlti.dl_entry<"dlti.stack_alignment", 128 : i32>>, llvm.data_layout = "e-m:e-p270:32:32-p271:32:32-p272:64:64-i64:64-f80:128-n8:16:32:64-S128", llvm.target_triple = "x86_64-unknown-linux-gnu", polygeist.gpu_module.llvm.data_layout = "e-i64:64-i128:128-v16:16-v32:32-n16:32:64", polygeist.gpu_module.llvm.target_triple = "nvptx64-nvidia-cuda", "polygeist.target-cpu" = "x86-64", "polygeist.target-features" = "+cmov,+cx8,+fxsr,+mmx,+sse,+sse2,+x87", "polygeist.tune-cpu" = "generic"} {
  gpu.module @_Z30smooth_l1_loss_kernel_launcherPKfS0_Pfi_0 {
    gpu.func @_Z30smooth_l1_loss_kernel_launcherPKfS0_Pfi(%arg0: memref<?xf32>, %arg1: memref<?xf32>, %arg2: memref<?xf32>, %arg3: i32) {
      %c32_i32 = arith.constant 32 : i32
      %cst = arith.constant 5.000000e-01 : f32
      %cst_0 = arith.constant 1.000000e+00 : f32
      %c0 = arith.constant 0 : index
      %c1 = arith.constant 1 : index
      %c32 = arith.constant 32 : index
      %0 = "npu.block_id"() : () -> i64
      %1 = emitc.cast %0 : i64 to i32
      %2 = arith.muli %1, %c32_i32 : i32
      scf.for %arg4 = %c0 to %c32 step %c1 {
        %3 = builtin.unrealized_conversion_cast %arg4 : index to i64
        %4 = emitc.cast %3 : i64 to i32
        %5 = arith.addi %2, %4 : i32
        %6 = emitc.cast %5 : i32 to index
        %7 = arith.cmpi slt, %5, %arg3 : i32
        emitc.if %7 {
          %8 = memref.load %arg0[%6] : memref<?xf32>
          %9 = memref.load %arg1[%6] : memref<?xf32>
          %10 = emitc.sub %8, %9 : (f32, f32) -> f32
          %11 = math.absf %10 : f32
          %12 = arith.cmpf olt, %11, %cst_0 : f32
          %13 = "emitc.variable"() <{value = #emitc.opaque<"">}> : () -> f32
          emitc.if %12 {
            %14 = emitc.mul %11, %cst : (f32, f32) -> f32
            %15 = emitc.mul %14, %11 : (f32, f32) -> f32
            emitc.assign %15 : f32 to %13 : f32
          } else {
            %14 = emitc.sub %11, %cst : (f32, f32) -> f32
            emitc.assign %14 : f32 to %13 : f32
          }
          memref.store %13, %arg2[%6] : memref<?xf32>
        }
      }
      gpu.return
    }
  }
}
[ict-debug] driver.cc: After convert to EmitC dialect: end

loc(callsite("/CUDA2BANG/Cambricon_NaiveProfiling/cuda_ops_test/Ascend_kernels/gen_cuda_kernels/level_1_prlblem_96_sample_0_HuberLoss.cu":2:16 at "/CUDA2BANG/Cambricon_NaiveProfiling/cuda_ops_test/Ascend_kernels/gen_cuda_kernels/level_1_prlblem_96_sample_0_HuberLoss.cu":12:17)): error: 'math.absf' op unable to find printer for op
[ict-debug] driver.cc: After emitc::translateToCpp:

