warning: CUDA version 12.1 is only partially supported
warning: CUDA version 12.1 is only partially supported
[ict-debug] driver.cc: After return 5, module:

module attributes {dlti.dl_spec = #dlti.dl_spec<#dlti.dl_entry<f80, dense<128> : vector<2xi32>>, #dlti.dl_entry<i1, dense<8> : vector<2xi32>>, #dlti.dl_entry<!llvm.ptr, dense<64> : vector<4xi32>>, #dlti.dl_entry<i16, dense<16> : vector<2xi32>>, #dlti.dl_entry<i8, dense<8> : vector<2xi32>>, #dlti.dl_entry<f16, dense<16> : vector<2xi32>>, #dlti.dl_entry<f64, dense<64> : vector<2xi32>>, #dlti.dl_entry<f128, dense<128> : vector<2xi32>>, #dlti.dl_entry<i32, dense<32> : vector<2xi32>>, #dlti.dl_entry<!llvm.ptr<271>, dense<32> : vector<4xi32>>, #dlti.dl_entry<!llvm.ptr<270>, dense<32> : vector<4xi32>>, #dlti.dl_entry<i64, dense<64> : vector<2xi32>>, #dlti.dl_entry<!llvm.ptr<272>, dense<64> : vector<4xi32>>, #dlti.dl_entry<"dlti.stack_alignment", 128 : i32>, #dlti.dl_entry<"dlti.endianness", "little">>, llvm.data_layout = "e-m:e-p270:32:32-p271:32:32-p272:64:64-i64:64-f80:128-n8:16:32:64-S128", llvm.target_triple = "x86_64-unknown-linux-gnu", polygeist.gpu_module.llvm.data_layout = "e-i64:64-i128:128-v16:16-v32:32-n16:32:64", polygeist.gpu_module.llvm.target_triple = "nvptx64-nvidia-cuda", "polygeist.target-cpu" = "x86-64", "polygeist.target-features" = "+cmov,+cx8,+fxsr,+mmx,+sse,+sse2,+x87", "polygeist.tune-cpu" = "generic"} {
  func.func private @_Z41__device_stub__triplet_margin_loss_kernelPKfS0_S0_fPfi(%arg0: memref<?xf32>, %arg1: memref<?xf32>, %arg2: memref<?xf32>, %arg3: f32, %arg4: memref<?xf32>, %arg5: i32) attributes {llvm.linkage = #llvm.linkage<external>, polygeist.device_only_func = "1"} {
    call @_Z26triplet_margin_loss_kernelPKfS0_S0_fPfi(%arg0, %arg1, %arg2, %arg3, %arg4, %arg5) : (memref<?xf32>, memref<?xf32>, memref<?xf32>, f32, memref<?xf32>, i32) -> ()
    return
  }
  func.func private @_Z26triplet_margin_loss_kernelPKfS0_S0_fPfi(%arg0: memref<?xf32>, %arg1: memref<?xf32>, %arg2: memref<?xf32>, %arg3: f32, %arg4: memref<?xf32>, %arg5: i32) attributes {llvm.linkage = #llvm.linkage<external>, polygeist.device_only_func = "1"} {
    %cst = arith.constant 0.000000e+00 : f32
    %0 = gpu.block_id  x
    %1 = arith.index_cast %0 : index to i32
    %2 = gpu.block_dim  x
    %3 = arith.index_cast %2 : index to i32
    %4 = arith.muli %1, %3 : i32
    %5 = gpu.thread_id  x
    %6 = arith.index_cast %5 : index to i32
    %7 = arith.addi %4, %6 : i32
    %8 = arith.index_cast %7 : i32 to index
    %9 = arith.index_cast %7 : i32 to index
    %10 = arith.index_cast %7 : i32 to index
    %11 = arith.index_cast %7 : i32 to index
    %12 = arith.index_cast %7 : i32 to index
    %13 = arith.cmpi slt, %7, %arg5 : i32
    scf.if %13 {
      %14:2 = affine.for %arg6 = 0 to 4096 iter_args(%arg7 = %cst, %arg8 = %cst) -> (f32, f32) {
        %20 = affine.load %arg0[%arg6 + symbol(%8) * 4096] : memref<?xf32>
        %21 = affine.load %arg1[%arg6 + symbol(%9) * 4096] : memref<?xf32>
        %22 = arith.subf %20, %21 : f32
        %23 = arith.mulf %22, %22 : f32
        %24 = arith.addf %arg8, %23 : f32
        %25 = affine.load %arg0[%arg6 + symbol(%10) * 4096] : memref<?xf32>
        %26 = affine.load %arg2[%arg6 + symbol(%11) * 4096] : memref<?xf32>
        %27 = arith.subf %25, %26 : f32
        %28 = arith.mulf %27, %27 : f32
        %29 = arith.addf %arg7, %28 : f32
        affine.yield %29, %24 : f32, f32
      }
      %15 = math.sqrt %14#1 : f32
      %16 = math.sqrt %14#0 : f32
      %17 = arith.addf %arg3, %15 : f32
      %18 = arith.subf %17, %16 : f32
      %19 = arith.maxnumf %18, %cst : f32
      affine.store %19, %arg4[symbol(%12)] : memref<?xf32>
    }
    return
  }
}
[ict-debug] driver.cc: After return 5, module: end

[ict-debug] driver.cc: After return 6, module:

module attributes {dlti.dl_spec = #dlti.dl_spec<#dlti.dl_entry<f80, dense<128> : vector<2xi32>>, #dlti.dl_entry<i1, dense<8> : vector<2xi32>>, #dlti.dl_entry<!llvm.ptr, dense<64> : vector<4xi32>>, #dlti.dl_entry<i16, dense<16> : vector<2xi32>>, #dlti.dl_entry<i8, dense<8> : vector<2xi32>>, #dlti.dl_entry<f16, dense<16> : vector<2xi32>>, #dlti.dl_entry<f64, dense<64> : vector<2xi32>>, #dlti.dl_entry<f128, dense<128> : vector<2xi32>>, #dlti.dl_entry<i32, dense<32> : vector<2xi32>>, #dlti.dl_entry<!llvm.ptr<271>, dense<32> : vector<4xi32>>, #dlti.dl_entry<!llvm.ptr<270>, dense<32> : vector<4xi32>>, #dlti.dl_entry<i64, dense<64> : vector<2xi32>>, #dlti.dl_entry<!llvm.ptr<272>, dense<64> : vector<4xi32>>, #dlti.dl_entry<"dlti.stack_alignment", 128 : i32>, #dlti.dl_entry<"dlti.endianness", "little">>, llvm.data_layout = "e-m:e-p270:32:32-p271:32:32-p272:64:64-i64:64-f80:128-n8:16:32:64-S128", llvm.target_triple = "x86_64-unknown-linux-gnu", polygeist.gpu_module.llvm.data_layout = "e-i64:64-i128:128-v16:16-v32:32-n16:32:64", polygeist.gpu_module.llvm.target_triple = "nvptx64-nvidia-cuda", "polygeist.target-cpu" = "x86-64", "polygeist.target-features" = "+cmov,+cx8,+fxsr,+mmx,+sse,+sse2,+x87", "polygeist.tune-cpu" = "generic"} {
  func.func private @_Z26triplet_margin_loss_kernelPKfS0_S0_fPfi(%arg0: memref<?xf32>, %arg1: memref<?xf32>, %arg2: memref<?xf32>, %arg3: f32, %arg4: memref<?xf32>, %arg5: i32) attributes {llvm.linkage = #llvm.linkage<external>, polygeist.device_only_func = "1"} {
    %cst = arith.constant 0.000000e+00 : f32
    %0 = gpu.block_id  x
    %1 = arith.index_cast %0 : index to i32
    %2 = gpu.block_dim  x
    %3 = arith.index_cast %2 : index to i32
    %4 = arith.muli %1, %3 : i32
    %5 = gpu.thread_id  x
    %6 = arith.index_cast %5 : index to i32
    %7 = arith.addi %4, %6 : i32
    %8 = arith.index_cast %7 : i32 to index
    %9 = arith.cmpi slt, %7, %arg5 : i32
    scf.if %9 {
      %10:2 = affine.for %arg6 = 0 to 4096 iter_args(%arg7 = %cst, %arg8 = %cst) -> (f32, f32) {
        %16 = affine.load %arg0[%arg6 + symbol(%8) * 4096] : memref<?xf32>
        %17 = affine.load %arg1[%arg6 + symbol(%8) * 4096] : memref<?xf32>
        %18 = arith.subf %16, %17 : f32
        %19 = arith.mulf %18, %18 : f32
        %20 = arith.addf %arg8, %19 : f32
        %21 = affine.load %arg2[%arg6 + symbol(%8) * 4096] : memref<?xf32>
        %22 = arith.subf %16, %21 : f32
        %23 = arith.mulf %22, %22 : f32
        %24 = arith.addf %arg7, %23 : f32
        affine.yield %24, %20 : f32, f32
      }
      %11 = math.sqrt %10#1 : f32
      %12 = math.sqrt %10#0 : f32
      %13 = arith.addf %arg3, %11 : f32
      %14 = arith.subf %13, %12 : f32
      %15 = arith.maxnumf %14, %cst : f32
      affine.store %15, %arg4[symbol(%8)] : memref<?xf32>
    }
    return
  }
}
[ict-debug] driver.cc: After return 6, module: end

WrapAndReplaceBarrierPass::runOnOperation(): before execute: 
module attributes {dlti.dl_spec = #dlti.dl_spec<#dlti.dl_entry<f80, dense<128> : vector<2xi32>>, #dlti.dl_entry<i1, dense<8> : vector<2xi32>>, #dlti.dl_entry<!llvm.ptr, dense<64> : vector<4xi32>>, #dlti.dl_entry<i16, dense<16> : vector<2xi32>>, #dlti.dl_entry<i8, dense<8> : vector<2xi32>>, #dlti.dl_entry<f16, dense<16> : vector<2xi32>>, #dlti.dl_entry<f64, dense<64> : vector<2xi32>>, #dlti.dl_entry<f128, dense<128> : vector<2xi32>>, #dlti.dl_entry<i32, dense<32> : vector<2xi32>>, #dlti.dl_entry<!llvm.ptr<271>, dense<32> : vector<4xi32>>, #dlti.dl_entry<!llvm.ptr<270>, dense<32> : vector<4xi32>>, #dlti.dl_entry<i64, dense<64> : vector<2xi32>>, #dlti.dl_entry<!llvm.ptr<272>, dense<64> : vector<4xi32>>, #dlti.dl_entry<"dlti.stack_alignment", 128 : i32>, #dlti.dl_entry<"dlti.endianness", "little">>, llvm.data_layout = "e-m:e-p270:32:32-p271:32:32-p272:64:64-i64:64-f80:128-n8:16:32:64-S128", llvm.target_triple = "x86_64-unknown-linux-gnu", polygeist.gpu_module.llvm.data_layout = "e-i64:64-i128:128-v16:16-v32:32-n16:32:64", polygeist.gpu_module.llvm.target_triple = "nvptx64-nvidia-cuda", "polygeist.target-cpu" = "x86-64", "polygeist.target-features" = "+cmov,+cx8,+fxsr,+mmx,+sse,+sse2,+x87", "polygeist.tune-cpu" = "generic"} {
  func.func private @_Z26triplet_margin_loss_kernelPKfS0_S0_fPfi(%arg0: memref<?xf32>, %arg1: memref<?xf32>, %arg2: memref<?xf32>, %arg3: f32, %arg4: memref<?xf32>, %arg5: i32) attributes {llvm.linkage = #llvm.linkage<external>, polygeist.device_only_func = "1"} {
    %c1 = arith.constant 1 : index
    %c4096 = arith.constant 4096 : index
    %c0 = arith.constant 0 : index
    %cst = arith.constant 0.000000e+00 : f32
    %0 = gpu.block_id  x
    %1 = arith.index_cast %0 : index to i32
    %2 = gpu.block_dim  x
    %3 = arith.index_cast %2 : index to i32
    %4 = arith.muli %1, %3 : i32
    %5 = gpu.thread_id  x
    %6 = arith.index_cast %5 : index to i32
    %7 = arith.addi %4, %6 : i32
    %8 = arith.index_cast %7 : i32 to index
    %9 = arith.cmpi slt, %7, %arg5 : i32
    scf.if %9 {
      %10:2 = scf.for %arg6 = %c0 to %c4096 step %c1 iter_args(%arg7 = %cst, %arg8 = %cst) -> (f32, f32) {
        %16 = arith.muli %8, %c4096 : index
        %17 = arith.addi %arg6, %16 : index
        %18 = memref.load %arg0[%17] : memref<?xf32>
        %19 = memref.load %arg1[%17] : memref<?xf32>
        %20 = arith.subf %18, %19 : f32
        %21 = arith.mulf %20, %20 : f32
        %22 = arith.addf %arg8, %21 : f32
        %23 = memref.load %arg2[%17] : memref<?xf32>
        %24 = arith.subf %18, %23 : f32
        %25 = arith.mulf %24, %24 : f32
        %26 = arith.addf %arg7, %25 : f32
        scf.yield %26, %22 : f32, f32
      }
      %11 = math.sqrt %10#1 : f32
      %12 = math.sqrt %10#0 : f32
      %13 = arith.addf %arg3, %11 : f32
      %14 = arith.subf %13, %12 : f32
      %15 = arith.maxnumf %14, %cst : f32
      memref.store %15, %arg4[%8] : memref<?xf32>
    }
    return
  }
}
WrapAndReplaceBarrierPass::runOnOperation(): before execute: end
WrapAndReplaceBarrierPass::runOnOperation(): after execute: 
module attributes {dlti.dl_spec = #dlti.dl_spec<#dlti.dl_entry<f80, dense<128> : vector<2xi32>>, #dlti.dl_entry<i1, dense<8> : vector<2xi32>>, #dlti.dl_entry<!llvm.ptr, dense<64> : vector<4xi32>>, #dlti.dl_entry<i16, dense<16> : vector<2xi32>>, #dlti.dl_entry<i8, dense<8> : vector<2xi32>>, #dlti.dl_entry<f16, dense<16> : vector<2xi32>>, #dlti.dl_entry<f64, dense<64> : vector<2xi32>>, #dlti.dl_entry<f128, dense<128> : vector<2xi32>>, #dlti.dl_entry<i32, dense<32> : vector<2xi32>>, #dlti.dl_entry<!llvm.ptr<271>, dense<32> : vector<4xi32>>, #dlti.dl_entry<!llvm.ptr<270>, dense<32> : vector<4xi32>>, #dlti.dl_entry<i64, dense<64> : vector<2xi32>>, #dlti.dl_entry<!llvm.ptr<272>, dense<64> : vector<4xi32>>, #dlti.dl_entry<"dlti.stack_alignment", 128 : i32>, #dlti.dl_entry<"dlti.endianness", "little">>, llvm.data_layout = "e-m:e-p270:32:32-p271:32:32-p272:64:64-i64:64-f80:128-n8:16:32:64-S128", llvm.target_triple = "x86_64-unknown-linux-gnu", polygeist.gpu_module.llvm.data_layout = "e-i64:64-i128:128-v16:16-v32:32-n16:32:64", polygeist.gpu_module.llvm.target_triple = "nvptx64-nvidia-cuda", "polygeist.target-cpu" = "x86-64", "polygeist.target-features" = "+cmov,+cx8,+fxsr,+mmx,+sse,+sse2,+x87", "polygeist.tune-cpu" = "generic"} {
  func.func @_Z26triplet_margin_loss_kernelPKfS0_S0_fPfi(%arg0: memref<?xf32>, %arg1: memref<?xf32>, %arg2: memref<?xf32>, %arg3: f32, %arg4: memref<?xf32>, %arg5: i32) attributes {llvm.linkage = #llvm.linkage<external>, polygeist.device_only_func = "1"} {
    %c0 = arith.constant 0 : index
    %c1 = arith.constant 1 : index
    %c32 = arith.constant 32 : index
    scf.parallel (%arg6) = (%c0) to (%c32) step (%c1) {
      %c1_0 = arith.constant 1 : index
      %c4096 = arith.constant 4096 : index
      %c0_1 = arith.constant 0 : index
      %cst = arith.constant 0.000000e+00 : f32
      %0 = gpu.block_id  x
      %1 = arith.index_cast %0 : index to i32
      %2 = gpu.block_dim  x
      %3 = arith.index_cast %2 : index to i32
      %4 = arith.muli %1, %3 : i32
      %5 = arith.index_cast %arg6 : index to i32
      %6 = arith.addi %4, %5 : i32
      %7 = arith.index_cast %6 : i32 to index
      %8 = arith.cmpi slt, %6, %arg5 : i32
      scf.if %8 {
        %9:2 = scf.for %arg7 = %c0_1 to %c4096 step %c1_0 iter_args(%arg8 = %cst, %arg9 = %cst) -> (f32, f32) {
          %15 = arith.muli %7, %c4096 : index
          %16 = arith.addi %arg7, %15 : index
          %17 = memref.load %arg0[%16] : memref<?xf32>
          %18 = memref.load %arg1[%16] : memref<?xf32>
          %19 = arith.subf %17, %18 : f32
          %20 = arith.mulf %19, %19 : f32
          %21 = arith.addf %arg9, %20 : f32
          %22 = memref.load %arg2[%16] : memref<?xf32>
          %23 = arith.subf %17, %22 : f32
          %24 = arith.mulf %23, %23 : f32
          %25 = arith.addf %arg8, %24 : f32
          scf.yield %25, %21 : f32, f32
        }
        %10 = math.sqrt %9#1 : f32
        %11 = math.sqrt %9#0 : f32
        %12 = arith.addf %arg3, %10 : f32
        %13 = arith.subf %12, %11 : f32
        %14 = arith.maxnumf %13, %cst : f32
        memref.store %14, %arg4[%7] : memref<?xf32>
      }
      scf.yield
    }
    return
  }
}
WrapAndReplaceBarrierPass::runOnOperation(): after execute: end
[ict-debug] driver.cc: After return 7, module:

module attributes {dlti.dl_spec = #dlti.dl_spec<#dlti.dl_entry<f80, dense<128> : vector<2xi32>>, #dlti.dl_entry<i1, dense<8> : vector<2xi32>>, #dlti.dl_entry<!llvm.ptr, dense<64> : vector<4xi32>>, #dlti.dl_entry<i16, dense<16> : vector<2xi32>>, #dlti.dl_entry<i8, dense<8> : vector<2xi32>>, #dlti.dl_entry<f16, dense<16> : vector<2xi32>>, #dlti.dl_entry<f64, dense<64> : vector<2xi32>>, #dlti.dl_entry<f128, dense<128> : vector<2xi32>>, #dlti.dl_entry<i32, dense<32> : vector<2xi32>>, #dlti.dl_entry<!llvm.ptr<271>, dense<32> : vector<4xi32>>, #dlti.dl_entry<!llvm.ptr<270>, dense<32> : vector<4xi32>>, #dlti.dl_entry<i64, dense<64> : vector<2xi32>>, #dlti.dl_entry<!llvm.ptr<272>, dense<64> : vector<4xi32>>, #dlti.dl_entry<"dlti.stack_alignment", 128 : i32>, #dlti.dl_entry<"dlti.endianness", "little">>, llvm.data_layout = "e-m:e-p270:32:32-p271:32:32-p272:64:64-i64:64-f80:128-n8:16:32:64-S128", llvm.target_triple = "x86_64-unknown-linux-gnu", polygeist.gpu_module.llvm.data_layout = "e-i64:64-i128:128-v16:16-v32:32-n16:32:64", polygeist.gpu_module.llvm.target_triple = "nvptx64-nvidia-cuda", "polygeist.target-cpu" = "x86-64", "polygeist.target-features" = "+cmov,+cx8,+fxsr,+mmx,+sse,+sse2,+x87", "polygeist.tune-cpu" = "generic"} {
  func.func @_Z26triplet_margin_loss_kernelPKfS0_S0_fPfi(%arg0: memref<?xf32>, %arg1: memref<?xf32>, %arg2: memref<?xf32>, %arg3: f32, %arg4: memref<?xf32>, %arg5: i32) attributes {llvm.linkage = #llvm.linkage<external>, polygeist.device_only_func = "1"} {
    %c0 = arith.constant 0 : index
    %c1 = arith.constant 1 : index
    %c32 = arith.constant 32 : index
    scf.parallel (%arg6) = (%c0) to (%c32) step (%c1) {
      %c1_0 = arith.constant 1 : index
      %c4096 = arith.constant 4096 : index
      %c0_1 = arith.constant 0 : index
      %cst = arith.constant 0.000000e+00 : f32
      %0 = gpu.block_id  x
      %1 = arith.index_cast %0 : index to i32
      %2 = gpu.block_dim  x
      %3 = arith.index_cast %2 : index to i32
      %4 = arith.muli %1, %3 : i32
      %5 = arith.index_cast %arg6 : index to i32
      %6 = arith.addi %4, %5 : i32
      %7 = arith.index_cast %6 : i32 to index
      %8 = arith.cmpi slt, %6, %arg5 : i32
      scf.if %8 {
        %9:2 = scf.for %arg7 = %c0_1 to %c4096 step %c1_0 iter_args(%arg8 = %cst, %arg9 = %cst) -> (f32, f32) {
          %15 = arith.muli %7, %c4096 : index
          %16 = arith.addi %arg7, %15 : index
          %17 = memref.load %arg0[%16] : memref<?xf32>
          %18 = memref.load %arg1[%16] : memref<?xf32>
          %19 = arith.subf %17, %18 : f32
          %20 = arith.mulf %19, %19 : f32
          %21 = arith.addf %arg9, %20 : f32
          %22 = memref.load %arg2[%16] : memref<?xf32>
          %23 = arith.subf %17, %22 : f32
          %24 = arith.mulf %23, %23 : f32
          %25 = arith.addf %arg8, %24 : f32
          scf.yield %25, %21 : f32, f32
        }
        %10 = math.sqrt %9#1 : f32
        %11 = math.sqrt %9#0 : f32
        %12 = arith.addf %arg3, %10 : f32
        %13 = arith.subf %12, %11 : f32
        %14 = arith.maxnumf %13, %cst : f32
        memref.store %14, %arg4[%7] : memref<?xf32>
      }
      scf.yield
    }
    return
  }
}
[ict-debug] driver.cc: After return 7, module: end

[ict-debug] driver.cc: Before my pass process:

module attributes {dlti.dl_spec = #dlti.dl_spec<#dlti.dl_entry<f80, dense<128> : vector<2xi32>>, #dlti.dl_entry<i1, dense<8> : vector<2xi32>>, #dlti.dl_entry<!llvm.ptr, dense<64> : vector<4xi32>>, #dlti.dl_entry<i16, dense<16> : vector<2xi32>>, #dlti.dl_entry<i8, dense<8> : vector<2xi32>>, #dlti.dl_entry<f16, dense<16> : vector<2xi32>>, #dlti.dl_entry<f64, dense<64> : vector<2xi32>>, #dlti.dl_entry<f128, dense<128> : vector<2xi32>>, #dlti.dl_entry<i32, dense<32> : vector<2xi32>>, #dlti.dl_entry<!llvm.ptr<271>, dense<32> : vector<4xi32>>, #dlti.dl_entry<!llvm.ptr<270>, dense<32> : vector<4xi32>>, #dlti.dl_entry<i64, dense<64> : vector<2xi32>>, #dlti.dl_entry<!llvm.ptr<272>, dense<64> : vector<4xi32>>, #dlti.dl_entry<"dlti.stack_alignment", 128 : i32>, #dlti.dl_entry<"dlti.endianness", "little">>, llvm.data_layout = "e-m:e-p270:32:32-p271:32:32-p272:64:64-i64:64-f80:128-n8:16:32:64-S128", llvm.target_triple = "x86_64-unknown-linux-gnu", polygeist.gpu_module.llvm.data_layout = "e-i64:64-i128:128-v16:16-v32:32-n16:32:64", polygeist.gpu_module.llvm.target_triple = "nvptx64-nvidia-cuda", "polygeist.target-cpu" = "x86-64", "polygeist.target-features" = "+cmov,+cx8,+fxsr,+mmx,+sse,+sse2,+x87", "polygeist.tune-cpu" = "generic"} {
  func.func @_Z26triplet_margin_loss_kernelPKfS0_S0_fPfi(%arg0: memref<?xf32>, %arg1: memref<?xf32>, %arg2: memref<?xf32>, %arg3: f32, %arg4: memref<?xf32>, %arg5: i32) attributes {llvm.linkage = #llvm.linkage<external>, polygeist.device_only_func = "1"} {
    %cst = arith.constant 0.000000e+00 : f32
    %c4096 = arith.constant 4096 : index
    %c0 = arith.constant 0 : index
    %c1 = arith.constant 1 : index
    %c32 = arith.constant 32 : index
    %0 = gpu.block_id  x
    %1 = arith.index_cast %0 : index to i32
    %2 = gpu.block_dim  x
    %3 = arith.index_cast %2 : index to i32
    %4 = arith.muli %1, %3 : i32
    scf.parallel (%arg6) = (%c0) to (%c32) step (%c1) {
      %5 = arith.index_cast %arg6 : index to i32
      %6 = arith.addi %4, %5 : i32
      %7 = arith.index_cast %6 : i32 to index
      %8 = arith.cmpi slt, %6, %arg5 : i32
      scf.if %8 {
        %9 = arith.muli %7, %c4096 : index
        %10:2 = scf.for %arg7 = %c0 to %c4096 step %c1 iter_args(%arg8 = %cst, %arg9 = %cst) -> (f32, f32) {
          %16 = arith.addi %arg7, %9 : index
          %17 = memref.load %arg0[%16] : memref<?xf32>
          %18 = memref.load %arg1[%16] : memref<?xf32>
          %19 = arith.subf %17, %18 : f32
          %20 = arith.mulf %19, %19 : f32
          %21 = arith.addf %arg9, %20 : f32
          %22 = memref.load %arg2[%16] : memref<?xf32>
          %23 = arith.subf %17, %22 : f32
          %24 = arith.mulf %23, %23 : f32
          %25 = arith.addf %arg8, %24 : f32
          scf.yield %25, %21 : f32, f32
        }
        %11 = math.sqrt %10#1 : f32
        %12 = math.sqrt %10#0 : f32
        %13 = arith.addf %arg3, %11 : f32
        %14 = arith.subf %13, %12 : f32
        %15 = arith.maxnumf %14, %cst : f32
        memref.store %15, %arg4[%7] : memref<?xf32>
      }
      scf.yield
    }
    return
  }
}
[ict-debug] driver.cc: Before my pass process: end

[ict-debug] driver.cc: vectorizeSize = 1

[ict-debug] ConvertPolygeistToNPUPass::runOnOperation(): Before execute:

module attributes {dlti.dl_spec = #dlti.dl_spec<#dlti.dl_entry<f80, dense<128> : vector<2xi32>>, #dlti.dl_entry<i1, dense<8> : vector<2xi32>>, #dlti.dl_entry<!llvm.ptr, dense<64> : vector<4xi32>>, #dlti.dl_entry<i16, dense<16> : vector<2xi32>>, #dlti.dl_entry<i8, dense<8> : vector<2xi32>>, #dlti.dl_entry<f16, dense<16> : vector<2xi32>>, #dlti.dl_entry<f64, dense<64> : vector<2xi32>>, #dlti.dl_entry<f128, dense<128> : vector<2xi32>>, #dlti.dl_entry<i32, dense<32> : vector<2xi32>>, #dlti.dl_entry<!llvm.ptr<271>, dense<32> : vector<4xi32>>, #dlti.dl_entry<!llvm.ptr<270>, dense<32> : vector<4xi32>>, #dlti.dl_entry<i64, dense<64> : vector<2xi32>>, #dlti.dl_entry<!llvm.ptr<272>, dense<64> : vector<4xi32>>, #dlti.dl_entry<"dlti.stack_alignment", 128 : i32>, #dlti.dl_entry<"dlti.endianness", "little">>, llvm.data_layout = "e-m:e-p270:32:32-p271:32:32-p272:64:64-i64:64-f80:128-n8:16:32:64-S128", llvm.target_triple = "x86_64-unknown-linux-gnu", polygeist.gpu_module.llvm.data_layout = "e-i64:64-i128:128-v16:16-v32:32-n16:32:64", polygeist.gpu_module.llvm.target_triple = "nvptx64-nvidia-cuda", "polygeist.target-cpu" = "x86-64", "polygeist.target-features" = "+cmov,+cx8,+fxsr,+mmx,+sse,+sse2,+x87", "polygeist.tune-cpu" = "generic"} {
  gpu.module @_Z26triplet_margin_loss_kernelPKfS0_S0_fPfi_0 {
    gpu.func @_Z26triplet_margin_loss_kernelPKfS0_S0_fPfi(%arg0: memref<?xf32>, %arg1: memref<?xf32>, %arg2: memref<?xf32>, %arg3: f32, %arg4: memref<?xf32>, %arg5: i32) {
      %cst = arith.constant 0.000000e+00 : f32
      %c4096 = arith.constant 4096 : index
      %c0 = arith.constant 0 : index
      %c1 = arith.constant 1 : index
      %c32 = arith.constant 32 : index
      %0 = gpu.block_id  x
      %1 = arith.index_cast %0 : index to i32
      %2 = gpu.block_dim  x
      %3 = arith.index_cast %2 : index to i32
      %4 = arith.muli %1, %3 : i32
      scf.parallel (%arg6) = (%c0) to (%c32) step (%c1) {
        %5 = arith.index_cast %arg6 : index to i32
        %6 = arith.addi %4, %5 : i32
        %7 = arith.index_cast %6 : i32 to index
        %8 = arith.cmpi slt, %6, %arg5 : i32
        scf.if %8 {
          %9 = arith.muli %7, %c4096 : index
          %10:2 = scf.for %arg7 = %c0 to %c4096 step %c1 iter_args(%arg8 = %cst, %arg9 = %cst) -> (f32, f32) {
            %16 = arith.addi %arg7, %9 : index
            %17 = memref.load %arg0[%16] : memref<?xf32>
            %18 = memref.load %arg1[%16] : memref<?xf32>
            %19 = arith.subf %17, %18 : f32
            %20 = arith.mulf %19, %19 : f32
            %21 = arith.addf %arg9, %20 : f32
            %22 = memref.load %arg2[%16] : memref<?xf32>
            %23 = arith.subf %17, %22 : f32
            %24 = arith.mulf %23, %23 : f32
            %25 = arith.addf %arg8, %24 : f32
            scf.yield %25, %21 : f32, f32
          }
          %11 = math.sqrt %10#1 : f32
          %12 = math.sqrt %10#0 : f32
          %13 = arith.addf %arg3, %11 : f32
          %14 = arith.subf %13, %12 : f32
          %15 = arith.maxnumf %14, %cst : f32
          memref.store %15, %arg4[%7] : memref<?xf32>
        }
        scf.yield
      }
      gpu.return
    }
  }
}
[ict-debug] ConvertPolygeistToNPUPass::runOnOperation(): Before execute: end

[ict-debug] ConvertPolygeistToNPU:convertScfParallelToScfFor(): replace gpu.block_dim op with thread loop bound

[ict-debug] ConvertPolygeistToNPUPass::runOnOperation(): After vectorize:

module attributes {dlti.dl_spec = #dlti.dl_spec<#dlti.dl_entry<f80, dense<128> : vector<2xi32>>, #dlti.dl_entry<i1, dense<8> : vector<2xi32>>, #dlti.dl_entry<!llvm.ptr, dense<64> : vector<4xi32>>, #dlti.dl_entry<i16, dense<16> : vector<2xi32>>, #dlti.dl_entry<i8, dense<8> : vector<2xi32>>, #dlti.dl_entry<f16, dense<16> : vector<2xi32>>, #dlti.dl_entry<f64, dense<64> : vector<2xi32>>, #dlti.dl_entry<f128, dense<128> : vector<2xi32>>, #dlti.dl_entry<i32, dense<32> : vector<2xi32>>, #dlti.dl_entry<!llvm.ptr<271>, dense<32> : vector<4xi32>>, #dlti.dl_entry<!llvm.ptr<270>, dense<32> : vector<4xi32>>, #dlti.dl_entry<i64, dense<64> : vector<2xi32>>, #dlti.dl_entry<!llvm.ptr<272>, dense<64> : vector<4xi32>>, #dlti.dl_entry<"dlti.stack_alignment", 128 : i32>, #dlti.dl_entry<"dlti.endianness", "little">>, llvm.data_layout = "e-m:e-p270:32:32-p271:32:32-p272:64:64-i64:64-f80:128-n8:16:32:64-S128", llvm.target_triple = "x86_64-unknown-linux-gnu", polygeist.gpu_module.llvm.data_layout = "e-i64:64-i128:128-v16:16-v32:32-n16:32:64", polygeist.gpu_module.llvm.target_triple = "nvptx64-nvidia-cuda", "polygeist.target-cpu" = "x86-64", "polygeist.target-features" = "+cmov,+cx8,+fxsr,+mmx,+sse,+sse2,+x87", "polygeist.tune-cpu" = "generic"} {
  gpu.module @_Z26triplet_margin_loss_kernelPKfS0_S0_fPfi_0 {
    gpu.func @_Z26triplet_margin_loss_kernelPKfS0_S0_fPfi(%arg0: memref<?xf32>, %arg1: memref<?xf32>, %arg2: memref<?xf32>, %arg3: f32, %arg4: memref<?xf32>, %arg5: i32) {
      %cst = arith.constant 0.000000e+00 : f32
      %c4096 = arith.constant 4096 : index
      %c0 = arith.constant 0 : index
      %c1 = arith.constant 1 : index
      %c32 = arith.constant 32 : index
      %0 = gpu.block_id  x
      %1 = arith.index_cast %0 : index to i32
      %c32_0 = arith.constant 32 : index
      %2 = arith.index_cast %c32_0 : index to i32
      %3 = arith.muli %1, %2 : i32
      %c1_1 = arith.constant 1 : index
      scf.for %arg6 = %c0 to %c32 step %c1_1 {
        %4 = arith.index_cast %arg6 : index to i32
        %5 = arith.addi %3, %4 : i32
        %6 = arith.index_cast %5 : i32 to index
        %7 = arith.cmpi slt, %5, %arg5 : i32
        scf.if %7 {
          %8 = arith.muli %6, %c4096 : index
          %9:2 = scf.for %arg7 = %c0 to %c4096 step %c1 iter_args(%arg8 = %cst, %arg9 = %cst) -> (f32, f32) {
            %15 = arith.addi %arg7, %8 : index
            %16 = memref.load %arg0[%15] : memref<?xf32>
            %17 = memref.load %arg1[%15] : memref<?xf32>
            %18 = arith.subf %16, %17 : f32
            %19 = arith.mulf %18, %18 : f32
            %20 = arith.addf %arg9, %19 : f32
            %21 = memref.load %arg2[%15] : memref<?xf32>
            %22 = arith.subf %16, %21 : f32
            %23 = arith.mulf %22, %22 : f32
            %24 = arith.addf %arg8, %23 : f32
            scf.yield %24, %20 : f32, f32
          }
          %10 = math.sqrt %9#1 : f32
          %11 = math.sqrt %9#0 : f32
          %12 = arith.addf %arg3, %10 : f32
          %13 = arith.subf %12, %11 : f32
          %14 = arith.maxnumf %13, %cst : f32
          memref.store %14, %arg4[%6] : memref<?xf32>
        }
      }
      gpu.return
    }
  }
}
[ict-debug] ConvertPolygeistToNPUPass::runOnOperation(): After vectorize: end

[ict-debug] GPUBlockIdToNPULowering: process op: 

%0 = gpu.block_id  x
[ict-debug] CastLikeOpToNPULowering: process op: 

%2 = arith.index_cast %1 : index to i32
[ict-debug] CastLikeOpToNPULowering: process op: 

%7 = arith.index_cast %arg6 : index to i32
[ict-debug] CastLikeOpToNPULowering: process op: 

%10 = arith.index_cast %9 : i32 to index
[ict-debug] ArithUnaryOpToNPULowering: process op: 

%15 = math.sqrt %14#1 : f32
[ict-debug] ArithUnaryOpToNPULowering: met scalar unary op, need vector help process.

[ict-debug] ArithUnaryOpToNPULowering: process op: 

%17 = math.sqrt %14#0 : f32
[ict-debug] ArithUnaryOpToNPULowering: met scalar unary op, need vector help process.

[ict-debug] ConvertPolygeistToNPUPass::runOnOperation(): After convert to NPU:

module attributes {dlti.dl_spec = #dlti.dl_spec<#dlti.dl_entry<f80, dense<128> : vector<2xi32>>, #dlti.dl_entry<i1, dense<8> : vector<2xi32>>, #dlti.dl_entry<!llvm.ptr, dense<64> : vector<4xi32>>, #dlti.dl_entry<i16, dense<16> : vector<2xi32>>, #dlti.dl_entry<i8, dense<8> : vector<2xi32>>, #dlti.dl_entry<f16, dense<16> : vector<2xi32>>, #dlti.dl_entry<f64, dense<64> : vector<2xi32>>, #dlti.dl_entry<f128, dense<128> : vector<2xi32>>, #dlti.dl_entry<i32, dense<32> : vector<2xi32>>, #dlti.dl_entry<!llvm.ptr<271>, dense<32> : vector<4xi32>>, #dlti.dl_entry<!llvm.ptr<270>, dense<32> : vector<4xi32>>, #dlti.dl_entry<i64, dense<64> : vector<2xi32>>, #dlti.dl_entry<!llvm.ptr<272>, dense<64> : vector<4xi32>>, #dlti.dl_entry<"dlti.stack_alignment", 128 : i32>, #dlti.dl_entry<"dlti.endianness", "little">>, llvm.data_layout = "e-m:e-p270:32:32-p271:32:32-p272:64:64-i64:64-f80:128-n8:16:32:64-S128", llvm.target_triple = "x86_64-unknown-linux-gnu", polygeist.gpu_module.llvm.data_layout = "e-i64:64-i128:128-v16:16-v32:32-n16:32:64", polygeist.gpu_module.llvm.target_triple = "nvptx64-nvidia-cuda", "polygeist.target-cpu" = "x86-64", "polygeist.target-features" = "+cmov,+cx8,+fxsr,+mmx,+sse,+sse2,+x87", "polygeist.tune-cpu" = "generic"} {
  gpu.module @_Z26triplet_margin_loss_kernelPKfS0_S0_fPfi_0 {
    gpu.func @_Z26triplet_margin_loss_kernelPKfS0_S0_fPfi(%arg0: memref<?xf32>, %arg1: memref<?xf32>, %arg2: memref<?xf32>, %arg3: f32, %arg4: memref<?xf32>, %arg5: i32) {
      %cst = arith.constant 0.000000e+00 : f32
      %c4096 = arith.constant 4096 : index
      %c0 = arith.constant 0 : index
      %c1 = arith.constant 1 : index
      %c32 = arith.constant 32 : index
      %0 = "npu.block_id"() : () -> i64
      %1 = emitc.cast %0 : i64 to i32
      %c32_0 = arith.constant 32 : index
      %c32_i32 = arith.constant 32 : i32
      %2 = arith.muli %1, %c32_i32 : i32
      %c1_1 = arith.constant 1 : index
      scf.for %arg6 = %c0 to %c32 step %c1_1 {
        %3 = builtin.unrealized_conversion_cast %arg6 : index to i64
        %4 = emitc.cast %3 : i64 to i32
        %5 = arith.addi %2, %4 : i32
        %6 = emitc.cast %5 : i32 to index
        %7 = arith.cmpi slt, %5, %arg5 : i32
        scf.if %7 {
          %8 = arith.muli %6, %c4096 : index
          %9:2 = scf.for %arg7 = %c0 to %c4096 step %c1 iter_args(%arg8 = %cst, %arg9 = %cst) -> (f32, f32) {
            %15 = arith.addi %arg7, %8 : index
            %16 = memref.load %arg0[%15] : memref<?xf32>
            %17 = memref.load %arg1[%15] : memref<?xf32>
            %18 = emitc.sub %16, %17 : (f32, f32) -> f32
            %19 = emitc.mul %18, %18 : (f32, f32) -> f32
            %20 = emitc.add %arg9, %19 : (f32, f32) -> f32
            %21 = memref.load %arg2[%15] : memref<?xf32>
            %22 = emitc.sub %16, %21 : (f32, f32) -> f32
            %23 = emitc.mul %22, %22 : (f32, f32) -> f32
            %24 = emitc.add %arg8, %23 : (f32, f32) -> f32
            scf.yield %24, %20 : f32, f32
          }
          %10 = emitc.call "sqrtf"(%9#1) : (f32) -> f32
          %11 = emitc.call "sqrtf"(%9#0) : (f32) -> f32
          %12 = emitc.add %arg3, %10 : (f32, f32) -> f32
          %13 = emitc.sub %12, %11 : (f32, f32) -> f32
          %14 = arith.maxnumf %13, %cst : f32
          memref.store %14, %arg4[%6] : memref<?xf32>
        }
      }
      gpu.return
    }
  }
}
[ict-debug] ConvertPolygeistToNPUPass::runOnOperation(): After convert to NPU: end

[ict-debug] driver.cc: Before convert to EmitC dialect:

module attributes {dlti.dl_spec = #dlti.dl_spec<#dlti.dl_entry<f80, dense<128> : vector<2xi32>>, #dlti.dl_entry<i1, dense<8> : vector<2xi32>>, #dlti.dl_entry<!llvm.ptr, dense<64> : vector<4xi32>>, #dlti.dl_entry<i16, dense<16> : vector<2xi32>>, #dlti.dl_entry<i8, dense<8> : vector<2xi32>>, #dlti.dl_entry<f16, dense<16> : vector<2xi32>>, #dlti.dl_entry<f64, dense<64> : vector<2xi32>>, #dlti.dl_entry<f128, dense<128> : vector<2xi32>>, #dlti.dl_entry<i32, dense<32> : vector<2xi32>>, #dlti.dl_entry<!llvm.ptr<271>, dense<32> : vector<4xi32>>, #dlti.dl_entry<!llvm.ptr<270>, dense<32> : vector<4xi32>>, #dlti.dl_entry<i64, dense<64> : vector<2xi32>>, #dlti.dl_entry<!llvm.ptr<272>, dense<64> : vector<4xi32>>, #dlti.dl_entry<"dlti.stack_alignment", 128 : i32>, #dlti.dl_entry<"dlti.endianness", "little">>, llvm.data_layout = "e-m:e-p270:32:32-p271:32:32-p272:64:64-i64:64-f80:128-n8:16:32:64-S128", llvm.target_triple = "x86_64-unknown-linux-gnu", polygeist.gpu_module.llvm.data_layout = "e-i64:64-i128:128-v16:16-v32:32-n16:32:64", polygeist.gpu_module.llvm.target_triple = "nvptx64-nvidia-cuda", "polygeist.target-cpu" = "x86-64", "polygeist.target-features" = "+cmov,+cx8,+fxsr,+mmx,+sse,+sse2,+x87", "polygeist.tune-cpu" = "generic"} {
  gpu.module @_Z26triplet_margin_loss_kernelPKfS0_S0_fPfi_0 {
    gpu.func @_Z26triplet_margin_loss_kernelPKfS0_S0_fPfi(%arg0: memref<?xf32>, %arg1: memref<?xf32>, %arg2: memref<?xf32>, %arg3: f32, %arg4: memref<?xf32>, %arg5: i32) {
      %c32_i32 = arith.constant 32 : i32
      %cst = arith.constant 0.000000e+00 : f32
      %c4096 = arith.constant 4096 : index
      %c0 = arith.constant 0 : index
      %c1 = arith.constant 1 : index
      %c32 = arith.constant 32 : index
      %0 = "npu.block_id"() : () -> i64
      %1 = emitc.cast %0 : i64 to i32
      %2 = arith.muli %1, %c32_i32 : i32
      scf.for %arg6 = %c0 to %c32 step %c1 {
        %3 = builtin.unrealized_conversion_cast %arg6 : index to i64
        %4 = emitc.cast %3 : i64 to i32
        %5 = arith.addi %2, %4 : i32
        %6 = emitc.cast %5 : i32 to index
        %7 = arith.cmpi slt, %5, %arg5 : i32
        scf.if %7 {
          %8 = arith.muli %6, %c4096 : index
          %9:2 = scf.for %arg7 = %c0 to %c4096 step %c1 iter_args(%arg8 = %cst, %arg9 = %cst) -> (f32, f32) {
            %15 = arith.addi %arg7, %8 : index
            %16 = memref.load %arg0[%15] : memref<?xf32>
            %17 = memref.load %arg1[%15] : memref<?xf32>
            %18 = emitc.sub %16, %17 : (f32, f32) -> f32
            %19 = emitc.mul %18, %18 : (f32, f32) -> f32
            %20 = emitc.add %arg9, %19 : (f32, f32) -> f32
            %21 = memref.load %arg2[%15] : memref<?xf32>
            %22 = emitc.sub %16, %21 : (f32, f32) -> f32
            %23 = emitc.mul %22, %22 : (f32, f32) -> f32
            %24 = emitc.add %arg8, %23 : (f32, f32) -> f32
            scf.yield %24, %20 : f32, f32
          }
          %10 = emitc.call "sqrtf"(%9#1) : (f32) -> f32
          %11 = emitc.call "sqrtf"(%9#0) : (f32) -> f32
          %12 = emitc.add %arg3, %10 : (f32, f32) -> f32
          %13 = emitc.sub %12, %11 : (f32, f32) -> f32
          %14 = arith.maxnumf %13, %cst : f32
          memref.store %14, %arg4[%6] : memref<?xf32>
        }
      }
      gpu.return
    }
  }
}
[ict-debug] driver.cc: Before convert to EmitC dialect: end

[ict-debug] driver.cc: After convert to EmitC dialect:

module attributes {dlti.dl_spec = #dlti.dl_spec<#dlti.dl_entry<f80, dense<128> : vector<2xi32>>, #dlti.dl_entry<i1, dense<8> : vector<2xi32>>, #dlti.dl_entry<!llvm.ptr, dense<64> : vector<4xi32>>, #dlti.dl_entry<i16, dense<16> : vector<2xi32>>, #dlti.dl_entry<i8, dense<8> : vector<2xi32>>, #dlti.dl_entry<f16, dense<16> : vector<2xi32>>, #dlti.dl_entry<f64, dense<64> : vector<2xi32>>, #dlti.dl_entry<f128, dense<128> : vector<2xi32>>, #dlti.dl_entry<i32, dense<32> : vector<2xi32>>, #dlti.dl_entry<!llvm.ptr<271>, dense<32> : vector<4xi32>>, #dlti.dl_entry<!llvm.ptr<270>, dense<32> : vector<4xi32>>, #dlti.dl_entry<i64, dense<64> : vector<2xi32>>, #dlti.dl_entry<!llvm.ptr<272>, dense<64> : vector<4xi32>>, #dlti.dl_entry<"dlti.stack_alignment", 128 : i32>, #dlti.dl_entry<"dlti.endianness", "little">>, llvm.data_layout = "e-m:e-p270:32:32-p271:32:32-p272:64:64-i64:64-f80:128-n8:16:32:64-S128", llvm.target_triple = "x86_64-unknown-linux-gnu", polygeist.gpu_module.llvm.data_layout = "e-i64:64-i128:128-v16:16-v32:32-n16:32:64", polygeist.gpu_module.llvm.target_triple = "nvptx64-nvidia-cuda", "polygeist.target-cpu" = "x86-64", "polygeist.target-features" = "+cmov,+cx8,+fxsr,+mmx,+sse,+sse2,+x87", "polygeist.tune-cpu" = "generic"} {
  gpu.module @_Z26triplet_margin_loss_kernelPKfS0_S0_fPfi_0 {
    gpu.func @_Z26triplet_margin_loss_kernelPKfS0_S0_fPfi(%arg0: memref<?xf32>, %arg1: memref<?xf32>, %arg2: memref<?xf32>, %arg3: f32, %arg4: memref<?xf32>, %arg5: i32) {
      %c32_i32 = arith.constant 32 : i32
      %cst = arith.constant 0.000000e+00 : f32
      %c4096 = arith.constant 4096 : index
      %c0 = arith.constant 0 : index
      %c1 = arith.constant 1 : index
      %c32 = arith.constant 32 : index
      %0 = "npu.block_id"() : () -> i64
      %1 = emitc.cast %0 : i64 to i32
      %2 = arith.muli %1, %c32_i32 : i32
      scf.for %arg6 = %c0 to %c32 step %c1 {
        %3 = builtin.unrealized_conversion_cast %arg6 : index to i64
        %4 = emitc.cast %3 : i64 to i32
        %5 = arith.addi %2, %4 : i32
        %6 = emitc.cast %5 : i32 to index
        %7 = arith.cmpi slt, %5, %arg5 : i32
        emitc.if %7 {
          %8 = arith.muli %6, %c4096 : index
          %9:2 = scf.for %arg7 = %c0 to %c4096 step %c1 iter_args(%arg8 = %cst, %arg9 = %cst) -> (f32, f32) {
            %15 = arith.addi %arg7, %8 : index
            %16 = memref.load %arg0[%15] : memref<?xf32>
            %17 = memref.load %arg1[%15] : memref<?xf32>
            %18 = emitc.sub %16, %17 : (f32, f32) -> f32
            %19 = emitc.mul %18, %18 : (f32, f32) -> f32
            %20 = emitc.add %arg9, %19 : (f32, f32) -> f32
            %21 = memref.load %arg2[%15] : memref<?xf32>
            %22 = emitc.sub %16, %21 : (f32, f32) -> f32
            %23 = emitc.mul %22, %22 : (f32, f32) -> f32
            %24 = emitc.add %arg8, %23 : (f32, f32) -> f32
            scf.yield %24, %20 : f32, f32
          }
          %10 = emitc.call "sqrtf"(%9#1) : (f32) -> f32
          %11 = emitc.call "sqrtf"(%9#0) : (f32) -> f32
          %12 = emitc.add %arg3, %10 : (f32, f32) -> f32
          %13 = emitc.sub %12, %11 : (f32, f32) -> f32
          %14 = arith.maxnumf %13, %cst : f32
          memref.store %14, %arg4[%6] : memref<?xf32>
        }
      }
      gpu.return
    }
  }
}
[ict-debug] driver.cc: After convert to EmitC dialect: end

[ict-debug] driver.cc: After emitc::translateToCpp:

