warning: CUDA version 12.1 is only partially supported
warning: CUDA version 12.1 is only partially supported
[ict-debug] driver.cc: After return 5, module:

module attributes {dlti.dl_spec = #dlti.dl_spec<#dlti.dl_entry<!llvm.ptr, dense<64> : vector<4xi32>>, #dlti.dl_entry<i1, dense<8> : vector<2xi32>>, #dlti.dl_entry<i8, dense<8> : vector<2xi32>>, #dlti.dl_entry<i16, dense<16> : vector<2xi32>>, #dlti.dl_entry<f80, dense<128> : vector<2xi32>>, #dlti.dl_entry<!llvm.ptr<270>, dense<32> : vector<4xi32>>, #dlti.dl_entry<i32, dense<32> : vector<2xi32>>, #dlti.dl_entry<i64, dense<64> : vector<2xi32>>, #dlti.dl_entry<f16, dense<16> : vector<2xi32>>, #dlti.dl_entry<!llvm.ptr<272>, dense<64> : vector<4xi32>>, #dlti.dl_entry<!llvm.ptr<271>, dense<32> : vector<4xi32>>, #dlti.dl_entry<f64, dense<64> : vector<2xi32>>, #dlti.dl_entry<f128, dense<128> : vector<2xi32>>, #dlti.dl_entry<"dlti.stack_alignment", 128 : i32>, #dlti.dl_entry<"dlti.endianness", "little">>, llvm.data_layout = "e-m:e-p270:32:32-p271:32:32-p272:64:64-i64:64-f80:128-n8:16:32:64-S128", llvm.target_triple = "x86_64-unknown-linux-gnu", polygeist.gpu_module.llvm.data_layout = "e-i64:64-i128:128-v16:16-v32:32-n16:32:64", polygeist.gpu_module.llvm.target_triple = "nvptx64-nvidia-cuda", "polygeist.target-cpu" = "x86-64", "polygeist.target-features" = "+cmov,+cx8,+fxsr,+mmx,+sse,+sse2,+x87", "polygeist.tune-cpu" = "generic"} {
  func.func private @_Z28__device_stub__matmul_kernelPKfS0_Pfiii(%arg0: memref<?xf32>, %arg1: memref<?xf32>, %arg2: memref<?xf32>, %arg3: i32, %arg4: i32, %arg5: i32) attributes {llvm.linkage = #llvm.linkage<external>, polygeist.device_only_func = "1"} {
    call @_Z13matmul_kernelPKfS0_Pfiii(%arg0, %arg1, %arg2, %arg3, %arg4, %arg5) : (memref<?xf32>, memref<?xf32>, memref<?xf32>, i32, i32, i32) -> ()
    return
  }
  func.func private @_Z13matmul_kernelPKfS0_Pfiii(%arg0: memref<?xf32>, %arg1: memref<?xf32>, %arg2: memref<?xf32>, %arg3: i32, %arg4: i32, %arg5: i32) attributes {llvm.linkage = #llvm.linkage<external>, polygeist.device_only_func = "1"} {
    %cst = arith.constant 0.000000e+00 : f32
    %c16_i32 = arith.constant 16 : i32
    %false = arith.constant false
    %0 = arith.index_cast %arg3 : i32 to index
    %1 = arith.index_cast %arg4 : i32 to index
    %alloca = memref.alloca() : memref<16x16xf32, 5>
    %alloca_0 = memref.alloca() : memref<16x16xf32, 5>
    %2 = gpu.block_id  y
    %3 = arith.index_cast %2 : index to i32
    %4 = gpu.block_id  x
    %5 = arith.index_cast %4 : index to i32
    %6 = gpu.thread_id  y
    %7 = arith.index_cast %6 : index to i32
    %8 = gpu.thread_id  x
    %9 = arith.index_cast %8 : index to i32
    %10 = arith.index_cast %arg5 : i32 to index
    %11 = arith.muli %3, %c16_i32 : i32
    %12 = arith.addi %11, %7 : i32
    %13 = arith.index_cast %12 : i32 to index
    %14 = arith.muli %12, %arg5 : i32
    %15 = arith.index_cast %14 : i32 to index
    %16 = arith.muli %5, %c16_i32 : i32
    %17 = arith.addi %16, %9 : i32
    %18 = arith.cmpi slt, %17, %arg4 : i32
    %19 = affine.for %arg6 = 0 to %10 step 16 iter_args(%arg7 = %cst) -> (f32) {
      %29 = arith.index_cast %arg6 : index to i32
      %30 = affine.if affine_set<()[s0, s1] : (-s0 + s1 - 1 >= 0)>()[%13, %0] -> i1 {
        %33 = arith.addi %29, %9 : i32
        %34 = arith.cmpi slt, %33, %arg5 : i32
        affine.yield %34 : i1
      } else {
        affine.yield %false : i1
      }
      scf.if %30 {
        %33 = affine.load %arg0[%arg6 + symbol(%15) + symbol(%8)] : memref<?xf32>
        affine.store %33, %alloca_0[symbol(%6), symbol(%8)] : memref<16x16xf32, 5>
      } else {
        affine.store %cst, %alloca_0[symbol(%6), symbol(%8)] : memref<16x16xf32, 5>
      }
      %31 = affine.if affine_set<(d0)[s0, s1] : (-d0 - s0 + s1 - 1 >= 0)>(%arg6)[%6, %10] -> i1 {
        affine.yield %18 : i1
      } else {
        affine.yield %false : i1
      }
      scf.if %31 {
        %33 = affine.load %arg1[(%arg6 + symbol(%6)) * symbol(%1) + symbol(%4) * 16 + symbol(%8)] : memref<?xf32>
        affine.store %33, %alloca[symbol(%6), symbol(%8)] : memref<16x16xf32, 5>
      } else {
        affine.store %cst, %alloca[symbol(%6), symbol(%8)] : memref<16x16xf32, 5>
      }
      nvvm.barrier0
      %32 = affine.for %arg8 = 0 to 16 iter_args(%arg9 = %arg7) -> (f32) {
        %33 = affine.load %alloca_0[symbol(%6), %arg8] : memref<16x16xf32, 5>
        %34 = affine.load %alloca[%arg8, symbol(%8)] : memref<16x16xf32, 5>
        %35 = arith.mulf %33, %34 : f32
        %36 = arith.addf %arg9, %35 : f32
        affine.yield %36 : f32
      }
      nvvm.barrier0
      affine.yield %32 : f32
    }
    %20 = arith.muli %3, %c16_i32 : i32
    %21 = arith.addi %20, %7 : i32
    %22 = arith.muli %21, %arg4 : i32
    %23 = arith.index_cast %22 : i32 to index
    %24 = arith.cmpi slt, %21, %arg3 : i32
    %25 = arith.muli %5, %c16_i32 : i32
    %26 = arith.addi %25, %9 : i32
    %27 = arith.cmpi slt, %26, %arg4 : i32
    %28 = arith.andi %24, %27 : i1
    scf.if %28 {
      affine.store %19, %arg2[symbol(%23) + symbol(%4) * 16 + symbol(%8)] : memref<?xf32>
    }
    return
  }
}
[ict-debug] driver.cc: After return 5, module: end

[ict-debug] driver.cc: After return 6, module:

module attributes {dlti.dl_spec = #dlti.dl_spec<#dlti.dl_entry<!llvm.ptr, dense<64> : vector<4xi32>>, #dlti.dl_entry<i1, dense<8> : vector<2xi32>>, #dlti.dl_entry<i8, dense<8> : vector<2xi32>>, #dlti.dl_entry<i16, dense<16> : vector<2xi32>>, #dlti.dl_entry<f80, dense<128> : vector<2xi32>>, #dlti.dl_entry<!llvm.ptr<270>, dense<32> : vector<4xi32>>, #dlti.dl_entry<i32, dense<32> : vector<2xi32>>, #dlti.dl_entry<i64, dense<64> : vector<2xi32>>, #dlti.dl_entry<f16, dense<16> : vector<2xi32>>, #dlti.dl_entry<!llvm.ptr<272>, dense<64> : vector<4xi32>>, #dlti.dl_entry<!llvm.ptr<271>, dense<32> : vector<4xi32>>, #dlti.dl_entry<f64, dense<64> : vector<2xi32>>, #dlti.dl_entry<f128, dense<128> : vector<2xi32>>, #dlti.dl_entry<"dlti.stack_alignment", 128 : i32>, #dlti.dl_entry<"dlti.endianness", "little">>, llvm.data_layout = "e-m:e-p270:32:32-p271:32:32-p272:64:64-i64:64-f80:128-n8:16:32:64-S128", llvm.target_triple = "x86_64-unknown-linux-gnu", polygeist.gpu_module.llvm.data_layout = "e-i64:64-i128:128-v16:16-v32:32-n16:32:64", polygeist.gpu_module.llvm.target_triple = "nvptx64-nvidia-cuda", "polygeist.target-cpu" = "x86-64", "polygeist.target-features" = "+cmov,+cx8,+fxsr,+mmx,+sse,+sse2,+x87", "polygeist.tune-cpu" = "generic"} {
  func.func private @_Z13matmul_kernelPKfS0_Pfiii(%arg0: memref<?xf32>, %arg1: memref<?xf32>, %arg2: memref<?xf32>, %arg3: i32, %arg4: i32, %arg5: i32) attributes {llvm.linkage = #llvm.linkage<external>, polygeist.device_only_func = "1"} {
    %cst = arith.constant 0.000000e+00 : f32
    %c16_i32 = arith.constant 16 : i32
    %false = arith.constant false
    %0 = arith.index_cast %arg3 : i32 to index
    %1 = arith.index_cast %arg4 : i32 to index
    %alloca = memref.alloca() : memref<16x16xf32, 5>
    %alloca_0 = memref.alloca() : memref<16x16xf32, 5>
    %2 = gpu.block_id  y
    %3 = arith.index_cast %2 : index to i32
    %4 = gpu.block_id  x
    %5 = arith.index_cast %4 : index to i32
    %6 = gpu.thread_id  y
    %7 = arith.index_cast %6 : index to i32
    %8 = gpu.thread_id  x
    %9 = arith.index_cast %8 : index to i32
    %10 = arith.index_cast %arg5 : i32 to index
    %11 = arith.muli %3, %c16_i32 : i32
    %12 = arith.addi %11, %7 : i32
    %13 = arith.index_cast %12 : i32 to index
    %14 = arith.muli %12, %arg5 : i32
    %15 = arith.index_cast %14 : i32 to index
    %16 = arith.muli %5, %c16_i32 : i32
    %17 = arith.addi %16, %9 : i32
    %18 = arith.index_cast %17 : i32 to index
    %19 = arith.cmpi slt, %17, %arg4 : i32
    %20 = affine.for %arg6 = 0 to %10 step 16 iter_args(%arg7 = %cst) -> (f32) {
      %25 = arith.index_cast %arg6 : index to i32
      %26 = affine.if affine_set<()[s0, s1] : (s0 - s1 - 1 >= 0)>()[%0, %13] -> i1 {
        %28 = arith.addi %25, %9 : i32
        %29 = arith.cmpi slt, %28, %arg5 : i32
        affine.yield %29 : i1
      } else {
        affine.yield %false : i1
      }
      scf.if %26 {
        %28 = affine.load %arg0[%arg6 + symbol(%15) + symbol(%8)] : memref<?xf32>
        affine.store %28, %alloca_0[symbol(%6), symbol(%8)] : memref<16x16xf32, 5>
      } else {
        affine.store %cst, %alloca_0[symbol(%6), symbol(%8)] : memref<16x16xf32, 5>
      }
      affine.if affine_set<(d0)[s0, s1, s2, s3] : (-d0 - s0 + s1 - 1 >= 0, -s2 + s3 - 1 >= 0)>(%arg6)[%6, %10, %18, %1] {
        %28 = affine.load %arg1[(%arg6 + symbol(%6)) * symbol(%1) + symbol(%4) * 16 + symbol(%8)] : memref<?xf32>
        affine.store %28, %alloca[symbol(%6), symbol(%8)] : memref<16x16xf32, 5>
      } else {
        affine.store %cst, %alloca[symbol(%6), symbol(%8)] : memref<16x16xf32, 5>
      }
      nvvm.barrier0
      %27 = affine.for %arg8 = 0 to 16 iter_args(%arg9 = %arg7) -> (f32) {
        %28 = affine.load %alloca_0[symbol(%6), %arg8] : memref<16x16xf32, 5>
        %29 = affine.load %alloca[%arg8, symbol(%8)] : memref<16x16xf32, 5>
        %30 = arith.mulf %28, %29 : f32
        %31 = arith.addf %arg9, %30 : f32
        affine.yield %31 : f32
      }
      nvvm.barrier0
      affine.yield %27 : f32
    }
    %21 = arith.muli %12, %arg4 : i32
    %22 = arith.index_cast %21 : i32 to index
    %23 = arith.cmpi slt, %12, %arg3 : i32
    %24 = arith.andi %23, %19 : i1
    scf.if %24 {
      affine.store %20, %arg2[symbol(%22) + symbol(%4) * 16 + symbol(%8)] : memref<?xf32>
    }
    return
  }
}
[ict-debug] driver.cc: After return 6, module: end

WrapAndReplaceBarrierPass::runOnOperation(): before execute: 
module attributes {dlti.dl_spec = #dlti.dl_spec<#dlti.dl_entry<!llvm.ptr, dense<64> : vector<4xi32>>, #dlti.dl_entry<i1, dense<8> : vector<2xi32>>, #dlti.dl_entry<i8, dense<8> : vector<2xi32>>, #dlti.dl_entry<i16, dense<16> : vector<2xi32>>, #dlti.dl_entry<f80, dense<128> : vector<2xi32>>, #dlti.dl_entry<!llvm.ptr<270>, dense<32> : vector<4xi32>>, #dlti.dl_entry<i32, dense<32> : vector<2xi32>>, #dlti.dl_entry<i64, dense<64> : vector<2xi32>>, #dlti.dl_entry<f16, dense<16> : vector<2xi32>>, #dlti.dl_entry<!llvm.ptr<272>, dense<64> : vector<4xi32>>, #dlti.dl_entry<!llvm.ptr<271>, dense<32> : vector<4xi32>>, #dlti.dl_entry<f64, dense<64> : vector<2xi32>>, #dlti.dl_entry<f128, dense<128> : vector<2xi32>>, #dlti.dl_entry<"dlti.stack_alignment", 128 : i32>, #dlti.dl_entry<"dlti.endianness", "little">>, llvm.data_layout = "e-m:e-p270:32:32-p271:32:32-p272:64:64-i64:64-f80:128-n8:16:32:64-S128", llvm.target_triple = "x86_64-unknown-linux-gnu", polygeist.gpu_module.llvm.data_layout = "e-i64:64-i128:128-v16:16-v32:32-n16:32:64", polygeist.gpu_module.llvm.target_triple = "nvptx64-nvidia-cuda", "polygeist.target-cpu" = "x86-64", "polygeist.target-features" = "+cmov,+cx8,+fxsr,+mmx,+sse,+sse2,+x87", "polygeist.tune-cpu" = "generic"} {
  func.func private @_Z13matmul_kernelPKfS0_Pfiii(%arg0: memref<?xf32>, %arg1: memref<?xf32>, %arg2: memref<?xf32>, %arg3: i32, %arg4: i32, %arg5: i32) attributes {llvm.linkage = #llvm.linkage<external>, polygeist.device_only_func = "1"} {
    %c1 = arith.constant 1 : index
    %c-1 = arith.constant -1 : index
    %c16 = arith.constant 16 : index
    %c0 = arith.constant 0 : index
    %cst = arith.constant 0.000000e+00 : f32
    %c16_i32 = arith.constant 16 : i32
    %false = arith.constant false
    %0 = arith.index_cast %arg3 : i32 to index
    %1 = arith.index_cast %arg4 : i32 to index
    %alloca = memref.alloca() : memref<16x16xf32, 5>
    %alloca_0 = memref.alloca() : memref<16x16xf32, 5>
    %2 = gpu.block_id  y
    %3 = arith.index_cast %2 : index to i32
    %4 = gpu.block_id  x
    %5 = arith.index_cast %4 : index to i32
    %6 = gpu.thread_id  y
    %7 = arith.index_cast %6 : index to i32
    %8 = gpu.thread_id  x
    %9 = arith.index_cast %8 : index to i32
    %10 = arith.index_cast %arg5 : i32 to index
    %11 = arith.muli %3, %c16_i32 : i32
    %12 = arith.addi %11, %7 : i32
    %13 = arith.index_cast %12 : i32 to index
    %14 = arith.muli %12, %arg5 : i32
    %15 = arith.index_cast %14 : i32 to index
    %16 = arith.muli %5, %c16_i32 : i32
    %17 = arith.addi %16, %9 : i32
    %18 = arith.index_cast %17 : i32 to index
    %19 = arith.cmpi slt, %17, %arg4 : i32
    %20 = scf.for %arg6 = %c0 to %10 step %c16 iter_args(%arg7 = %cst) -> (f32) {
      %25 = arith.index_cast %arg6 : index to i32
      %26 = arith.subi %0, %13 : index
      %27 = arith.addi %26, %c-1 : index
      %28 = arith.cmpi sge, %27, %c0 : index
      %29 = scf.if %28 -> (i1) {
        %40 = arith.addi %25, %9 : i32
        %41 = arith.cmpi slt, %40, %arg5 : i32
        scf.yield %41 : i1
      } else {
        scf.yield %false : i1
      }
      scf.if %29 {
        %40 = arith.addi %arg6, %15 : index
        %41 = arith.addi %40, %8 : index
        %42 = memref.load %arg0[%41] : memref<?xf32>
        memref.store %42, %alloca_0[%6, %8] : memref<16x16xf32, 5>
      } else {
        memref.store %cst, %alloca_0[%6, %8] : memref<16x16xf32, 5>
      }
      %30 = arith.muli %arg6, %c-1 : index
      %31 = arith.subi %30, %6 : index
      %32 = arith.addi %31, %10 : index
      %33 = arith.addi %32, %c-1 : index
      %34 = arith.cmpi sge, %33, %c0 : index
      %35 = arith.subi %1, %18 : index
      %36 = arith.addi %35, %c-1 : index
      %37 = arith.cmpi sge, %36, %c0 : index
      %38 = arith.andi %34, %37 : i1
      scf.if %38 {
        %40 = arith.addi %arg6, %6 : index
        %41 = arith.muli %40, %1 : index
        %42 = arith.muli %4, %c16 : index
        %43 = arith.addi %42, %8 : index
        %44 = arith.addi %41, %43 : index
        %45 = memref.load %arg1[%44] : memref<?xf32>
        memref.store %45, %alloca[%6, %8] : memref<16x16xf32, 5>
      } else {
        memref.store %cst, %alloca[%6, %8] : memref<16x16xf32, 5>
      }
      nvvm.barrier0
      %39 = scf.for %arg8 = %c0 to %c16 step %c1 iter_args(%arg9 = %arg7) -> (f32) {
        %40 = memref.load %alloca_0[%6, %arg8] : memref<16x16xf32, 5>
        %41 = memref.load %alloca[%arg8, %8] : memref<16x16xf32, 5>
        %42 = arith.mulf %40, %41 : f32
        %43 = arith.addf %arg9, %42 : f32
        scf.yield %43 : f32
      }
      nvvm.barrier0
      scf.yield %39 : f32
    }
    %21 = arith.muli %12, %arg4 : i32
    %22 = arith.index_cast %21 : i32 to index
    %23 = arith.cmpi slt, %12, %arg3 : i32
    %24 = arith.andi %23, %19 : i1
    scf.if %24 {
      %25 = arith.muli %4, %c16 : index
      %26 = arith.addi %22, %25 : index
      %27 = arith.addi %26, %8 : index
      memref.store %20, %arg2[%27] : memref<?xf32>
    }
    return
  }
}
WrapAndReplaceBarrierPass::runOnOperation(): before execute: end
WrapAndReplaceBarrierPass::runOnOperation(): after execute: 
module attributes {dlti.dl_spec = #dlti.dl_spec<#dlti.dl_entry<!llvm.ptr, dense<64> : vector<4xi32>>, #dlti.dl_entry<i1, dense<8> : vector<2xi32>>, #dlti.dl_entry<i8, dense<8> : vector<2xi32>>, #dlti.dl_entry<i16, dense<16> : vector<2xi32>>, #dlti.dl_entry<f80, dense<128> : vector<2xi32>>, #dlti.dl_entry<!llvm.ptr<270>, dense<32> : vector<4xi32>>, #dlti.dl_entry<i32, dense<32> : vector<2xi32>>, #dlti.dl_entry<i64, dense<64> : vector<2xi32>>, #dlti.dl_entry<f16, dense<16> : vector<2xi32>>, #dlti.dl_entry<!llvm.ptr<272>, dense<64> : vector<4xi32>>, #dlti.dl_entry<!llvm.ptr<271>, dense<32> : vector<4xi32>>, #dlti.dl_entry<f64, dense<64> : vector<2xi32>>, #dlti.dl_entry<f128, dense<128> : vector<2xi32>>, #dlti.dl_entry<"dlti.stack_alignment", 128 : i32>, #dlti.dl_entry<"dlti.endianness", "little">>, llvm.data_layout = "e-m:e-p270:32:32-p271:32:32-p272:64:64-i64:64-f80:128-n8:16:32:64-S128", llvm.target_triple = "x86_64-unknown-linux-gnu", polygeist.gpu_module.llvm.data_layout = "e-i64:64-i128:128-v16:16-v32:32-n16:32:64", polygeist.gpu_module.llvm.target_triple = "nvptx64-nvidia-cuda", "polygeist.target-cpu" = "x86-64", "polygeist.target-features" = "+cmov,+cx8,+fxsr,+mmx,+sse,+sse2,+x87", "polygeist.tune-cpu" = "generic"} {
  func.func @_Z13matmul_kernelPKfS0_Pfiii(%arg0: memref<?xf32>, %arg1: memref<?xf32>, %arg2: memref<?xf32>, %arg3: i32, %arg4: i32, %arg5: i32) attributes {llvm.linkage = #llvm.linkage<external>, polygeist.device_only_func = "1"} {
    %c0 = arith.constant 0 : index
    %c1 = arith.constant 1 : index
    %c32 = arith.constant 32 : index
    %alloca = memref.alloca() : memref<16x16xf32, 5>
    %alloca_0 = memref.alloca() : memref<16x16xf32, 5>
    scf.parallel (%arg6) = (%c0) to (%c32) step (%c1) {
      %c1_1 = arith.constant 1 : index
      %0 = arith.divui %arg6, %c1_1 : index
      %c1_2 = arith.constant 1 : index
      %1 = arith.remui %arg6, %c1_2 : index
      %c1_3 = arith.constant 1 : index
      %c-1 = arith.constant -1 : index
      %c16 = arith.constant 16 : index
      %c0_4 = arith.constant 0 : index
      %cst = arith.constant 0.000000e+00 : f32
      %c16_i32 = arith.constant 16 : i32
      %false = arith.constant false
      %2 = arith.index_cast %arg3 : i32 to index
      %3 = arith.index_cast %arg4 : i32 to index
      %4 = gpu.block_id  y
      %5 = arith.index_cast %4 : index to i32
      %6 = gpu.block_id  x
      %7 = arith.index_cast %6 : index to i32
      %8 = arith.index_cast %1 : index to i32
      %9 = arith.index_cast %0 : index to i32
      %10 = arith.index_cast %arg5 : i32 to index
      %11 = arith.muli %5, %c16_i32 : i32
      %12 = arith.addi %11, %8 : i32
      %13 = arith.index_cast %12 : i32 to index
      %14 = arith.muli %12, %arg5 : i32
      %15 = arith.index_cast %14 : i32 to index
      %16 = arith.muli %7, %c16_i32 : i32
      %17 = arith.addi %16, %9 : i32
      %18 = arith.index_cast %17 : i32 to index
      %19 = arith.cmpi slt, %17, %arg4 : i32
      %20 = scf.for %arg7 = %c0_4 to %10 step %c16 iter_args(%arg8 = %cst) -> (f32) {
        %25 = arith.index_cast %arg7 : index to i32
        %26 = arith.subi %2, %13 : index
        %27 = arith.addi %26, %c-1 : index
        %28 = arith.cmpi sge, %27, %c0_4 : index
        %29 = scf.if %28 -> (i1) {
          %40 = arith.addi %25, %9 : i32
          %41 = arith.cmpi slt, %40, %arg5 : i32
          scf.yield %41 : i1
        } else {
          scf.yield %false : i1
        }
        scf.if %29 {
          %40 = arith.addi %arg7, %15 : index
          %41 = arith.addi %40, %0 : index
          %42 = memref.load %arg0[%41] : memref<?xf32>
          memref.store %42, %alloca_0[%1, %0] : memref<16x16xf32, 5>
        } else {
          memref.store %cst, %alloca_0[%1, %0] : memref<16x16xf32, 5>
        }
        %30 = arith.muli %arg7, %c-1 : index
        %31 = arith.subi %30, %1 : index
        %32 = arith.addi %31, %10 : index
        %33 = arith.addi %32, %c-1 : index
        %34 = arith.cmpi sge, %33, %c0_4 : index
        %35 = arith.subi %3, %18 : index
        %36 = arith.addi %35, %c-1 : index
        %37 = arith.cmpi sge, %36, %c0_4 : index
        %38 = arith.andi %34, %37 : i1
        scf.if %38 {
          %40 = arith.addi %arg7, %1 : index
          %41 = arith.muli %40, %3 : index
          %42 = arith.muli %6, %c16 : index
          %43 = arith.addi %42, %0 : index
          %44 = arith.addi %41, %43 : index
          %45 = memref.load %arg1[%44] : memref<?xf32>
          memref.store %45, %alloca[%1, %0] : memref<16x16xf32, 5>
        } else {
          memref.store %cst, %alloca[%1, %0] : memref<16x16xf32, 5>
        }
        "polygeist.barrier"(%arg6) : (index) -> ()
        %39 = scf.for %arg9 = %c0_4 to %c16 step %c1_3 iter_args(%arg10 = %arg8) -> (f32) {
          %40 = memref.load %alloca_0[%1, %arg9] : memref<16x16xf32, 5>
          %41 = memref.load %alloca[%arg9, %0] : memref<16x16xf32, 5>
          %42 = arith.mulf %40, %41 : f32
          %43 = arith.addf %arg10, %42 : f32
          scf.yield %43 : f32
        }
        "polygeist.barrier"(%arg6) : (index) -> ()
        scf.yield %39 : f32
      }
      %21 = arith.muli %12, %arg4 : i32
      %22 = arith.index_cast %21 : i32 to index
      %23 = arith.cmpi slt, %12, %arg3 : i32
      %24 = arith.andi %23, %19 : i1
      scf.if %24 {
        %25 = arith.muli %6, %c16 : index
        %26 = arith.addi %22, %25 : index
        %27 = arith.addi %26, %0 : index
        memref.store %20, %arg2[%27] : memref<?xf32>
      }
      scf.yield
    }
    return
  }
}
WrapAndReplaceBarrierPass::runOnOperation(): after execute: end
[ict-debug] driver.cc: After return 7, module:

module attributes {dlti.dl_spec = #dlti.dl_spec<#dlti.dl_entry<!llvm.ptr, dense<64> : vector<4xi32>>, #dlti.dl_entry<i1, dense<8> : vector<2xi32>>, #dlti.dl_entry<i8, dense<8> : vector<2xi32>>, #dlti.dl_entry<i16, dense<16> : vector<2xi32>>, #dlti.dl_entry<f80, dense<128> : vector<2xi32>>, #dlti.dl_entry<!llvm.ptr<270>, dense<32> : vector<4xi32>>, #dlti.dl_entry<i32, dense<32> : vector<2xi32>>, #dlti.dl_entry<i64, dense<64> : vector<2xi32>>, #dlti.dl_entry<f16, dense<16> : vector<2xi32>>, #dlti.dl_entry<!llvm.ptr<272>, dense<64> : vector<4xi32>>, #dlti.dl_entry<!llvm.ptr<271>, dense<32> : vector<4xi32>>, #dlti.dl_entry<f64, dense<64> : vector<2xi32>>, #dlti.dl_entry<f128, dense<128> : vector<2xi32>>, #dlti.dl_entry<"dlti.stack_alignment", 128 : i32>, #dlti.dl_entry<"dlti.endianness", "little">>, llvm.data_layout = "e-m:e-p270:32:32-p271:32:32-p272:64:64-i64:64-f80:128-n8:16:32:64-S128", llvm.target_triple = "x86_64-unknown-linux-gnu", polygeist.gpu_module.llvm.data_layout = "e-i64:64-i128:128-v16:16-v32:32-n16:32:64", polygeist.gpu_module.llvm.target_triple = "nvptx64-nvidia-cuda", "polygeist.target-cpu" = "x86-64", "polygeist.target-features" = "+cmov,+cx8,+fxsr,+mmx,+sse,+sse2,+x87", "polygeist.tune-cpu" = "generic"} {
  func.func @_Z13matmul_kernelPKfS0_Pfiii(%arg0: memref<?xf32>, %arg1: memref<?xf32>, %arg2: memref<?xf32>, %arg3: i32, %arg4: i32, %arg5: i32) attributes {llvm.linkage = #llvm.linkage<external>, polygeist.device_only_func = "1"} {
    %c0 = arith.constant 0 : index
    %c1 = arith.constant 1 : index
    %c32 = arith.constant 32 : index
    %alloca = memref.alloca() : memref<16x16xf32, 5>
    %alloca_0 = memref.alloca() : memref<16x16xf32, 5>
    scf.parallel (%arg6) = (%c0) to (%c32) step (%c1) {
      %c1_1 = arith.constant 1 : index
      %0 = arith.divui %arg6, %c1_1 : index
      %c1_2 = arith.constant 1 : index
      %1 = arith.remui %arg6, %c1_2 : index
      %c1_3 = arith.constant 1 : index
      %c-1 = arith.constant -1 : index
      %c16 = arith.constant 16 : index
      %c0_4 = arith.constant 0 : index
      %cst = arith.constant 0.000000e+00 : f32
      %c16_i32 = arith.constant 16 : i32
      %false = arith.constant false
      %2 = arith.index_cast %arg3 : i32 to index
      %3 = arith.index_cast %arg4 : i32 to index
      %4 = gpu.block_id  y
      %5 = arith.index_cast %4 : index to i32
      %6 = gpu.block_id  x
      %7 = arith.index_cast %6 : index to i32
      %8 = arith.index_cast %1 : index to i32
      %9 = arith.index_cast %0 : index to i32
      %10 = arith.index_cast %arg5 : i32 to index
      %11 = arith.muli %5, %c16_i32 : i32
      %12 = arith.addi %11, %8 : i32
      %13 = arith.index_cast %12 : i32 to index
      %14 = arith.muli %12, %arg5 : i32
      %15 = arith.index_cast %14 : i32 to index
      %16 = arith.muli %7, %c16_i32 : i32
      %17 = arith.addi %16, %9 : i32
      %18 = arith.index_cast %17 : i32 to index
      %19 = arith.cmpi slt, %17, %arg4 : i32
      %20 = scf.for %arg7 = %c0_4 to %10 step %c16 iter_args(%arg8 = %cst) -> (f32) {
        %25 = arith.index_cast %arg7 : index to i32
        %26 = arith.subi %2, %13 : index
        %27 = arith.addi %26, %c-1 : index
        %28 = arith.cmpi sge, %27, %c0_4 : index
        %29 = scf.if %28 -> (i1) {
          %40 = arith.addi %25, %9 : i32
          %41 = arith.cmpi slt, %40, %arg5 : i32
          scf.yield %41 : i1
        } else {
          scf.yield %false : i1
        }
        scf.if %29 {
          %40 = arith.addi %arg7, %15 : index
          %41 = arith.addi %40, %0 : index
          %42 = memref.load %arg0[%41] : memref<?xf32>
          memref.store %42, %alloca_0[%1, %0] : memref<16x16xf32, 5>
        } else {
          memref.store %cst, %alloca_0[%1, %0] : memref<16x16xf32, 5>
        }
        %30 = arith.muli %arg7, %c-1 : index
        %31 = arith.subi %30, %1 : index
        %32 = arith.addi %31, %10 : index
        %33 = arith.addi %32, %c-1 : index
        %34 = arith.cmpi sge, %33, %c0_4 : index
        %35 = arith.subi %3, %18 : index
        %36 = arith.addi %35, %c-1 : index
        %37 = arith.cmpi sge, %36, %c0_4 : index
        %38 = arith.andi %34, %37 : i1
        scf.if %38 {
          %40 = arith.addi %arg7, %1 : index
          %41 = arith.muli %40, %3 : index
          %42 = arith.muli %6, %c16 : index
          %43 = arith.addi %42, %0 : index
          %44 = arith.addi %41, %43 : index
          %45 = memref.load %arg1[%44] : memref<?xf32>
          memref.store %45, %alloca[%1, %0] : memref<16x16xf32, 5>
        } else {
          memref.store %cst, %alloca[%1, %0] : memref<16x16xf32, 5>
        }
        "polygeist.barrier"(%arg6) : (index) -> ()
        %39 = scf.for %arg9 = %c0_4 to %c16 step %c1_3 iter_args(%arg10 = %arg8) -> (f32) {
          %40 = memref.load %alloca_0[%1, %arg9] : memref<16x16xf32, 5>
          %41 = memref.load %alloca[%arg9, %0] : memref<16x16xf32, 5>
          %42 = arith.mulf %40, %41 : f32
          %43 = arith.addf %arg10, %42 : f32
          scf.yield %43 : f32
        }
        "polygeist.barrier"(%arg6) : (index) -> ()
        scf.yield %39 : f32
      }
      %21 = arith.muli %12, %arg4 : i32
      %22 = arith.index_cast %21 : i32 to index
      %23 = arith.cmpi slt, %12, %arg3 : i32
      %24 = arith.andi %23, %19 : i1
      scf.if %24 {
        %25 = arith.muli %6, %c16 : index
        %26 = arith.addi %22, %25 : index
        %27 = arith.addi %26, %0 : index
        memref.store %20, %arg2[%27] : memref<?xf32>
      }
      scf.yield
    }
    return
  }
}
[ict-debug] driver.cc: After return 7, module: end

[ict-debug] driver.cc: Before my pass process:

module attributes {dlti.dl_spec = #dlti.dl_spec<#dlti.dl_entry<!llvm.ptr, dense<64> : vector<4xi32>>, #dlti.dl_entry<i1, dense<8> : vector<2xi32>>, #dlti.dl_entry<i8, dense<8> : vector<2xi32>>, #dlti.dl_entry<i16, dense<16> : vector<2xi32>>, #dlti.dl_entry<f80, dense<128> : vector<2xi32>>, #dlti.dl_entry<!llvm.ptr<270>, dense<32> : vector<4xi32>>, #dlti.dl_entry<i32, dense<32> : vector<2xi32>>, #dlti.dl_entry<i64, dense<64> : vector<2xi32>>, #dlti.dl_entry<f16, dense<16> : vector<2xi32>>, #dlti.dl_entry<!llvm.ptr<272>, dense<64> : vector<4xi32>>, #dlti.dl_entry<!llvm.ptr<271>, dense<32> : vector<4xi32>>, #dlti.dl_entry<f64, dense<64> : vector<2xi32>>, #dlti.dl_entry<f128, dense<128> : vector<2xi32>>, #dlti.dl_entry<"dlti.stack_alignment", 128 : i32>, #dlti.dl_entry<"dlti.endianness", "little">>, llvm.data_layout = "e-m:e-p270:32:32-p271:32:32-p272:64:64-i64:64-f80:128-n8:16:32:64-S128", llvm.target_triple = "x86_64-unknown-linux-gnu", polygeist.gpu_module.llvm.data_layout = "e-i64:64-i128:128-v16:16-v32:32-n16:32:64", polygeist.gpu_module.llvm.target_triple = "nvptx64-nvidia-cuda", "polygeist.target-cpu" = "x86-64", "polygeist.target-features" = "+cmov,+cx8,+fxsr,+mmx,+sse,+sse2,+x87", "polygeist.tune-cpu" = "generic"} {
  func.func @_Z13matmul_kernelPKfS0_Pfiii(%arg0: memref<?xf32>, %arg1: memref<?xf32>, %arg2: memref<?xf32>, %arg3: i32, %arg4: i32, %arg5: i32) attributes {llvm.linkage = #llvm.linkage<external>, polygeist.device_only_func = "1"} {
    %false = arith.constant false
    %c16_i32 = arith.constant 16 : i32
    %cst = arith.constant 0.000000e+00 : f32
    %c16 = arith.constant 16 : index
    %c-1 = arith.constant -1 : index
    %c0 = arith.constant 0 : index
    %c1 = arith.constant 1 : index
    %c32 = arith.constant 32 : index
    %alloca = memref.alloca() : memref<16x16xf32, 5>
    %alloca_0 = memref.alloca() : memref<16x16xf32, 5>
    %alloca_1 = memref.alloca() : memref<32xf32>
    scf.parallel (%arg6) = (%c0) to (%c32) step (%c1) {
      memref.store %cst, %alloca_1[%arg6] : memref<32xf32>
      scf.yield
    }
    %0 = arith.index_cast %arg5 : i32 to index
    %1 = gpu.block_id  x
    %2 = arith.index_cast %1 : index to i32
    %3 = arith.muli %2, %c16_i32 : i32
    %4 = gpu.block_id  y
    %5 = arith.index_cast %4 : index to i32
    %6 = arith.muli %5, %c16_i32 : i32
    %7 = arith.muli %6, %arg5 : i32
    %8 = arith.index_cast %7 : i32 to index
    %9 = arith.index_cast %6 : i32 to index
    %10 = arith.index_cast %arg4 : i32 to index
    %11 = arith.index_cast %arg3 : i32 to index
    %12 = arith.subi %11, %9 : index
    %13 = arith.addi %12, %c-1 : index
    %14 = arith.cmpi sge, %13, %c0 : index
    %15 = arith.muli %1, %c16 : index
    scf.for %arg6 = %c0 to %0 step %c16 {
      %27 = arith.index_cast %arg6 : index to i32
      %28 = arith.subi %0, %arg6 : index
      %29 = arith.addi %28, %c-1 : index
      %30 = arith.cmpi sge, %29, %c0 : index
      %31 = arith.addi %arg6, %8 : index
      %32 = arith.muli %arg6, %10 : index
      scf.parallel (%arg7) = (%c0) to (%c32) step (%c1) {
        %33 = arith.index_cast %arg7 : index to i32
        %34 = arith.addi %3, %33 : i32
        %35 = arith.index_cast %34 : i32 to index
        %36 = scf.if %14 -> (i1) {
          %41 = arith.addi %27, %33 : i32
          %42 = arith.cmpi slt, %41, %arg5 : i32
          scf.yield %42 : i1
        } else {
          scf.yield %false : i1
        }
        scf.if %36 {
          %41 = arith.addi %31, %arg7 : index
          %42 = memref.load %arg0[%41] : memref<?xf32>
          memref.store %42, %alloca_0[%c0, %arg7] : memref<16x16xf32, 5>
        } else {
          memref.store %cst, %alloca_0[%c0, %arg7] : memref<16x16xf32, 5>
        }
        %37 = arith.subi %10, %35 : index
        %38 = arith.addi %37, %c-1 : index
        %39 = arith.cmpi sge, %38, %c0 : index
        %40 = arith.andi %30, %39 : i1
        scf.if %40 {
          %41 = arith.addi %15, %arg7 : index
          %42 = arith.addi %32, %41 : index
          %43 = memref.load %arg1[%42] : memref<?xf32>
          memref.store %43, %alloca[%c0, %arg7] : memref<16x16xf32, 5>
        } else {
          memref.store %cst, %alloca[%c0, %arg7] : memref<16x16xf32, 5>
        }
        scf.yield
      }
      scf.parallel (%arg7) = (%c0) to (%c32) step (%c1) {
        %33 = memref.load %alloca_1[%arg7] : memref<32xf32>
        %34 = scf.for %arg8 = %c0 to %c16 step %c1 iter_args(%arg9 = %33) -> (f32) {
          %35 = memref.load %alloca_0[%c0, %arg8] : memref<16x16xf32, 5>
          %36 = memref.load %alloca[%arg8, %arg7] : memref<16x16xf32, 5>
          %37 = arith.mulf %35, %36 : f32
          %38 = arith.addf %arg9, %37 : f32
          scf.yield %38 : f32
        }
        memref.store %34, %alloca_1[%arg7] : memref<32xf32>
        scf.yield
      }
    }
    %16 = gpu.block_id  y
    %17 = arith.index_cast %16 : index to i32
    %18 = arith.muli %17, %c16_i32 : i32
    %19 = gpu.block_id  x
    %20 = arith.index_cast %19 : index to i32
    %21 = arith.muli %20, %c16_i32 : i32
    %22 = arith.muli %18, %arg4 : i32
    %23 = arith.index_cast %22 : i32 to index
    %24 = arith.cmpi slt, %18, %arg3 : i32
    %25 = arith.muli %19, %c16 : index
    %26 = arith.addi %23, %25 : index
    scf.parallel (%arg6) = (%c0) to (%c32) step (%c1) {
      %27 = arith.index_cast %arg6 : index to i32
      %28 = arith.addi %21, %27 : i32
      %29 = arith.cmpi slt, %28, %arg4 : i32
      %30 = memref.load %alloca_1[%arg6] : memref<32xf32>
      %31 = arith.andi %24, %29 : i1
      scf.if %31 {
        %32 = arith.addi %26, %arg6 : index
        memref.store %30, %arg2[%32] : memref<?xf32>
      }
      scf.yield
    }
    return
  }
}
[ict-debug] driver.cc: Before my pass process: end

[ict-debug] driver.cc: vectorizeSize = 1

[ict-debug] ConvertPolygeistToNPUPass::runOnOperation(): Before execute:

module attributes {dlti.dl_spec = #dlti.dl_spec<#dlti.dl_entry<!llvm.ptr, dense<64> : vector<4xi32>>, #dlti.dl_entry<i1, dense<8> : vector<2xi32>>, #dlti.dl_entry<i8, dense<8> : vector<2xi32>>, #dlti.dl_entry<i16, dense<16> : vector<2xi32>>, #dlti.dl_entry<f80, dense<128> : vector<2xi32>>, #dlti.dl_entry<!llvm.ptr<270>, dense<32> : vector<4xi32>>, #dlti.dl_entry<i32, dense<32> : vector<2xi32>>, #dlti.dl_entry<i64, dense<64> : vector<2xi32>>, #dlti.dl_entry<f16, dense<16> : vector<2xi32>>, #dlti.dl_entry<!llvm.ptr<272>, dense<64> : vector<4xi32>>, #dlti.dl_entry<!llvm.ptr<271>, dense<32> : vector<4xi32>>, #dlti.dl_entry<f64, dense<64> : vector<2xi32>>, #dlti.dl_entry<f128, dense<128> : vector<2xi32>>, #dlti.dl_entry<"dlti.stack_alignment", 128 : i32>, #dlti.dl_entry<"dlti.endianness", "little">>, llvm.data_layout = "e-m:e-p270:32:32-p271:32:32-p272:64:64-i64:64-f80:128-n8:16:32:64-S128", llvm.target_triple = "x86_64-unknown-linux-gnu", polygeist.gpu_module.llvm.data_layout = "e-i64:64-i128:128-v16:16-v32:32-n16:32:64", polygeist.gpu_module.llvm.target_triple = "nvptx64-nvidia-cuda", "polygeist.target-cpu" = "x86-64", "polygeist.target-features" = "+cmov,+cx8,+fxsr,+mmx,+sse,+sse2,+x87", "polygeist.tune-cpu" = "generic"} {
  gpu.module @_Z13matmul_kernelPKfS0_Pfiii_0 {
    gpu.func @_Z13matmul_kernelPKfS0_Pfiii(%arg0: memref<?xf32>, %arg1: memref<?xf32>, %arg2: memref<?xf32>, %arg3: i32, %arg4: i32, %arg5: i32) {
      %false = arith.constant false
      %c16_i32 = arith.constant 16 : i32
      %cst = arith.constant 0.000000e+00 : f32
      %c16 = arith.constant 16 : index
      %c-1 = arith.constant -1 : index
      %c0 = arith.constant 0 : index
      %c1 = arith.constant 1 : index
      %c32 = arith.constant 32 : index
      %alloca = memref.alloca() : memref<16x16xf32, 5>
      %alloca_0 = memref.alloca() : memref<16x16xf32, 5>
      %alloca_1 = memref.alloca() : memref<32xf32>
      scf.parallel (%arg6) = (%c0) to (%c32) step (%c1) {
        memref.store %cst, %alloca_1[%arg6] : memref<32xf32>
        scf.yield
      }
      %0 = arith.index_cast %arg5 : i32 to index
      %1 = gpu.block_id  x
      %2 = arith.index_cast %1 : index to i32
      %3 = arith.muli %2, %c16_i32 : i32
      %4 = gpu.block_id  y
      %5 = arith.index_cast %4 : index to i32
      %6 = arith.muli %5, %c16_i32 : i32
      %7 = arith.muli %6, %arg5 : i32
      %8 = arith.index_cast %7 : i32 to index
      %9 = arith.index_cast %6 : i32 to index
      %10 = arith.index_cast %arg4 : i32 to index
      %11 = arith.index_cast %arg3 : i32 to index
      %12 = arith.subi %11, %9 : index
      %13 = arith.addi %12, %c-1 : index
      %14 = arith.cmpi sge, %13, %c0 : index
      %15 = arith.muli %1, %c16 : index
      scf.for %arg6 = %c0 to %0 step %c16 {
        %20 = arith.index_cast %arg6 : index to i32
        %21 = arith.subi %0, %arg6 : index
        %22 = arith.addi %21, %c-1 : index
        %23 = arith.cmpi sge, %22, %c0 : index
        %24 = arith.addi %arg6, %8 : index
        %25 = arith.muli %arg6, %10 : index
        scf.parallel (%arg7) = (%c0) to (%c32) step (%c1) {
          %26 = arith.index_cast %arg7 : index to i32
          %27 = arith.addi %3, %26 : i32
          %28 = arith.index_cast %27 : i32 to index
          %29 = scf.if %14 -> (i1) {
            %34 = arith.addi %20, %26 : i32
            %35 = arith.cmpi slt, %34, %arg5 : i32
            scf.yield %35 : i1
          } else {
            scf.yield %false : i1
          }
          scf.if %29 {
            %34 = arith.addi %24, %arg7 : index
            %35 = memref.load %arg0[%34] : memref<?xf32>
            memref.store %35, %alloca_0[%c0, %arg7] : memref<16x16xf32, 5>
          } else {
            memref.store %cst, %alloca_0[%c0, %arg7] : memref<16x16xf32, 5>
          }
          %30 = arith.subi %10, %28 : index
          %31 = arith.addi %30, %c-1 : index
          %32 = arith.cmpi sge, %31, %c0 : index
          %33 = arith.andi %23, %32 : i1
          scf.if %33 {
            %34 = arith.addi %15, %arg7 : index
            %35 = arith.addi %25, %34 : index
            %36 = memref.load %arg1[%35] : memref<?xf32>
            memref.store %36, %alloca[%c0, %arg7] : memref<16x16xf32, 5>
          } else {
            memref.store %cst, %alloca[%c0, %arg7] : memref<16x16xf32, 5>
          }
          scf.yield
        }
        scf.parallel (%arg7) = (%c0) to (%c32) step (%c1) {
          %26 = memref.load %alloca_1[%arg7] : memref<32xf32>
          %27 = scf.for %arg8 = %c0 to %c16 step %c1 iter_args(%arg9 = %26) -> (f32) {
            %28 = memref.load %alloca_0[%c0, %arg8] : memref<16x16xf32, 5>
            %29 = memref.load %alloca[%arg8, %arg7] : memref<16x16xf32, 5>
            %30 = arith.mulf %28, %29 : f32
            %31 = arith.addf %arg9, %30 : f32
            scf.yield %31 : f32
          }
          memref.store %27, %alloca_1[%arg7] : memref<32xf32>
          scf.yield
        }
      }
      %16 = arith.muli %6, %arg4 : i32
      %17 = arith.index_cast %16 : i32 to index
      %18 = arith.cmpi slt, %6, %arg3 : i32
      %19 = arith.addi %17, %15 : index
      scf.parallel (%arg6) = (%c0) to (%c32) step (%c1) {
        %20 = arith.index_cast %arg6 : index to i32
        %21 = arith.addi %3, %20 : i32
        %22 = arith.cmpi slt, %21, %arg4 : i32
        %23 = memref.load %alloca_1[%arg6] : memref<32xf32>
        %24 = arith.andi %18, %22 : i1
        scf.if %24 {
          %25 = arith.addi %19, %arg6 : index
          memref.store %23, %arg2[%25] : memref<?xf32>
        }
        scf.yield
      }
      gpu.return
    }
  }
}
[ict-debug] ConvertPolygeistToNPUPass::runOnOperation(): Before execute: end

[ict-debug] ConvertPolygeistToNPUPass::runOnOperation(): After vectorize:

module attributes {dlti.dl_spec = #dlti.dl_spec<#dlti.dl_entry<!llvm.ptr, dense<64> : vector<4xi32>>, #dlti.dl_entry<i1, dense<8> : vector<2xi32>>, #dlti.dl_entry<i8, dense<8> : vector<2xi32>>, #dlti.dl_entry<i16, dense<16> : vector<2xi32>>, #dlti.dl_entry<f80, dense<128> : vector<2xi32>>, #dlti.dl_entry<!llvm.ptr<270>, dense<32> : vector<4xi32>>, #dlti.dl_entry<i32, dense<32> : vector<2xi32>>, #dlti.dl_entry<i64, dense<64> : vector<2xi32>>, #dlti.dl_entry<f16, dense<16> : vector<2xi32>>, #dlti.dl_entry<!llvm.ptr<272>, dense<64> : vector<4xi32>>, #dlti.dl_entry<!llvm.ptr<271>, dense<32> : vector<4xi32>>, #dlti.dl_entry<f64, dense<64> : vector<2xi32>>, #dlti.dl_entry<f128, dense<128> : vector<2xi32>>, #dlti.dl_entry<"dlti.stack_alignment", 128 : i32>, #dlti.dl_entry<"dlti.endianness", "little">>, llvm.data_layout = "e-m:e-p270:32:32-p271:32:32-p272:64:64-i64:64-f80:128-n8:16:32:64-S128", llvm.target_triple = "x86_64-unknown-linux-gnu", polygeist.gpu_module.llvm.data_layout = "e-i64:64-i128:128-v16:16-v32:32-n16:32:64", polygeist.gpu_module.llvm.target_triple = "nvptx64-nvidia-cuda", "polygeist.target-cpu" = "x86-64", "polygeist.target-features" = "+cmov,+cx8,+fxsr,+mmx,+sse,+sse2,+x87", "polygeist.tune-cpu" = "generic"} {
  gpu.module @_Z13matmul_kernelPKfS0_Pfiii_0 {
    gpu.func @_Z13matmul_kernelPKfS0_Pfiii(%arg0: memref<?xf32>, %arg1: memref<?xf32>, %arg2: memref<?xf32>, %arg3: i32, %arg4: i32, %arg5: i32) {
      %false = arith.constant false
      %c16_i32 = arith.constant 16 : i32
      %cst = arith.constant 0.000000e+00 : f32
      %c16 = arith.constant 16 : index
      %c-1 = arith.constant -1 : index
      %c0 = arith.constant 0 : index
      %c1 = arith.constant 1 : index
      %c32 = arith.constant 32 : index
      %alloca = memref.alloca() : memref<16x16xf32, 5>
      %alloca_0 = memref.alloca() : memref<16x16xf32, 5>
      %alloca_1 = memref.alloca() : memref<32xf32>
      %c1_2 = arith.constant 1 : index
      scf.for %arg6 = %c0 to %c32 step %c1_2 {
        memref.store %cst, %alloca_1[%arg6] : memref<32xf32>
      }
      %0 = arith.index_cast %arg5 : i32 to index
      %1 = gpu.block_id  x
      %2 = arith.index_cast %1 : index to i32
      %3 = arith.muli %2, %c16_i32 : i32
      %4 = gpu.block_id  y
      %5 = arith.index_cast %4 : index to i32
      %6 = arith.muli %5, %c16_i32 : i32
      %7 = arith.muli %6, %arg5 : i32
      %8 = arith.index_cast %7 : i32 to index
      %9 = arith.index_cast %6 : i32 to index
      %10 = arith.index_cast %arg4 : i32 to index
      %11 = arith.index_cast %arg3 : i32 to index
      %12 = arith.subi %11, %9 : index
      %13 = arith.addi %12, %c-1 : index
      %14 = arith.cmpi sge, %13, %c0 : index
      %15 = arith.muli %1, %c16 : index
      scf.for %arg6 = %c0 to %0 step %c16 {
        %20 = arith.index_cast %arg6 : index to i32
        %21 = arith.subi %0, %arg6 : index
        %22 = arith.addi %21, %c-1 : index
        %23 = arith.cmpi sge, %22, %c0 : index
        %24 = arith.addi %arg6, %8 : index
        %25 = arith.muli %arg6, %10 : index
        %c1_4 = arith.constant 1 : index
        scf.for %arg7 = %c0 to %c32 step %c1_4 {
          %26 = arith.index_cast %arg7 : index to i32
          %27 = arith.addi %3, %26 : i32
          %28 = arith.index_cast %27 : i32 to index
          %29 = scf.if %14 -> (i1) {
            %34 = arith.addi %20, %26 : i32
            %35 = arith.cmpi slt, %34, %arg5 : i32
            scf.yield %35 : i1
          } else {
            scf.yield %false : i1
          }
          scf.if %29 {
            %34 = arith.addi %24, %arg7 : index
            %35 = memref.load %arg0[%34] : memref<?xf32>
            memref.store %35, %alloca_0[%c0, %arg7] : memref<16x16xf32, 5>
          } else {
            memref.store %cst, %alloca_0[%c0, %arg7] : memref<16x16xf32, 5>
          }
          %30 = arith.subi %10, %28 : index
          %31 = arith.addi %30, %c-1 : index
          %32 = arith.cmpi sge, %31, %c0 : index
          %33 = arith.andi %23, %32 : i1
          scf.if %33 {
            %34 = arith.addi %15, %arg7 : index
            %35 = arith.addi %25, %34 : index
            %36 = memref.load %arg1[%35] : memref<?xf32>
            memref.store %36, %alloca[%c0, %arg7] : memref<16x16xf32, 5>
          } else {
            memref.store %cst, %alloca[%c0, %arg7] : memref<16x16xf32, 5>
          }
        }
        %c1_5 = arith.constant 1 : index
        scf.for %arg7 = %c0 to %c32 step %c1_5 {
          %26 = memref.load %alloca_1[%arg7] : memref<32xf32>
          %27 = scf.for %arg8 = %c0 to %c16 step %c1 iter_args(%arg9 = %26) -> (f32) {
            %28 = memref.load %alloca_0[%c0, %arg8] : memref<16x16xf32, 5>
            %29 = memref.load %alloca[%arg8, %arg7] : memref<16x16xf32, 5>
            %30 = arith.mulf %28, %29 : f32
            %31 = arith.addf %arg9, %30 : f32
            scf.yield %31 : f32
          }
          memref.store %27, %alloca_1[%arg7] : memref<32xf32>
        }
      }
      %16 = arith.muli %6, %arg4 : i32
      %17 = arith.index_cast %16 : i32 to index
      %18 = arith.cmpi slt, %6, %arg3 : i32
      %19 = arith.addi %17, %15 : index
      %c1_3 = arith.constant 1 : index
      scf.for %arg6 = %c0 to %c32 step %c1_3 {
        %20 = arith.index_cast %arg6 : index to i32
        %21 = arith.addi %3, %20 : i32
        %22 = arith.cmpi slt, %21, %arg4 : i32
        %23 = memref.load %alloca_1[%arg6] : memref<32xf32>
        %24 = arith.andi %18, %22 : i1
        scf.if %24 {
          %25 = arith.addi %19, %arg6 : index
          memref.store %23, %arg2[%25] : memref<?xf32>
        }
      }
      gpu.return
    }
  }
}
[ict-debug] ConvertPolygeistToNPUPass::runOnOperation(): After vectorize: end

[ict-debug] MemRefAllocaToNPULowering: process op: 

%alloca = memref.alloca() : memref<16x16xf32, 5>
[ict-debug] MemRefAllocaToNPULowering: memory space is 5

MemRefAllocaToNPULowering: newAllocaOp: 
%0 = "npu.alloca"() <{numElems = 256 : i32}> : () -> !llvm.ptr<6>
MemRefAllocaToNPULowering: old allocaOp: 
%alloca = memref.alloca() : memref<16x16xf32, 5>
MemRefAllocaToNPULowering: module: 
module attributes {dlti.dl_spec = #dlti.dl_spec<#dlti.dl_entry<!llvm.ptr, dense<64> : vector<4xi32>>, #dlti.dl_entry<i1, dense<8> : vector<2xi32>>, #dlti.dl_entry<i8, dense<8> : vector<2xi32>>, #dlti.dl_entry<i16, dense<16> : vector<2xi32>>, #dlti.dl_entry<f80, dense<128> : vector<2xi32>>, #dlti.dl_entry<!llvm.ptr<270>, dense<32> : vector<4xi32>>, #dlti.dl_entry<i32, dense<32> : vector<2xi32>>, #dlti.dl_entry<i64, dense<64> : vector<2xi32>>, #dlti.dl_entry<f16, dense<16> : vector<2xi32>>, #dlti.dl_entry<!llvm.ptr<272>, dense<64> : vector<4xi32>>, #dlti.dl_entry<!llvm.ptr<271>, dense<32> : vector<4xi32>>, #dlti.dl_entry<f64, dense<64> : vector<2xi32>>, #dlti.dl_entry<f128, dense<128> : vector<2xi32>>, #dlti.dl_entry<"dlti.stack_alignment", 128 : i32>, #dlti.dl_entry<"dlti.endianness", "little">>, llvm.data_layout = "e-m:e-p270:32:32-p271:32:32-p272:64:64-i64:64-f80:128-n8:16:32:64-S128", llvm.target_triple = "x86_64-unknown-linux-gnu", polygeist.gpu_module.llvm.data_layout = "e-i64:64-i128:128-v16:16-v32:32-n16:32:64", polygeist.gpu_module.llvm.target_triple = "nvptx64-nvidia-cuda", "polygeist.target-cpu" = "x86-64", "polygeist.target-features" = "+cmov,+cx8,+fxsr,+mmx,+sse,+sse2,+x87", "polygeist.tune-cpu" = "generic"} {
  gpu.module @_Z13matmul_kernelPKfS0_Pfiii_0 {
    gpu.func @_Z13matmul_kernelPKfS0_Pfiii(%arg0: memref<?xf32>, %arg1: memref<?xf32>, %arg2: memref<?xf32>, %arg3: i32, %arg4: i32, %arg5: i32) {
      %false = arith.constant false
      %c16_i32 = arith.constant 16 : i32
      %cst = arith.constant 0.000000e+00 : f32
      %c16 = arith.constant 16 : index
      %c-1 = arith.constant -1 : index
      %c0 = arith.constant 0 : index
      %c1 = arith.constant 1 : index
      %c32 = arith.constant 32 : index
      %0 = "npu.alloca"() <{numElems = 256 : i32}> : () -> !llvm.ptr<6>
      %alloca = memref.alloca() : memref<16x16xf32, 5>
      %alloca_0 = memref.alloca() : memref<16x16xf32, 5>
      %alloca_1 = memref.alloca() : memref<32xf32, 5>
      %c1_2 = arith.constant 1 : index
      scf.for %arg6 = %c0 to %c32 step %c1_2 {
        memref.store %cst, %alloca_1[%arg6] : memref<32xf32, 5>
      }
      %1 = arith.index_cast %arg5 : i32 to index
      %2 = gpu.block_id  x
      %3 = arith.index_cast %2 : index to i32
      %4 = arith.muli %3, %c16_i32 : i32
      %5 = gpu.block_id  y
      %6 = arith.index_cast %5 : index to i32
      %7 = arith.muli %6, %c16_i32 : i32
      %8 = arith.muli %7, %arg5 : i32
      %9 = arith.index_cast %8 : i32 to index
      %10 = arith.index_cast %7 : i32 to index
      %11 = arith.index_cast %arg4 : i32 to index
      %12 = arith.index_cast %arg3 : i32 to index
      %13 = arith.subi %12, %10 : index
      %14 = arith.addi %13, %c-1 : index
      %15 = arith.cmpi sge, %14, %c0 : index
      %16 = arith.muli %2, %c16 : index
      scf.for %arg6 = %c0 to %1 step %c16 {
        %21 = arith.index_cast %arg6 : index to i32
        %22 = arith.subi %1, %arg6 : index
        %23 = arith.addi %22, %c-1 : index
        %24 = arith.cmpi sge, %23, %c0 : index
        %25 = arith.addi %arg6, %9 : index
        %26 = arith.muli %arg6, %11 : index
        %c1_4 = arith.constant 1 : index
        scf.for %arg7 = %c0 to %c32 step %c1_4 {
          %27 = arith.index_cast %arg7 : index to i32
          %28 = arith.addi %4, %27 : i32
          %29 = arith.index_cast %28 : i32 to index
          %30 = scf.if %15 -> (i1) {
            %35 = arith.addi %21, %27 : i32
            %36 = arith.cmpi slt, %35, %arg5 : i32
            scf.yield %36 : i1
          } else {
            scf.yield %false : i1
          }
          scf.if %30 {
            %35 = arith.addi %25, %arg7 : index
            %36 = memref.load %arg0[%35] : memref<?xf32>
            memref.store %36, %alloca_0[%c0, %arg7] : memref<16x16xf32, 5>
          } else {
            memref.store %cst, %alloca_0[%c0, %arg7] : memref<16x16xf32, 5>
          }
          %31 = arith.subi %11, %29 : index
          %32 = arith.addi %31, %c-1 : index
          %33 = arith.cmpi sge, %32, %c0 : index
          %34 = arith.andi %24, %33 : i1
          scf.if %34 {
            %35 = arith.addi %16, %arg7 : index
            %36 = arith.addi %26, %35 : index
            %37 = memref.load %arg1[%36] : memref<?xf32>
            memref.store %37, %alloca[%c0, %arg7] : memref<16x16xf32, 5>
          } else {
            memref.store %cst, %alloca[%c0, %arg7] : memref<16x16xf32, 5>
          }
        }
        %c1_5 = arith.constant 1 : index
        scf.for %arg7 = %c0 to %c32 step %c1_5 {
          %27 = memref.load %alloca_1[%arg7] : memref<32xf32, 5>
          %28 = scf.for %arg8 = %c0 to %c16 step %c1 iter_args(%arg9 = %27) -> (f32) {
            %29 = memref.load %alloca_0[%c0, %arg8] : memref<16x16xf32, 5>
            %30 = memref.load %alloca[%arg8, %arg7] : memref<16x16xf32, 5>
            %31 = arith.mulf %29, %30 : f32
            %32 = arith.addf %arg9, %31 : f32
            scf.yield %32 : f32
          }
          memref.store %28, %alloca_1[%arg7] : memref<32xf32, 5>
        }
      }
      %17 = arith.muli %7, %arg4 : i32
      %18 = arith.index_cast %17 : i32 to index
      %19 = arith.cmpi slt, %7, %arg3 : i32
      %20 = arith.addi %18, %16 : index
      %c1_3 = arith.constant 1 : index
      scf.for %arg6 = %c0 to %c32 step %c1_3 {
        %21 = arith.index_cast %arg6 : index to i32
        %22 = arith.addi %4, %21 : i32
        %23 = arith.cmpi slt, %22, %arg4 : i32
        %24 = memref.load %alloca_1[%arg6] : memref<32xf32, 5>
        %25 = arith.andi %19, %23 : i1
        scf.if %25 {
          %26 = arith.addi %20, %arg6 : index
          memref.store %24, %arg2[%26] : memref<?xf32>
        }
      }
      gpu.return
    }
  }
}
MemRefAllocaToNPULowering: module: end
[ict-debug] MemRefAllocaToNPULowering: process op: 

%alloca_0 = memref.alloca() : memref<16x16xf32, 5>
[ict-debug] MemRefAllocaToNPULowering: memory space is 5

MemRefAllocaToNPULowering: newAllocaOp: 
%1 = "npu.alloca"() <{numElems = 256 : i32}> : () -> !llvm.ptr<6>
MemRefAllocaToNPULowering: old allocaOp: 
%alloca_0 = memref.alloca() : memref<16x16xf32, 5>
MemRefAllocaToNPULowering: module: 
module attributes {dlti.dl_spec = #dlti.dl_spec<#dlti.dl_entry<!llvm.ptr, dense<64> : vector<4xi32>>, #dlti.dl_entry<i1, dense<8> : vector<2xi32>>, #dlti.dl_entry<i8, dense<8> : vector<2xi32>>, #dlti.dl_entry<i16, dense<16> : vector<2xi32>>, #dlti.dl_entry<f80, dense<128> : vector<2xi32>>, #dlti.dl_entry<!llvm.ptr<270>, dense<32> : vector<4xi32>>, #dlti.dl_entry<i32, dense<32> : vector<2xi32>>, #dlti.dl_entry<i64, dense<64> : vector<2xi32>>, #dlti.dl_entry<f16, dense<16> : vector<2xi32>>, #dlti.dl_entry<!llvm.ptr<272>, dense<64> : vector<4xi32>>, #dlti.dl_entry<!llvm.ptr<271>, dense<32> : vector<4xi32>>, #dlti.dl_entry<f64, dense<64> : vector<2xi32>>, #dlti.dl_entry<f128, dense<128> : vector<2xi32>>, #dlti.dl_entry<"dlti.stack_alignment", 128 : i32>, #dlti.dl_entry<"dlti.endianness", "little">>, llvm.data_layout = "e-m:e-p270:32:32-p271:32:32-p272:64:64-i64:64-f80:128-n8:16:32:64-S128", llvm.target_triple = "x86_64-unknown-linux-gnu", polygeist.gpu_module.llvm.data_layout = "e-i64:64-i128:128-v16:16-v32:32-n16:32:64", polygeist.gpu_module.llvm.target_triple = "nvptx64-nvidia-cuda", "polygeist.target-cpu" = "x86-64", "polygeist.target-features" = "+cmov,+cx8,+fxsr,+mmx,+sse,+sse2,+x87", "polygeist.tune-cpu" = "generic"} {
  gpu.module @_Z13matmul_kernelPKfS0_Pfiii_0 {
    gpu.func @_Z13matmul_kernelPKfS0_Pfiii(%arg0: memref<?xf32>, %arg1: memref<?xf32>, %arg2: memref<?xf32>, %arg3: i32, %arg4: i32, %arg5: i32) {
      %false = arith.constant false
      %c16_i32 = arith.constant 16 : i32
      %cst = arith.constant 0.000000e+00 : f32
      %c16 = arith.constant 16 : index
      %c-1 = arith.constant -1 : index
      %c0 = arith.constant 0 : index
      %c1 = arith.constant 1 : index
      %c32 = arith.constant 32 : index
      %0 = "npu.alloca"() <{numElems = 256 : i32}> : () -> !llvm.ptr<6>
      %alloca = memref.alloca() : memref<16x16xf32, 5>
      %1 = "npu.alloca"() <{numElems = 256 : i32}> : () -> !llvm.ptr<6>
      %alloca_0 = memref.alloca() : memref<16x16xf32, 5>
      %alloca_1 = memref.alloca() : memref<32xf32, 5>
      %c1_2 = arith.constant 1 : index
      scf.for %arg6 = %c0 to %c32 step %c1_2 {
        memref.store %cst, %alloca_1[%arg6] : memref<32xf32, 5>
      }
      %2 = arith.index_cast %arg5 : i32 to index
      %3 = gpu.block_id  x
      %4 = arith.index_cast %3 : index to i32
      %5 = arith.muli %4, %c16_i32 : i32
      %6 = gpu.block_id  y
      %7 = arith.index_cast %6 : index to i32
      %8 = arith.muli %7, %c16_i32 : i32
      %9 = arith.muli %8, %arg5 : i32
      %10 = arith.index_cast %9 : i32 to index
      %11 = arith.index_cast %8 : i32 to index
      %12 = arith.index_cast %arg4 : i32 to index
      %13 = arith.index_cast %arg3 : i32 to index
      %14 = arith.subi %13, %11 : index
      %15 = arith.addi %14, %c-1 : index
      %16 = arith.cmpi sge, %15, %c0 : index
      %17 = arith.muli %3, %c16 : index
      scf.for %arg6 = %c0 to %2 step %c16 {
        %22 = arith.index_cast %arg6 : index to i32
        %23 = arith.subi %2, %arg6 : index
        %24 = arith.addi %23, %c-1 : index
        %25 = arith.cmpi sge, %24, %c0 : index
        %26 = arith.addi %arg6, %10 : index
        %27 = arith.muli %arg6, %12 : index
        %c1_4 = arith.constant 1 : index
        scf.for %arg7 = %c0 to %c32 step %c1_4 {
          %28 = arith.index_cast %arg7 : index to i32
          %29 = arith.addi %5, %28 : i32
          %30 = arith.index_cast %29 : i32 to index
          %31 = scf.if %16 -> (i1) {
            %36 = arith.addi %22, %28 : i32
            %37 = arith.cmpi slt, %36, %arg5 : i32
            scf.yield %37 : i1
          } else {
            scf.yield %false : i1
          }
          scf.if %31 {
            %36 = arith.addi %26, %arg7 : index
            %37 = memref.load %arg0[%36] : memref<?xf32>
            memref.store %37, %alloca_0[%c0, %arg7] : memref<16x16xf32, 5>
          } else {
            memref.store %cst, %alloca_0[%c0, %arg7] : memref<16x16xf32, 5>
          }
          %32 = arith.subi %12, %30 : index
          %33 = arith.addi %32, %c-1 : index
          %34 = arith.cmpi sge, %33, %c0 : index
          %35 = arith.andi %25, %34 : i1
          scf.if %35 {
            %36 = arith.addi %17, %arg7 : index
            %37 = arith.addi %27, %36 : index
            %38 = memref.load %arg1[%37] : memref<?xf32>
            memref.store %38, %alloca[%c0, %arg7] : memref<16x16xf32, 5>
          } else {
            memref.store %cst, %alloca[%c0, %arg7] : memref<16x16xf32, 5>
          }
        }
        %c1_5 = arith.constant 1 : index
        scf.for %arg7 = %c0 to %c32 step %c1_5 {
          %28 = memref.load %alloca_1[%arg7] : memref<32xf32, 5>
          %29 = scf.for %arg8 = %c0 to %c16 step %c1 iter_args(%arg9 = %28) -> (f32) {
            %30 = memref.load %alloca_0[%c0, %arg8] : memref<16x16xf32, 5>
            %31 = memref.load %alloca[%arg8, %arg7] : memref<16x16xf32, 5>
            %32 = arith.mulf %30, %31 : f32
            %33 = arith.addf %arg9, %32 : f32
            scf.yield %33 : f32
          }
          memref.store %29, %alloca_1[%arg7] : memref<32xf32, 5>
        }
      }
      %18 = arith.muli %8, %arg4 : i32
      %19 = arith.index_cast %18 : i32 to index
      %20 = arith.cmpi slt, %8, %arg3 : i32
      %21 = arith.addi %19, %17 : index
      %c1_3 = arith.constant 1 : index
      scf.for %arg6 = %c0 to %c32 step %c1_3 {
        %22 = arith.index_cast %arg6 : index to i32
        %23 = arith.addi %5, %22 : i32
        %24 = arith.cmpi slt, %23, %arg4 : i32
        %25 = memref.load %alloca_1[%arg6] : memref<32xf32, 5>
        %26 = arith.andi %20, %24 : i1
        scf.if %26 {
          %27 = arith.addi %21, %arg6 : index
          memref.store %25, %arg2[%27] : memref<?xf32>
        }
      }
      gpu.return
    }
  }
}
MemRefAllocaToNPULowering: module: end
[ict-debug] MemRefAllocaToNPULowering: process op: 

%alloca_1 = memref.alloca() : memref<32xf32, 5>
[ict-debug] MemRefAllocaToNPULowering: memory space is 5

MemRefAllocaToNPULowering: newAllocaOp: 
%2 = "npu.alloca"() <{numElems = 32 : i32}> : () -> !llvm.ptr<6>
MemRefAllocaToNPULowering: old allocaOp: 
%alloca_1 = memref.alloca() : memref<32xf32, 5>
MemRefAllocaToNPULowering: module: 
module attributes {dlti.dl_spec = #dlti.dl_spec<#dlti.dl_entry<!llvm.ptr, dense<64> : vector<4xi32>>, #dlti.dl_entry<i1, dense<8> : vector<2xi32>>, #dlti.dl_entry<i8, dense<8> : vector<2xi32>>, #dlti.dl_entry<i16, dense<16> : vector<2xi32>>, #dlti.dl_entry<f80, dense<128> : vector<2xi32>>, #dlti.dl_entry<!llvm.ptr<270>, dense<32> : vector<4xi32>>, #dlti.dl_entry<i32, dense<32> : vector<2xi32>>, #dlti.dl_entry<i64, dense<64> : vector<2xi32>>, #dlti.dl_entry<f16, dense<16> : vector<2xi32>>, #dlti.dl_entry<!llvm.ptr<272>, dense<64> : vector<4xi32>>, #dlti.dl_entry<!llvm.ptr<271>, dense<32> : vector<4xi32>>, #dlti.dl_entry<f64, dense<64> : vector<2xi32>>, #dlti.dl_entry<f128, dense<128> : vector<2xi32>>, #dlti.dl_entry<"dlti.stack_alignment", 128 : i32>, #dlti.dl_entry<"dlti.endianness", "little">>, llvm.data_layout = "e-m:e-p270:32:32-p271:32:32-p272:64:64-i64:64-f80:128-n8:16:32:64-S128", llvm.target_triple = "x86_64-unknown-linux-gnu", polygeist.gpu_module.llvm.data_layout = "e-i64:64-i128:128-v16:16-v32:32-n16:32:64", polygeist.gpu_module.llvm.target_triple = "nvptx64-nvidia-cuda", "polygeist.target-cpu" = "x86-64", "polygeist.target-features" = "+cmov,+cx8,+fxsr,+mmx,+sse,+sse2,+x87", "polygeist.tune-cpu" = "generic"} {
  gpu.module @_Z13matmul_kernelPKfS0_Pfiii_0 {
    gpu.func @_Z13matmul_kernelPKfS0_Pfiii(%arg0: memref<?xf32>, %arg1: memref<?xf32>, %arg2: memref<?xf32>, %arg3: i32, %arg4: i32, %arg5: i32) {
      %false = arith.constant false
      %c16_i32 = arith.constant 16 : i32
      %cst = arith.constant 0.000000e+00 : f32
      %c16 = arith.constant 16 : index
      %c-1 = arith.constant -1 : index
      %c0 = arith.constant 0 : index
      %c1 = arith.constant 1 : index
      %c32 = arith.constant 32 : index
      %0 = "npu.alloca"() <{numElems = 256 : i32}> : () -> !llvm.ptr<6>
      %alloca = memref.alloca() : memref<16x16xf32, 5>
      %1 = "npu.alloca"() <{numElems = 256 : i32}> : () -> !llvm.ptr<6>
      %alloca_0 = memref.alloca() : memref<16x16xf32, 5>
      %2 = "npu.alloca"() <{numElems = 32 : i32}> : () -> !llvm.ptr<6>
      %alloca_1 = memref.alloca() : memref<32xf32, 5>
      %c1_2 = arith.constant 1 : index
      scf.for %arg6 = %c0 to %c32 step %c1_2 {
        memref.store %cst, %alloca_1[%arg6] : memref<32xf32, 5>
      }
      %3 = arith.index_cast %arg5 : i32 to index
      %4 = gpu.block_id  x
      %5 = arith.index_cast %4 : index to i32
      %6 = arith.muli %5, %c16_i32 : i32
      %7 = gpu.block_id  y
      %8 = arith.index_cast %7 : index to i32
      %9 = arith.muli %8, %c16_i32 : i32
      %10 = arith.muli %9, %arg5 : i32
      %11 = arith.index_cast %10 : i32 to index
      %12 = arith.index_cast %9 : i32 to index
      %13 = arith.index_cast %arg4 : i32 to index
      %14 = arith.index_cast %arg3 : i32 to index
      %15 = arith.subi %14, %12 : index
      %16 = arith.addi %15, %c-1 : index
      %17 = arith.cmpi sge, %16, %c0 : index
      %18 = arith.muli %4, %c16 : index
      scf.for %arg6 = %c0 to %3 step %c16 {
        %23 = arith.index_cast %arg6 : index to i32
        %24 = arith.subi %3, %arg6 : index
        %25 = arith.addi %24, %c-1 : index
        %26 = arith.cmpi sge, %25, %c0 : index
        %27 = arith.addi %arg6, %11 : index
        %28 = arith.muli %arg6, %13 : index
        %c1_4 = arith.constant 1 : index
        scf.for %arg7 = %c0 to %c32 step %c1_4 {
          %29 = arith.index_cast %arg7 : index to i32
          %30 = arith.addi %6, %29 : i32
          %31 = arith.index_cast %30 : i32 to index
          %32 = scf.if %17 -> (i1) {
            %37 = arith.addi %23, %29 : i32
            %38 = arith.cmpi slt, %37, %arg5 : i32
            scf.yield %38 : i1
          } else {
            scf.yield %false : i1
          }
          scf.if %32 {
            %37 = arith.addi %27, %arg7 : index
            %38 = memref.load %arg0[%37] : memref<?xf32>
            memref.store %38, %alloca_0[%c0, %arg7] : memref<16x16xf32, 5>
          } else {
            memref.store %cst, %alloca_0[%c0, %arg7] : memref<16x16xf32, 5>
          }
          %33 = arith.subi %13, %31 : index
          %34 = arith.addi %33, %c-1 : index
          %35 = arith.cmpi sge, %34, %c0 : index
          %36 = arith.andi %26, %35 : i1
          scf.if %36 {
            %37 = arith.addi %18, %arg7 : index
            %38 = arith.addi %28, %37 : index
            %39 = memref.load %arg1[%38] : memref<?xf32>
            memref.store %39, %alloca[%c0, %arg7] : memref<16x16xf32, 5>
          } else {
            memref.store %cst, %alloca[%c0, %arg7] : memref<16x16xf32, 5>
          }
        }
        %c1_5 = arith.constant 1 : index
        scf.for %arg7 = %c0 to %c32 step %c1_5 {
          %29 = memref.load %alloca_1[%arg7] : memref<32xf32, 5>
          %30 = scf.for %arg8 = %c0 to %c16 step %c1 iter_args(%arg9 = %29) -> (f32) {
            %31 = memref.load %alloca_0[%c0, %arg8] : memref<16x16xf32, 5>
            %32 = memref.load %alloca[%arg8, %arg7] : memref<16x16xf32, 5>
            %33 = arith.mulf %31, %32 : f32
            %34 = arith.addf %arg9, %33 : f32
            scf.yield %34 : f32
          }
          memref.store %30, %alloca_1[%arg7] : memref<32xf32, 5>
        }
      }
      %19 = arith.muli %9, %arg4 : i32
      %20 = arith.index_cast %19 : i32 to index
      %21 = arith.cmpi slt, %9, %arg3 : i32
      %22 = arith.addi %20, %18 : index
      %c1_3 = arith.constant 1 : index
      scf.for %arg6 = %c0 to %c32 step %c1_3 {
        %23 = arith.index_cast %arg6 : index to i32
        %24 = arith.addi %6, %23 : i32
        %25 = arith.cmpi slt, %24, %arg4 : i32
        %26 = memref.load %alloca_1[%arg6] : memref<32xf32, 5>
        %27 = arith.andi %21, %25 : i1
        scf.if %27 {
          %28 = arith.addi %22, %arg6 : index
          memref.store %26, %arg2[%28] : memref<?xf32>
        }
      }
      gpu.return
    }
  }
}
MemRefAllocaToNPULowering: module: end
[ict-debug] GPUBlockIdToNPULowering: process op: 

%4 = gpu.block_id  x
[ict-debug] GPUBlockIdToNPULowering: process op: 

%8 = gpu.block_id  y
[ict-debug] ConvertPolygeistToNPUPass::runOnOperation(): After convert to NPU:

module attributes {dlti.dl_spec = #dlti.dl_spec<#dlti.dl_entry<!llvm.ptr, dense<64> : vector<4xi32>>, #dlti.dl_entry<i1, dense<8> : vector<2xi32>>, #dlti.dl_entry<i8, dense<8> : vector<2xi32>>, #dlti.dl_entry<i16, dense<16> : vector<2xi32>>, #dlti.dl_entry<f80, dense<128> : vector<2xi32>>, #dlti.dl_entry<!llvm.ptr<270>, dense<32> : vector<4xi32>>, #dlti.dl_entry<i32, dense<32> : vector<2xi32>>, #dlti.dl_entry<i64, dense<64> : vector<2xi32>>, #dlti.dl_entry<f16, dense<16> : vector<2xi32>>, #dlti.dl_entry<!llvm.ptr<272>, dense<64> : vector<4xi32>>, #dlti.dl_entry<!llvm.ptr<271>, dense<32> : vector<4xi32>>, #dlti.dl_entry<f64, dense<64> : vector<2xi32>>, #dlti.dl_entry<f128, dense<128> : vector<2xi32>>, #dlti.dl_entry<"dlti.stack_alignment", 128 : i32>, #dlti.dl_entry<"dlti.endianness", "little">>, llvm.data_layout = "e-m:e-p270:32:32-p271:32:32-p272:64:64-i64:64-f80:128-n8:16:32:64-S128", llvm.target_triple = "x86_64-unknown-linux-gnu", polygeist.gpu_module.llvm.data_layout = "e-i64:64-i128:128-v16:16-v32:32-n16:32:64", polygeist.gpu_module.llvm.target_triple = "nvptx64-nvidia-cuda", "polygeist.target-cpu" = "x86-64", "polygeist.target-features" = "+cmov,+cx8,+fxsr,+mmx,+sse,+sse2,+x87", "polygeist.tune-cpu" = "generic"} {
  gpu.module @_Z13matmul_kernelPKfS0_Pfiii_0 {
    gpu.func @_Z13matmul_kernelPKfS0_Pfiii(%arg0: memref<?xf32>, %arg1: memref<?xf32>, %arg2: memref<?xf32>, %arg3: i32, %arg4: i32, %arg5: i32) {
      %false = arith.constant false
      %c16_i32 = arith.constant 16 : i32
      %cst = arith.constant 0.000000e+00 : f32
      %c16 = arith.constant 16 : index
      %c-1 = arith.constant -1 : index
      %c0 = arith.constant 0 : index
      %c1 = arith.constant 1 : index
      %c32 = arith.constant 32 : index
      %0 = "npu.alloca"() <{numElems = 256 : i32}> : () -> !llvm.ptr<6>
      %1 = builtin.unrealized_conversion_cast %0 : !llvm.ptr<6> to memref<16x16xf32, 5>
      %2 = "npu.alloca"() <{numElems = 256 : i32}> : () -> !llvm.ptr<6>
      %3 = builtin.unrealized_conversion_cast %2 : !llvm.ptr<6> to memref<16x16xf32, 5>
      %4 = "npu.alloca"() <{numElems = 32 : i32}> : () -> !llvm.ptr<6>
      %5 = builtin.unrealized_conversion_cast %4 : !llvm.ptr<6> to memref<32xf32, 5>
      %c1_0 = arith.constant 1 : index
      scf.for %arg6 = %c0 to %c32 step %c1_0 {
        memref.store %cst, %5[%arg6] : memref<32xf32, 5>
      }
      %6 = arith.index_cast %arg5 : i32 to index
      %7 = "npu.block_id"() <{dimension = "X"}> : () -> i64
      %8 = arith.index_cast %7 : i64 to index
      %9 = builtin.unrealized_conversion_cast %7 : i64 to index
      %10 = arith.index_cast %8 : index to i32
      %11 = arith.muli %10, %c16_i32 : i32
      %12 = "npu.block_id"() <{dimension = "Y"}> : () -> i64
      %13 = arith.index_cast %12 : i64 to index
      %14 = builtin.unrealized_conversion_cast %12 : i64 to index
      %15 = arith.index_cast %13 : index to i32
      %16 = arith.muli %15, %c16_i32 : i32
      %17 = arith.muli %16, %arg5 : i32
      %18 = arith.index_cast %17 : i32 to index
      %19 = arith.index_cast %16 : i32 to index
      %20 = arith.index_cast %arg4 : i32 to index
      %21 = arith.index_cast %arg3 : i32 to index
      %22 = arith.subi %21, %19 : index
      %23 = arith.addi %22, %c-1 : index
      %24 = arith.cmpi sge, %23, %c0 : index
      %25 = arith.muli %8, %c16 : index
      scf.for %arg6 = %c0 to %6 step %c16 {
        %30 = arith.index_cast %arg6 : index to i32
        %31 = arith.subi %6, %arg6 : index
        %32 = arith.addi %31, %c-1 : index
        %33 = arith.cmpi sge, %32, %c0 : index
        %34 = arith.addi %arg6, %18 : index
        %35 = arith.muli %arg6, %20 : index
        %c1_2 = arith.constant 1 : index
        scf.for %arg7 = %c0 to %c32 step %c1_2 {
          %36 = arith.index_cast %arg7 : index to i32
          %37 = arith.addi %11, %36 : i32
          %38 = arith.index_cast %37 : i32 to index
          %39 = scf.if %24 -> (i1) {
            %44 = arith.addi %30, %36 : i32
            %45 = arith.cmpi slt, %44, %arg5 : i32
            scf.yield %45 : i1
          } else {
            scf.yield %false : i1
          }
          scf.if %39 {
            %44 = arith.addi %34, %arg7 : index
            %45 = memref.load %arg0[%44] : memref<?xf32>
            memref.store %45, %3[%c0, %arg7] : memref<16x16xf32, 5>
          } else {
            memref.store %cst, %3[%c0, %arg7] : memref<16x16xf32, 5>
          }
          %40 = arith.subi %20, %38 : index
          %41 = arith.addi %40, %c-1 : index
          %42 = arith.cmpi sge, %41, %c0 : index
          %43 = arith.andi %33, %42 : i1
          scf.if %43 {
            %44 = arith.addi %25, %arg7 : index
            %45 = arith.addi %35, %44 : index
            %46 = memref.load %arg1[%45] : memref<?xf32>
            memref.store %46, %1[%c0, %arg7] : memref<16x16xf32, 5>
          } else {
            memref.store %cst, %1[%c0, %arg7] : memref<16x16xf32, 5>
          }
        }
        %c1_3 = arith.constant 1 : index
        scf.for %arg7 = %c0 to %c32 step %c1_3 {
          %36 = memref.load %5[%arg7] : memref<32xf32, 5>
          %37 = scf.for %arg8 = %c0 to %c16 step %c1 iter_args(%arg9 = %36) -> (f32) {
            %38 = memref.load %3[%c0, %arg8] : memref<16x16xf32, 5>
            %39 = memref.load %1[%arg8, %arg7] : memref<16x16xf32, 5>
            %40 = emitc.mul %38, %39 : (f32, f32) -> f32
            %41 = emitc.add %arg9, %40 : (f32, f32) -> f32
            scf.yield %41 : f32
          }
          memref.store %37, %5[%arg7] : memref<32xf32, 5>
        }
      }
      %26 = arith.muli %16, %arg4 : i32
      %27 = arith.index_cast %26 : i32 to index
      %28 = arith.cmpi slt, %16, %arg3 : i32
      %29 = arith.addi %27, %25 : index
      %c1_1 = arith.constant 1 : index
      scf.for %arg6 = %c0 to %c32 step %c1_1 {
        %30 = arith.index_cast %arg6 : index to i32
        %31 = arith.addi %11, %30 : i32
        %32 = arith.cmpi slt, %31, %arg4 : i32
        %33 = memref.load %5[%arg6] : memref<32xf32, 5>
        %34 = arith.andi %28, %32 : i1
        scf.if %34 {
          %35 = arith.addi %29, %arg6 : index
          memref.store %33, %arg2[%35] : memref<?xf32>
        }
      }
      gpu.return
    }
  }
}
[ict-debug] ConvertPolygeistToNPUPass::runOnOperation(): After convert to NPU: end

[ict-debug] driver.cc: Before convert to EmitC dialect:

module attributes {dlti.dl_spec = #dlti.dl_spec<#dlti.dl_entry<!llvm.ptr, dense<64> : vector<4xi32>>, #dlti.dl_entry<i1, dense<8> : vector<2xi32>>, #dlti.dl_entry<i8, dense<8> : vector<2xi32>>, #dlti.dl_entry<i16, dense<16> : vector<2xi32>>, #dlti.dl_entry<f80, dense<128> : vector<2xi32>>, #dlti.dl_entry<!llvm.ptr<270>, dense<32> : vector<4xi32>>, #dlti.dl_entry<i32, dense<32> : vector<2xi32>>, #dlti.dl_entry<i64, dense<64> : vector<2xi32>>, #dlti.dl_entry<f16, dense<16> : vector<2xi32>>, #dlti.dl_entry<!llvm.ptr<272>, dense<64> : vector<4xi32>>, #dlti.dl_entry<!llvm.ptr<271>, dense<32> : vector<4xi32>>, #dlti.dl_entry<f64, dense<64> : vector<2xi32>>, #dlti.dl_entry<f128, dense<128> : vector<2xi32>>, #dlti.dl_entry<"dlti.stack_alignment", 128 : i32>, #dlti.dl_entry<"dlti.endianness", "little">>, llvm.data_layout = "e-m:e-p270:32:32-p271:32:32-p272:64:64-i64:64-f80:128-n8:16:32:64-S128", llvm.target_triple = "x86_64-unknown-linux-gnu", polygeist.gpu_module.llvm.data_layout = "e-i64:64-i128:128-v16:16-v32:32-n16:32:64", polygeist.gpu_module.llvm.target_triple = "nvptx64-nvidia-cuda", "polygeist.target-cpu" = "x86-64", "polygeist.target-features" = "+cmov,+cx8,+fxsr,+mmx,+sse,+sse2,+x87", "polygeist.tune-cpu" = "generic"} {
  gpu.module @_Z13matmul_kernelPKfS0_Pfiii_0 {
    gpu.func @_Z13matmul_kernelPKfS0_Pfiii(%arg0: memref<?xf32>, %arg1: memref<?xf32>, %arg2: memref<?xf32>, %arg3: i32, %arg4: i32, %arg5: i32) {
      %false = arith.constant false
      %c16_i32 = arith.constant 16 : i32
      %cst = arith.constant 0.000000e+00 : f32
      %c16 = arith.constant 16 : index
      %c-1 = arith.constant -1 : index
      %c0 = arith.constant 0 : index
      %c1 = arith.constant 1 : index
      %c32 = arith.constant 32 : index
      %0 = "npu.alloca"() <{numElems = 256 : i32}> : () -> !llvm.ptr<6>
      %1 = builtin.unrealized_conversion_cast %0 : !llvm.ptr<6> to memref<16x16xf32, 5>
      %2 = "npu.alloca"() <{numElems = 256 : i32}> : () -> !llvm.ptr<6>
      %3 = builtin.unrealized_conversion_cast %2 : !llvm.ptr<6> to memref<16x16xf32, 5>
      %4 = "npu.alloca"() <{numElems = 32 : i32}> : () -> !llvm.ptr<6>
      %5 = builtin.unrealized_conversion_cast %4 : !llvm.ptr<6> to memref<32xf32, 5>
      scf.for %arg6 = %c0 to %c32 step %c1 {
        memref.store %cst, %5[%arg6] : memref<32xf32, 5>
      }
      %6 = arith.index_cast %arg5 : i32 to index
      %7 = "npu.block_id"() <{dimension = "X"}> : () -> i64
      %8 = arith.index_cast %7 : i64 to index
      %9 = arith.index_cast %8 : index to i32
      %10 = arith.muli %9, %c16_i32 : i32
      %11 = "npu.block_id"() <{dimension = "Y"}> : () -> i64
      %12 = arith.index_cast %11 : i64 to index
      %13 = arith.index_cast %12 : index to i32
      %14 = arith.muli %13, %c16_i32 : i32
      %15 = arith.muli %14, %arg5 : i32
      %16 = arith.index_cast %15 : i32 to index
      %17 = arith.index_cast %14 : i32 to index
      %18 = arith.index_cast %arg4 : i32 to index
      %19 = arith.index_cast %arg3 : i32 to index
      %20 = arith.subi %19, %17 : index
      %21 = arith.addi %20, %c-1 : index
      %22 = arith.cmpi sge, %21, %c0 : index
      %23 = arith.muli %8, %c16 : index
      scf.for %arg6 = %c0 to %6 step %c16 {
        %28 = arith.index_cast %arg6 : index to i32
        %29 = arith.subi %6, %arg6 : index
        %30 = arith.addi %29, %c-1 : index
        %31 = arith.cmpi sge, %30, %c0 : index
        %32 = arith.addi %arg6, %16 : index
        %33 = arith.muli %arg6, %18 : index
        scf.for %arg7 = %c0 to %c32 step %c1 {
          %34 = arith.index_cast %arg7 : index to i32
          %35 = arith.addi %10, %34 : i32
          %36 = arith.index_cast %35 : i32 to index
          %37 = scf.if %22 -> (i1) {
            %42 = arith.addi %28, %34 : i32
            %43 = arith.cmpi slt, %42, %arg5 : i32
            scf.yield %43 : i1
          } else {
            scf.yield %false : i1
          }
          scf.if %37 {
            %42 = arith.addi %32, %arg7 : index
            %43 = memref.load %arg0[%42] : memref<?xf32>
            memref.store %43, %3[%c0, %arg7] : memref<16x16xf32, 5>
          } else {
            memref.store %cst, %3[%c0, %arg7] : memref<16x16xf32, 5>
          }
          %38 = arith.subi %18, %36 : index
          %39 = arith.addi %38, %c-1 : index
          %40 = arith.cmpi sge, %39, %c0 : index
          %41 = arith.andi %31, %40 : i1
          scf.if %41 {
            %42 = arith.addi %23, %arg7 : index
            %43 = arith.addi %33, %42 : index
            %44 = memref.load %arg1[%43] : memref<?xf32>
            memref.store %44, %1[%c0, %arg7] : memref<16x16xf32, 5>
          } else {
            memref.store %cst, %1[%c0, %arg7] : memref<16x16xf32, 5>
          }
        }
        scf.for %arg7 = %c0 to %c32 step %c1 {
          %34 = memref.load %5[%arg7] : memref<32xf32, 5>
          %35 = scf.for %arg8 = %c0 to %c16 step %c1 iter_args(%arg9 = %34) -> (f32) {
            %36 = memref.load %3[%c0, %arg8] : memref<16x16xf32, 5>
            %37 = memref.load %1[%arg8, %arg7] : memref<16x16xf32, 5>
            %38 = emitc.mul %36, %37 : (f32, f32) -> f32
            %39 = emitc.add %arg9, %38 : (f32, f32) -> f32
            scf.yield %39 : f32
          }
          memref.store %35, %5[%arg7] : memref<32xf32, 5>
        }
      }
      %24 = arith.muli %14, %arg4 : i32
      %25 = arith.index_cast %24 : i32 to index
      %26 = arith.cmpi slt, %14, %arg3 : i32
      %27 = arith.addi %25, %23 : index
      scf.for %arg6 = %c0 to %c32 step %c1 {
        %28 = arith.index_cast %arg6 : index to i32
        %29 = arith.addi %10, %28 : i32
        %30 = arith.cmpi slt, %29, %arg4 : i32
        %31 = memref.load %5[%arg6] : memref<32xf32, 5>
        %32 = arith.andi %26, %30 : i1
        scf.if %32 {
          %33 = arith.addi %27, %arg6 : index
          memref.store %31, %arg2[%33] : memref<?xf32>
        }
      }
      gpu.return
    }
  }
}
[ict-debug] driver.cc: Before convert to EmitC dialect: end

module attributes {dlti.dl_spec = #dlti.dl_spec<#dlti.dl_entry<!llvm.ptr, dense<64> : vector<4xi32>>, #dlti.dl_entry<i1, dense<8> : vector<2xi32>>, #dlti.dl_entry<i8, dense<8> : vector<2xi32>>, #dlti.dl_entry<i16, dense<16> : vector<2xi32>>, #dlti.dl_entry<f80, dense<128> : vector<2xi32>>, #dlti.dl_entry<!llvm.ptr<270>, dense<32> : vector<4xi32>>, #dlti.dl_entry<i32, dense<32> : vector<2xi32>>, #dlti.dl_entry<i64, dense<64> : vector<2xi32>>, #dlti.dl_entry<f16, dense<16> : vector<2xi32>>, #dlti.dl_entry<!llvm.ptr<272>, dense<64> : vector<4xi32>>, #dlti.dl_entry<!llvm.ptr<271>, dense<32> : vector<4xi32>>, #dlti.dl_entry<f64, dense<64> : vector<2xi32>>, #dlti.dl_entry<f128, dense<128> : vector<2xi32>>, #dlti.dl_entry<"dlti.stack_alignment", 128 : i32>, #dlti.dl_entry<"dlti.endianness", "little">>, llvm.data_layout = "e-m:e-p270:32:32-p271:32:32-p272:64:64-i64:64-f80:128-n8:16:32:64-S128", llvm.target_triple = "x86_64-unknown-linux-gnu", polygeist.gpu_module.llvm.data_layout = "e-i64:64-i128:128-v16:16-v32:32-n16:32:64", polygeist.gpu_module.llvm.target_triple = "nvptx64-nvidia-cuda", "polygeist.target-cpu" = "x86-64", "polygeist.target-features" = "+cmov,+cx8,+fxsr,+mmx,+sse,+sse2,+x87", "polygeist.tune-cpu" = "generic"} {
  gpu.module @_Z13matmul_kernelPKfS0_Pfiii_0 {
    gpu.func @_Z13matmul_kernelPKfS0_Pfiii(%arg0: memref<?xf32>, %arg1: memref<?xf32>, %arg2: memref<?xf32>, %arg3: i32, %arg4: i32, %arg5: i32) {
      %false = arith.constant false
      %c16_i32 = arith.constant 16 : i32
      %cst = arith.constant 0.000000e+00 : f32
      %c16 = arith.constant 16 : index
      %c-1 = arith.constant -1 : index
      %c0 = arith.constant 0 : index
      %c1 = arith.constant 1 : index
      %c32 = arith.constant 32 : index
      %0 = "npu.alloca"() <{numElems = 256 : i32}> : () -> !llvm.ptr<6>
      %1 = builtin.unrealized_conversion_cast %0 : !llvm.ptr<6> to memref<16x16xf32, 5>
      %2 = "npu.alloca"() <{numElems = 256 : i32}> : () -> !llvm.ptr<6>
      %3 = builtin.unrealized_conversion_cast %2 : !llvm.ptr<6> to memref<16x16xf32, 5>
      %4 = "npu.alloca"() <{numElems = 32 : i32}> : () -> !llvm.ptr<6>
      %5 = builtin.unrealized_conversion_cast %4 : !llvm.ptr<6> to memref<32xf32, 5>
      scf.for %arg6 = %c0 to %c32 step %c1 {
        memref.store %cst, %5[%arg6] : memref<32xf32, 5>
      }
      %6 = arith.index_cast %arg5 : i32 to index
      %7 = "npu.block_id"() <{dimension = "X"}> : () -> i64
      %8 = arith.index_cast %7 : i64 to index
      %9 = arith.index_cast %8 : index to i32
      %10 = arith.muli %9, %c16_i32 : i32
      %11 = "npu.block_id"() <{dimension = "Y"}> : () -> i64
      %12 = arith.index_cast %11 : i64 to index
      %13 = arith.index_cast %12 : index to i32
      %14 = arith.muli %13, %c16_i32 : i32
      %15 = arith.muli %14, %arg5 : i32
      %16 = arith.index_cast %15 : i32 to index
      %17 = arith.index_cast %14 : i32 to index
      %18 = arith.index_cast %arg4 : i32 to index
      %19 = arith.index_cast %arg3 : i32 to index
      %20 = arith.subi %19, %17 : index
      %21 = arith.addi %20, %c-1 : index
      %22 = arith.cmpi sge, %21, %c0 : index
      %23 = arith.muli %8, %c16 : index
      scf.for %arg6 = %c0 to %6 step %c16 {
        %28 = arith.index_cast %arg6 : index to i32
        %29 = arith.subi %6, %arg6 : index
        %30 = arith.addi %29, %c-1 : index
        %31 = arith.cmpi sge, %30, %c0 : index
        %32 = arith.addi %arg6, %16 : index
        %33 = arith.muli %arg6, %18 : index
        scf.for %arg7 = %c0 to %c32 step %c1 {
          %34 = arith.index_cast %arg7 : index to i32
          %35 = arith.addi %10, %34 : i32
          %36 = arith.index_cast %35 : i32 to index
          %37 = "emitc.variable"() <{value = #emitc.opaque<"">}> : () -> i1
          emitc.if %22 {
            %42 = arith.addi %28, %34 : i32
            %43 = arith.cmpi slt, %42, %arg5 : i32
            emitc.assign %43 : i1 to %37 : i1
          } else {
            emitc.assign %false : i1 to %37 : i1
          }
          emitc.if %37 {
            %42 = arith.addi %32, %arg7 : index
            %43 = memref.load %arg0[%42] : memref<?xf32>
            memref.store %43, %3[%c0, %arg7] : memref<16x16xf32, 5>
          } else {
            memref.store %cst, %3[%c0, %arg7] : memref<16x16xf32, 5>
          }
          %38 = arith.subi %18, %36 : index
          %39 = arith.addi %38, %c-1 : index
          %40 = arith.cmpi sge, %39, %c0 : index
          %41 = arith.andi %31, %40 : i1
          emitc.if %41 {
            %42 = arith.addi %23, %arg7 : index
            %43 = arith.addi %33, %42 : index
            %44 = memref.load %arg1[%43] : memref<?xf32>
            memref.store %44, %1[%c0, %arg7] : memref<16x16xf32, 5>
          } else {
            memref.store %cst, %1[%c0, %arg7] : memref<16x16xf32, 5>
          }
        }
        scf.for %arg7 = %c0 to %c32 step %c1 {
          %34 = memref.load %5[%arg7] : memref<32xf32, 5>
          %35 = scf.for %arg8 = %c0 to %c16 step %c1 iter_args(%arg9 = %34) -> (f32) {
            %36 = memref.load %3[%c0, %arg8] : memref<16x16xf32, 5>
            %37 = memref.load %1[%arg8, %arg7] : memref<16x16xf32, 5>
            %38 = emitc.mul %36, %37 : (f32, f32) -> f32
            %39 = emitc.add %arg9, %38 : (f32, f32) -> f32
            scf.yield %39 : f32
          }
          memref.store %35, %5[%arg7] : memref<32xf32, 5>
        }
      }
      %24 = arith.muli %14, %arg4 : i32
      %25 = arith.index_cast %24 : i32 to index
      %26 = arith.cmpi slt, %14, %arg3 : i32
      %27 = arith.addi %25, %23 : index
      scf.for %arg6 = %c0 to %c32 step %c1 {
        %28 = arith.index_cast %arg6 : index to i32
        %29 = arith.addi %10, %28 : i32
        %30 = arith.cmpi slt, %29, %arg4 : i32
        %31 = memref.load %5[%arg6] : memref<32xf32, 5>
        %32 = arith.andi %26, %30 : i1
        emitc.if %32 {
          %33 = arith.addi %27, %arg6 : index
          memref.store %31, %arg2[%33] : memref<?xf32>
        }
      }
      gpu.return
    }
  }
}
[ict-debug] driver.cc: After convert to EmitC dialect:

module attributes {dlti.dl_spec = #dlti.dl_spec<#dlti.dl_entry<!llvm.ptr, dense<64> : vector<4xi32>>, #dlti.dl_entry<i1, dense<8> : vector<2xi32>>, #dlti.dl_entry<i8, dense<8> : vector<2xi32>>, #dlti.dl_entry<i16, dense<16> : vector<2xi32>>, #dlti.dl_entry<f80, dense<128> : vector<2xi32>>, #dlti.dl_entry<!llvm.ptr<270>, dense<32> : vector<4xi32>>, #dlti.dl_entry<i32, dense<32> : vector<2xi32>>, #dlti.dl_entry<i64, dense<64> : vector<2xi32>>, #dlti.dl_entry<f16, dense<16> : vector<2xi32>>, #dlti.dl_entry<!llvm.ptr<272>, dense<64> : vector<4xi32>>, #dlti.dl_entry<!llvm.ptr<271>, dense<32> : vector<4xi32>>, #dlti.dl_entry<f64, dense<64> : vector<2xi32>>, #dlti.dl_entry<f128, dense<128> : vector<2xi32>>, #dlti.dl_entry<"dlti.stack_alignment", 128 : i32>, #dlti.dl_entry<"dlti.endianness", "little">>, llvm.data_layout = "e-m:e-p270:32:32-p271:32:32-p272:64:64-i64:64-f80:128-n8:16:32:64-S128", llvm.target_triple = "x86_64-unknown-linux-gnu", polygeist.gpu_module.llvm.data_layout = "e-i64:64-i128:128-v16:16-v32:32-n16:32:64", polygeist.gpu_module.llvm.target_triple = "nvptx64-nvidia-cuda", "polygeist.target-cpu" = "x86-64", "polygeist.target-features" = "+cmov,+cx8,+fxsr,+mmx,+sse,+sse2,+x87", "polygeist.tune-cpu" = "generic"} {
  gpu.module @_Z13matmul_kernelPKfS0_Pfiii_0 {
    gpu.func @_Z13matmul_kernelPKfS0_Pfiii(%arg0: memref<?xf32>, %arg1: memref<?xf32>, %arg2: memref<?xf32>, %arg3: i32, %arg4: i32, %arg5: i32) {
      %false = arith.constant false
      %c16_i32 = arith.constant 16 : i32
      %cst = arith.constant 0.000000e+00 : f32
      %c16 = arith.constant 16 : index
      %c-1 = arith.constant -1 : index
      %c0 = arith.constant 0 : index
      %c1 = arith.constant 1 : index
      %c32 = arith.constant 32 : index
      %0 = "npu.alloca"() <{numElems = 256 : i32}> : () -> !llvm.ptr<6>
      %1 = builtin.unrealized_conversion_cast %0 : !llvm.ptr<6> to memref<16x16xf32, 5>
      %2 = "npu.alloca"() <{numElems = 256 : i32}> : () -> !llvm.ptr<6>
      %3 = builtin.unrealized_conversion_cast %2 : !llvm.ptr<6> to memref<16x16xf32, 5>
      %4 = "npu.alloca"() <{numElems = 32 : i32}> : () -> !llvm.ptr<6>
      %5 = builtin.unrealized_conversion_cast %4 : !llvm.ptr<6> to memref<32xf32, 5>
      scf.for %arg6 = %c0 to %c32 step %c1 {
        memref.store %cst, %5[%arg6] : memref<32xf32, 5>
      }
      %6 = arith.index_cast %arg5 : i32 to index
      %7 = "npu.block_id"() <{dimension = "X"}> : () -> i64
      %8 = arith.index_cast %7 : i64 to index
      %9 = arith.index_cast %8 : index to i32
      %10 = arith.muli %9, %c16_i32 : i32
      %11 = "npu.block_id"() <{dimension = "Y"}> : () -> i64
      %12 = arith.index_cast %11 : i64 to index
      %13 = arith.index_cast %12 : index to i32
      %14 = arith.muli %13, %c16_i32 : i32
      %15 = arith.muli %14, %arg5 : i32
      %16 = arith.index_cast %15 : i32 to index
      %17 = arith.index_cast %14 : i32 to index
      %18 = arith.index_cast %arg4 : i32 to index
      %19 = arith.index_cast %arg3 : i32 to index
      %20 = arith.subi %19, %17 : index
      %21 = arith.addi %20, %c-1 : index
      %22 = arith.cmpi sge, %21, %c0 : index
      %23 = arith.muli %8, %c16 : index
      scf.for %arg6 = %c0 to %6 step %c16 {
        %28 = arith.index_cast %arg6 : index to i32
        %29 = arith.subi %6, %arg6 : index
        %30 = arith.addi %29, %c-1 : index
        %31 = arith.cmpi sge, %30, %c0 : index
        %32 = arith.addi %arg6, %16 : index
        %33 = arith.muli %arg6, %18 : index
        scf.for %arg7 = %c0 to %c32 step %c1 {
          %34 = arith.index_cast %arg7 : index to i32
          %35 = arith.addi %10, %34 : i32
          %36 = arith.index_cast %35 : i32 to index
          %37 = "emitc.variable"() <{value = #emitc.opaque<"">}> : () -> i1
          emitc.if %22 {
            %42 = arith.addi %28, %34 : i32
            %43 = arith.cmpi slt, %42, %arg5 : i32
            emitc.assign %43 : i1 to %37 : i1
          } else {
            emitc.assign %false : i1 to %37 : i1
          }
          emitc.if %37 {
            %42 = arith.addi %32, %arg7 : index
            %43 = memref.load %arg0[%42] : memref<?xf32>
            memref.store %43, %3[%c0, %arg7] : memref<16x16xf32, 5>
          } else {
            memref.store %cst, %3[%c0, %arg7] : memref<16x16xf32, 5>
          }
          %38 = arith.subi %18, %36 : index
          %39 = arith.addi %38, %c-1 : index
          %40 = arith.cmpi sge, %39, %c0 : index
          %41 = arith.andi %31, %40 : i1
          emitc.if %41 {
            %42 = arith.addi %23, %arg7 : index
            %43 = arith.addi %33, %42 : index
            %44 = memref.load %arg1[%43] : memref<?xf32>
            memref.store %44, %1[%c0, %arg7] : memref<16x16xf32, 5>
          } else {
            memref.store %cst, %1[%c0, %arg7] : memref<16x16xf32, 5>
          }
        }
        scf.for %arg7 = %c0 to %c32 step %c1 {
          %34 = memref.load %5[%arg7] : memref<32xf32, 5>
          %35 = scf.for %arg8 = %c0 to %c16 step %c1 iter_args(%arg9 = %34) -> (f32) {
            %36 = memref.load %3[%c0, %arg8] : memref<16x16xf32, 5>
            %37 = memref.load %1[%arg8, %arg7] : memref<16x16xf32, 5>
            %38 = emitc.mul %36, %37 : (f32, f32) -> f32
            %39 = emitc.add %arg9, %38 : (f32, f32) -> f32
            scf.yield %39 : f32
          }
          memref.store %35, %5[%arg7] : memref<32xf32, 5>
        }
      }
      %24 = arith.muli %14, %arg4 : i32
      %25 = arith.index_cast %24 : i32 to index
      %26 = arith.cmpi slt, %14, %arg3 : i32
      %27 = arith.addi %25, %23 : index
      scf.for %arg6 = %c0 to %c32 step %c1 {
        %28 = arith.index_cast %arg6 : index to i32
        %29 = arith.addi %10, %28 : i32
        %30 = arith.cmpi slt, %29, %arg4 : i32
        %31 = memref.load %5[%arg6] : memref<32xf32, 5>
        %32 = arith.andi %26, %30 : i1
        emitc.if %32 {
          %33 = arith.addi %27, %arg6 : index
          memref.store %31, %arg2[%33] : memref<?xf32>
        }
      }
      gpu.return
    }
  }
}
[ict-debug] driver.cc: After convert to EmitC dialect: end

[ict-debug] driver.cc: After emitc::translateToCpp:

