warning: CUDA version 12.1 is only partially supported
warning: CUDA version 12.1 is only partially supported
[ict-debug] driver.cc: After return 5, module:

module attributes {dlti.dl_spec = #dlti.dl_spec<#dlti.dl_entry<f80, dense<128> : vector<2xi32>>, #dlti.dl_entry<i64, dense<64> : vector<2xi32>>, #dlti.dl_entry<!llvm.ptr, dense<64> : vector<4xi32>>, #dlti.dl_entry<!llvm.ptr<272>, dense<64> : vector<4xi32>>, #dlti.dl_entry<i1, dense<8> : vector<2xi32>>, #dlti.dl_entry<!llvm.ptr<271>, dense<32> : vector<4xi32>>, #dlti.dl_entry<i8, dense<8> : vector<2xi32>>, #dlti.dl_entry<!llvm.ptr<270>, dense<32> : vector<4xi32>>, #dlti.dl_entry<i16, dense<16> : vector<2xi32>>, #dlti.dl_entry<i32, dense<32> : vector<2xi32>>, #dlti.dl_entry<f16, dense<16> : vector<2xi32>>, #dlti.dl_entry<f64, dense<64> : vector<2xi32>>, #dlti.dl_entry<f128, dense<128> : vector<2xi32>>, #dlti.dl_entry<"dlti.stack_alignment", 128 : i32>, #dlti.dl_entry<"dlti.endianness", "little">>, llvm.data_layout = "e-m:e-p270:32:32-p271:32:32-p272:64:64-i64:64-f80:128-n8:16:32:64-S128", llvm.target_triple = "x86_64-unknown-linux-gnu", polygeist.gpu_module.llvm.data_layout = "e-i64:64-i128:128-v16:16-v32:32-n16:32:64", polygeist.gpu_module.llvm.target_triple = "nvptx64-nvidia-cuda", "polygeist.target-cpu" = "x86-64", "polygeist.target-features" = "+cmov,+cx8,+fxsr,+mmx,+sse,+sse2,+x87", "polygeist.tune-cpu" = "generic"} {
  func.func private @_Z28__device_stub__kl_div_kernelPKfS0_Pfii(%arg0: memref<?xf32>, %arg1: memref<?xf32>, %arg2: memref<?xf32>, %arg3: i32, %arg4: i32) attributes {llvm.linkage = #llvm.linkage<external>, polygeist.device_only_func = "1"} {
    call @_Z13kl_div_kernelPKfS0_Pfii(%arg0, %arg1, %arg2, %arg3, %arg4) : (memref<?xf32>, memref<?xf32>, memref<?xf32>, i32, i32) -> ()
    return
  }
  func.func private @_Z13kl_div_kernelPKfS0_Pfii(%arg0: memref<?xf32>, %arg1: memref<?xf32>, %arg2: memref<?xf32>, %arg3: i32, %arg4: i32) attributes {llvm.linkage = #llvm.linkage<external>, polygeist.device_only_func = "1"} {
    %0 = gpu.block_id  x
    %1 = arith.index_cast %0 : index to i32
    %2 = gpu.block_dim  x
    %3 = arith.index_cast %2 : index to i32
    %4 = arith.muli %1, %3 : i32
    %5 = gpu.thread_id  x
    %6 = arith.index_cast %5 : index to i32
    %7 = arith.addi %4, %6 : i32
    %8 = arith.index_cast %7 : i32 to index
    %9 = arith.muli %arg3, %arg4 : i32
    %10 = arith.cmpi slt, %7, %9 : i32
    scf.if %10 {
      %11 = affine.load %arg0[symbol(%8)] : memref<?xf32>
      %12 = affine.load %arg1[symbol(%8)] : memref<?xf32>
      %13 = math.log %12 : f32
      %14 = arith.subf %13, %11 : f32
      %15 = arith.mulf %12, %14 : f32
      affine.store %15, %arg2[symbol(%8)] : memref<?xf32>
    }
    return
  }
}
[ict-debug] driver.cc: After return 5, module: end

[ict-debug] driver.cc: After return 6, module:

module attributes {dlti.dl_spec = #dlti.dl_spec<#dlti.dl_entry<f80, dense<128> : vector<2xi32>>, #dlti.dl_entry<i64, dense<64> : vector<2xi32>>, #dlti.dl_entry<!llvm.ptr, dense<64> : vector<4xi32>>, #dlti.dl_entry<!llvm.ptr<272>, dense<64> : vector<4xi32>>, #dlti.dl_entry<i1, dense<8> : vector<2xi32>>, #dlti.dl_entry<!llvm.ptr<271>, dense<32> : vector<4xi32>>, #dlti.dl_entry<i8, dense<8> : vector<2xi32>>, #dlti.dl_entry<!llvm.ptr<270>, dense<32> : vector<4xi32>>, #dlti.dl_entry<i16, dense<16> : vector<2xi32>>, #dlti.dl_entry<i32, dense<32> : vector<2xi32>>, #dlti.dl_entry<f16, dense<16> : vector<2xi32>>, #dlti.dl_entry<f64, dense<64> : vector<2xi32>>, #dlti.dl_entry<f128, dense<128> : vector<2xi32>>, #dlti.dl_entry<"dlti.stack_alignment", 128 : i32>, #dlti.dl_entry<"dlti.endianness", "little">>, llvm.data_layout = "e-m:e-p270:32:32-p271:32:32-p272:64:64-i64:64-f80:128-n8:16:32:64-S128", llvm.target_triple = "x86_64-unknown-linux-gnu", polygeist.gpu_module.llvm.data_layout = "e-i64:64-i128:128-v16:16-v32:32-n16:32:64", polygeist.gpu_module.llvm.target_triple = "nvptx64-nvidia-cuda", "polygeist.target-cpu" = "x86-64", "polygeist.target-features" = "+cmov,+cx8,+fxsr,+mmx,+sse,+sse2,+x87", "polygeist.tune-cpu" = "generic"} {
  func.func private @_Z13kl_div_kernelPKfS0_Pfii(%arg0: memref<?xf32>, %arg1: memref<?xf32>, %arg2: memref<?xf32>, %arg3: i32, %arg4: i32) attributes {llvm.linkage = #llvm.linkage<external>, polygeist.device_only_func = "1"} {
    %0 = gpu.block_id  x
    %1 = arith.index_cast %0 : index to i32
    %2 = gpu.block_dim  x
    %3 = arith.index_cast %2 : index to i32
    %4 = arith.muli %1, %3 : i32
    %5 = gpu.thread_id  x
    %6 = arith.index_cast %5 : index to i32
    %7 = arith.addi %4, %6 : i32
    %8 = arith.index_cast %7 : i32 to index
    %9 = arith.muli %arg3, %arg4 : i32
    %10 = arith.cmpi slt, %7, %9 : i32
    scf.if %10 {
      %11 = affine.load %arg0[symbol(%8)] : memref<?xf32>
      %12 = affine.load %arg1[symbol(%8)] : memref<?xf32>
      %13 = math.log %12 : f32
      %14 = arith.subf %13, %11 : f32
      %15 = arith.mulf %12, %14 : f32
      affine.store %15, %arg2[symbol(%8)] : memref<?xf32>
    }
    return
  }
}
[ict-debug] driver.cc: After return 6, module: end

WrapAndReplaceBarrierPass::runOnOperation(): before execute: 
module attributes {dlti.dl_spec = #dlti.dl_spec<#dlti.dl_entry<f80, dense<128> : vector<2xi32>>, #dlti.dl_entry<i64, dense<64> : vector<2xi32>>, #dlti.dl_entry<!llvm.ptr, dense<64> : vector<4xi32>>, #dlti.dl_entry<!llvm.ptr<272>, dense<64> : vector<4xi32>>, #dlti.dl_entry<i1, dense<8> : vector<2xi32>>, #dlti.dl_entry<!llvm.ptr<271>, dense<32> : vector<4xi32>>, #dlti.dl_entry<i8, dense<8> : vector<2xi32>>, #dlti.dl_entry<!llvm.ptr<270>, dense<32> : vector<4xi32>>, #dlti.dl_entry<i16, dense<16> : vector<2xi32>>, #dlti.dl_entry<i32, dense<32> : vector<2xi32>>, #dlti.dl_entry<f16, dense<16> : vector<2xi32>>, #dlti.dl_entry<f64, dense<64> : vector<2xi32>>, #dlti.dl_entry<f128, dense<128> : vector<2xi32>>, #dlti.dl_entry<"dlti.stack_alignment", 128 : i32>, #dlti.dl_entry<"dlti.endianness", "little">>, llvm.data_layout = "e-m:e-p270:32:32-p271:32:32-p272:64:64-i64:64-f80:128-n8:16:32:64-S128", llvm.target_triple = "x86_64-unknown-linux-gnu", polygeist.gpu_module.llvm.data_layout = "e-i64:64-i128:128-v16:16-v32:32-n16:32:64", polygeist.gpu_module.llvm.target_triple = "nvptx64-nvidia-cuda", "polygeist.target-cpu" = "x86-64", "polygeist.target-features" = "+cmov,+cx8,+fxsr,+mmx,+sse,+sse2,+x87", "polygeist.tune-cpu" = "generic"} {
  func.func private @_Z13kl_div_kernelPKfS0_Pfii(%arg0: memref<?xf32>, %arg1: memref<?xf32>, %arg2: memref<?xf32>, %arg3: i32, %arg4: i32) attributes {llvm.linkage = #llvm.linkage<external>, polygeist.device_only_func = "1"} {
    %0 = gpu.block_id  x
    %1 = arith.index_cast %0 : index to i32
    %2 = gpu.block_dim  x
    %3 = arith.index_cast %2 : index to i32
    %4 = arith.muli %1, %3 : i32
    %5 = gpu.thread_id  x
    %6 = arith.index_cast %5 : index to i32
    %7 = arith.addi %4, %6 : i32
    %8 = arith.index_cast %7 : i32 to index
    %9 = arith.muli %arg3, %arg4 : i32
    %10 = arith.cmpi slt, %7, %9 : i32
    scf.if %10 {
      %11 = memref.load %arg0[%8] : memref<?xf32>
      %12 = memref.load %arg1[%8] : memref<?xf32>
      %13 = math.log %12 : f32
      %14 = arith.subf %13, %11 : f32
      %15 = arith.mulf %12, %14 : f32
      memref.store %15, %arg2[%8] : memref<?xf32>
    }
    return
  }
}
WrapAndReplaceBarrierPass::runOnOperation(): before execute: end
WrapAndReplaceBarrierPass::runOnOperation(): after execute: 
module attributes {dlti.dl_spec = #dlti.dl_spec<#dlti.dl_entry<f80, dense<128> : vector<2xi32>>, #dlti.dl_entry<i64, dense<64> : vector<2xi32>>, #dlti.dl_entry<!llvm.ptr, dense<64> : vector<4xi32>>, #dlti.dl_entry<!llvm.ptr<272>, dense<64> : vector<4xi32>>, #dlti.dl_entry<i1, dense<8> : vector<2xi32>>, #dlti.dl_entry<!llvm.ptr<271>, dense<32> : vector<4xi32>>, #dlti.dl_entry<i8, dense<8> : vector<2xi32>>, #dlti.dl_entry<!llvm.ptr<270>, dense<32> : vector<4xi32>>, #dlti.dl_entry<i16, dense<16> : vector<2xi32>>, #dlti.dl_entry<i32, dense<32> : vector<2xi32>>, #dlti.dl_entry<f16, dense<16> : vector<2xi32>>, #dlti.dl_entry<f64, dense<64> : vector<2xi32>>, #dlti.dl_entry<f128, dense<128> : vector<2xi32>>, #dlti.dl_entry<"dlti.stack_alignment", 128 : i32>, #dlti.dl_entry<"dlti.endianness", "little">>, llvm.data_layout = "e-m:e-p270:32:32-p271:32:32-p272:64:64-i64:64-f80:128-n8:16:32:64-S128", llvm.target_triple = "x86_64-unknown-linux-gnu", polygeist.gpu_module.llvm.data_layout = "e-i64:64-i128:128-v16:16-v32:32-n16:32:64", polygeist.gpu_module.llvm.target_triple = "nvptx64-nvidia-cuda", "polygeist.target-cpu" = "x86-64", "polygeist.target-features" = "+cmov,+cx8,+fxsr,+mmx,+sse,+sse2,+x87", "polygeist.tune-cpu" = "generic"} {
  func.func @_Z13kl_div_kernelPKfS0_Pfii(%arg0: memref<?xf32>, %arg1: memref<?xf32>, %arg2: memref<?xf32>, %arg3: i32, %arg4: i32) attributes {llvm.linkage = #llvm.linkage<external>, polygeist.device_only_func = "1"} {
    %c0 = arith.constant 0 : index
    %c1 = arith.constant 1 : index
    %c32 = arith.constant 32 : index
    scf.parallel (%arg5) = (%c0) to (%c32) step (%c1) {
      %0 = gpu.block_id  x
      %1 = arith.index_cast %0 : index to i32
      %2 = gpu.block_dim  x
      %3 = arith.index_cast %2 : index to i32
      %4 = arith.muli %1, %3 : i32
      %5 = arith.index_cast %arg5 : index to i32
      %6 = arith.addi %4, %5 : i32
      %7 = arith.index_cast %6 : i32 to index
      %8 = arith.muli %arg3, %arg4 : i32
      %9 = arith.cmpi slt, %6, %8 : i32
      scf.if %9 {
        %10 = memref.load %arg0[%7] : memref<?xf32>
        %11 = memref.load %arg1[%7] : memref<?xf32>
        %12 = math.log %11 : f32
        %13 = arith.subf %12, %10 : f32
        %14 = arith.mulf %11, %13 : f32
        memref.store %14, %arg2[%7] : memref<?xf32>
      }
      scf.yield
    }
    return
  }
}
WrapAndReplaceBarrierPass::runOnOperation(): after execute: end
[ict-debug] driver.cc: After return 7, module:

module attributes {dlti.dl_spec = #dlti.dl_spec<#dlti.dl_entry<f80, dense<128> : vector<2xi32>>, #dlti.dl_entry<i64, dense<64> : vector<2xi32>>, #dlti.dl_entry<!llvm.ptr, dense<64> : vector<4xi32>>, #dlti.dl_entry<!llvm.ptr<272>, dense<64> : vector<4xi32>>, #dlti.dl_entry<i1, dense<8> : vector<2xi32>>, #dlti.dl_entry<!llvm.ptr<271>, dense<32> : vector<4xi32>>, #dlti.dl_entry<i8, dense<8> : vector<2xi32>>, #dlti.dl_entry<!llvm.ptr<270>, dense<32> : vector<4xi32>>, #dlti.dl_entry<i16, dense<16> : vector<2xi32>>, #dlti.dl_entry<i32, dense<32> : vector<2xi32>>, #dlti.dl_entry<f16, dense<16> : vector<2xi32>>, #dlti.dl_entry<f64, dense<64> : vector<2xi32>>, #dlti.dl_entry<f128, dense<128> : vector<2xi32>>, #dlti.dl_entry<"dlti.stack_alignment", 128 : i32>, #dlti.dl_entry<"dlti.endianness", "little">>, llvm.data_layout = "e-m:e-p270:32:32-p271:32:32-p272:64:64-i64:64-f80:128-n8:16:32:64-S128", llvm.target_triple = "x86_64-unknown-linux-gnu", polygeist.gpu_module.llvm.data_layout = "e-i64:64-i128:128-v16:16-v32:32-n16:32:64", polygeist.gpu_module.llvm.target_triple = "nvptx64-nvidia-cuda", "polygeist.target-cpu" = "x86-64", "polygeist.target-features" = "+cmov,+cx8,+fxsr,+mmx,+sse,+sse2,+x87", "polygeist.tune-cpu" = "generic"} {
  func.func @_Z13kl_div_kernelPKfS0_Pfii(%arg0: memref<?xf32>, %arg1: memref<?xf32>, %arg2: memref<?xf32>, %arg3: i32, %arg4: i32) attributes {llvm.linkage = #llvm.linkage<external>, polygeist.device_only_func = "1"} {
    %c0 = arith.constant 0 : index
    %c1 = arith.constant 1 : index
    %c32 = arith.constant 32 : index
    scf.parallel (%arg5) = (%c0) to (%c32) step (%c1) {
      %0 = gpu.block_id  x
      %1 = arith.index_cast %0 : index to i32
      %2 = gpu.block_dim  x
      %3 = arith.index_cast %2 : index to i32
      %4 = arith.muli %1, %3 : i32
      %5 = arith.index_cast %arg5 : index to i32
      %6 = arith.addi %4, %5 : i32
      %7 = arith.index_cast %6 : i32 to index
      %8 = arith.muli %arg3, %arg4 : i32
      %9 = arith.cmpi slt, %6, %8 : i32
      scf.if %9 {
        %10 = memref.load %arg0[%7] : memref<?xf32>
        %11 = memref.load %arg1[%7] : memref<?xf32>
        %12 = math.log %11 : f32
        %13 = arith.subf %12, %10 : f32
        %14 = arith.mulf %11, %13 : f32
        memref.store %14, %arg2[%7] : memref<?xf32>
      }
      scf.yield
    }
    return
  }
}
[ict-debug] driver.cc: After return 7, module: end

[ict-debug] driver.cc: Before my pass process:

module attributes {dlti.dl_spec = #dlti.dl_spec<#dlti.dl_entry<f80, dense<128> : vector<2xi32>>, #dlti.dl_entry<i64, dense<64> : vector<2xi32>>, #dlti.dl_entry<!llvm.ptr, dense<64> : vector<4xi32>>, #dlti.dl_entry<!llvm.ptr<272>, dense<64> : vector<4xi32>>, #dlti.dl_entry<i1, dense<8> : vector<2xi32>>, #dlti.dl_entry<!llvm.ptr<271>, dense<32> : vector<4xi32>>, #dlti.dl_entry<i8, dense<8> : vector<2xi32>>, #dlti.dl_entry<!llvm.ptr<270>, dense<32> : vector<4xi32>>, #dlti.dl_entry<i16, dense<16> : vector<2xi32>>, #dlti.dl_entry<i32, dense<32> : vector<2xi32>>, #dlti.dl_entry<f16, dense<16> : vector<2xi32>>, #dlti.dl_entry<f64, dense<64> : vector<2xi32>>, #dlti.dl_entry<f128, dense<128> : vector<2xi32>>, #dlti.dl_entry<"dlti.stack_alignment", 128 : i32>, #dlti.dl_entry<"dlti.endianness", "little">>, llvm.data_layout = "e-m:e-p270:32:32-p271:32:32-p272:64:64-i64:64-f80:128-n8:16:32:64-S128", llvm.target_triple = "x86_64-unknown-linux-gnu", polygeist.gpu_module.llvm.data_layout = "e-i64:64-i128:128-v16:16-v32:32-n16:32:64", polygeist.gpu_module.llvm.target_triple = "nvptx64-nvidia-cuda", "polygeist.target-cpu" = "x86-64", "polygeist.target-features" = "+cmov,+cx8,+fxsr,+mmx,+sse,+sse2,+x87", "polygeist.tune-cpu" = "generic"} {
  func.func @_Z13kl_div_kernelPKfS0_Pfii(%arg0: memref<?xf32>, %arg1: memref<?xf32>, %arg2: memref<?xf32>, %arg3: i32, %arg4: i32) attributes {llvm.linkage = #llvm.linkage<external>, polygeist.device_only_func = "1"} {
    %c0 = arith.constant 0 : index
    %c1 = arith.constant 1 : index
    %c32 = arith.constant 32 : index
    %0 = gpu.block_id  x
    %1 = arith.index_cast %0 : index to i32
    %2 = gpu.block_dim  x
    %3 = arith.index_cast %2 : index to i32
    %4 = arith.muli %1, %3 : i32
    %5 = arith.muli %arg3, %arg4 : i32
    scf.parallel (%arg5) = (%c0) to (%c32) step (%c1) {
      %6 = arith.index_cast %arg5 : index to i32
      %7 = arith.addi %4, %6 : i32
      %8 = arith.index_cast %7 : i32 to index
      %9 = arith.cmpi slt, %7, %5 : i32
      scf.if %9 {
        %10 = memref.load %arg0[%8] : memref<?xf32>
        %11 = memref.load %arg1[%8] : memref<?xf32>
        %12 = math.log %11 : f32
        %13 = arith.subf %12, %10 : f32
        %14 = arith.mulf %11, %13 : f32
        memref.store %14, %arg2[%8] : memref<?xf32>
      }
      scf.yield
    }
    return
  }
}
[ict-debug] driver.cc: Before my pass process: end

[ict-debug] driver.cc: vectorizeSize = 1

[ict-debug] ConvertPolygeistToNPUPass::runOnOperation(): Before execute:

module attributes {dlti.dl_spec = #dlti.dl_spec<#dlti.dl_entry<f80, dense<128> : vector<2xi32>>, #dlti.dl_entry<i64, dense<64> : vector<2xi32>>, #dlti.dl_entry<!llvm.ptr, dense<64> : vector<4xi32>>, #dlti.dl_entry<!llvm.ptr<272>, dense<64> : vector<4xi32>>, #dlti.dl_entry<i1, dense<8> : vector<2xi32>>, #dlti.dl_entry<!llvm.ptr<271>, dense<32> : vector<4xi32>>, #dlti.dl_entry<i8, dense<8> : vector<2xi32>>, #dlti.dl_entry<!llvm.ptr<270>, dense<32> : vector<4xi32>>, #dlti.dl_entry<i16, dense<16> : vector<2xi32>>, #dlti.dl_entry<i32, dense<32> : vector<2xi32>>, #dlti.dl_entry<f16, dense<16> : vector<2xi32>>, #dlti.dl_entry<f64, dense<64> : vector<2xi32>>, #dlti.dl_entry<f128, dense<128> : vector<2xi32>>, #dlti.dl_entry<"dlti.stack_alignment", 128 : i32>, #dlti.dl_entry<"dlti.endianness", "little">>, llvm.data_layout = "e-m:e-p270:32:32-p271:32:32-p272:64:64-i64:64-f80:128-n8:16:32:64-S128", llvm.target_triple = "x86_64-unknown-linux-gnu", polygeist.gpu_module.llvm.data_layout = "e-i64:64-i128:128-v16:16-v32:32-n16:32:64", polygeist.gpu_module.llvm.target_triple = "nvptx64-nvidia-cuda", "polygeist.target-cpu" = "x86-64", "polygeist.target-features" = "+cmov,+cx8,+fxsr,+mmx,+sse,+sse2,+x87", "polygeist.tune-cpu" = "generic"} {
  gpu.module @_Z13kl_div_kernelPKfS0_Pfii_0 {
    gpu.func @_Z13kl_div_kernelPKfS0_Pfii(%arg0: memref<?xf32>, %arg1: memref<?xf32>, %arg2: memref<?xf32>, %arg3: i32, %arg4: i32) {
      %c0 = arith.constant 0 : index
      %c1 = arith.constant 1 : index
      %c32 = arith.constant 32 : index
      %0 = gpu.block_id  x
      %1 = arith.index_cast %0 : index to i32
      %2 = gpu.block_dim  x
      %3 = arith.index_cast %2 : index to i32
      %4 = arith.muli %1, %3 : i32
      %5 = arith.muli %arg3, %arg4 : i32
      scf.parallel (%arg5) = (%c0) to (%c32) step (%c1) {
        %6 = arith.index_cast %arg5 : index to i32
        %7 = arith.addi %4, %6 : i32
        %8 = arith.index_cast %7 : i32 to index
        %9 = arith.cmpi slt, %7, %5 : i32
        scf.if %9 {
          %10 = memref.load %arg0[%8] : memref<?xf32>
          %11 = memref.load %arg1[%8] : memref<?xf32>
          %12 = math.log %11 : f32
          %13 = arith.subf %12, %10 : f32
          %14 = arith.mulf %11, %13 : f32
          memref.store %14, %arg2[%8] : memref<?xf32>
        }
        scf.yield
      }
      gpu.return
    }
  }
}
[ict-debug] ConvertPolygeistToNPUPass::runOnOperation(): Before execute: end

[ict-debug] ConvertPolygeistToNPU:convertScfParallelToScfFor(): replace gpu.block_dim op with thread loop bound

[ict-debug] ConvertPolygeistToNPUPass::runOnOperation(): After vectorize:

module attributes {dlti.dl_spec = #dlti.dl_spec<#dlti.dl_entry<f80, dense<128> : vector<2xi32>>, #dlti.dl_entry<i64, dense<64> : vector<2xi32>>, #dlti.dl_entry<!llvm.ptr, dense<64> : vector<4xi32>>, #dlti.dl_entry<!llvm.ptr<272>, dense<64> : vector<4xi32>>, #dlti.dl_entry<i1, dense<8> : vector<2xi32>>, #dlti.dl_entry<!llvm.ptr<271>, dense<32> : vector<4xi32>>, #dlti.dl_entry<i8, dense<8> : vector<2xi32>>, #dlti.dl_entry<!llvm.ptr<270>, dense<32> : vector<4xi32>>, #dlti.dl_entry<i16, dense<16> : vector<2xi32>>, #dlti.dl_entry<i32, dense<32> : vector<2xi32>>, #dlti.dl_entry<f16, dense<16> : vector<2xi32>>, #dlti.dl_entry<f64, dense<64> : vector<2xi32>>, #dlti.dl_entry<f128, dense<128> : vector<2xi32>>, #dlti.dl_entry<"dlti.stack_alignment", 128 : i32>, #dlti.dl_entry<"dlti.endianness", "little">>, llvm.data_layout = "e-m:e-p270:32:32-p271:32:32-p272:64:64-i64:64-f80:128-n8:16:32:64-S128", llvm.target_triple = "x86_64-unknown-linux-gnu", polygeist.gpu_module.llvm.data_layout = "e-i64:64-i128:128-v16:16-v32:32-n16:32:64", polygeist.gpu_module.llvm.target_triple = "nvptx64-nvidia-cuda", "polygeist.target-cpu" = "x86-64", "polygeist.target-features" = "+cmov,+cx8,+fxsr,+mmx,+sse,+sse2,+x87", "polygeist.tune-cpu" = "generic"} {
  gpu.module @_Z13kl_div_kernelPKfS0_Pfii_0 {
    gpu.func @_Z13kl_div_kernelPKfS0_Pfii(%arg0: memref<?xf32>, %arg1: memref<?xf32>, %arg2: memref<?xf32>, %arg3: i32, %arg4: i32) {
      %c0 = arith.constant 0 : index
      %c1 = arith.constant 1 : index
      %c32 = arith.constant 32 : index
      %0 = gpu.block_id  x
      %1 = arith.index_cast %0 : index to i32
      %c32_0 = arith.constant 32 : index
      %2 = arith.index_cast %c32_0 : index to i32
      %3 = arith.muli %1, %2 : i32
      %4 = arith.muli %arg3, %arg4 : i32
      %c1_1 = arith.constant 1 : index
      scf.for %arg5 = %c0 to %c32 step %c1_1 {
        %5 = arith.index_cast %arg5 : index to i32
        %6 = arith.addi %3, %5 : i32
        %7 = arith.index_cast %6 : i32 to index
        %8 = arith.cmpi slt, %6, %4 : i32
        scf.if %8 {
          %9 = memref.load %arg0[%7] : memref<?xf32>
          %10 = memref.load %arg1[%7] : memref<?xf32>
          %11 = math.log %10 : f32
          %12 = arith.subf %11, %9 : f32
          %13 = arith.mulf %10, %12 : f32
          memref.store %13, %arg2[%7] : memref<?xf32>
        }
      }
      gpu.return
    }
  }
}
[ict-debug] ConvertPolygeistToNPUPass::runOnOperation(): After vectorize: end

[ict-debug] GPUBlockIdToNPULowering: process op: 

%0 = gpu.block_id  x
[ict-debug] ConvertPolygeistToNPUPass::runOnOperation(): After convert to NPU:

module attributes {dlti.dl_spec = #dlti.dl_spec<#dlti.dl_entry<f80, dense<128> : vector<2xi32>>, #dlti.dl_entry<i64, dense<64> : vector<2xi32>>, #dlti.dl_entry<!llvm.ptr, dense<64> : vector<4xi32>>, #dlti.dl_entry<!llvm.ptr<272>, dense<64> : vector<4xi32>>, #dlti.dl_entry<i1, dense<8> : vector<2xi32>>, #dlti.dl_entry<!llvm.ptr<271>, dense<32> : vector<4xi32>>, #dlti.dl_entry<i8, dense<8> : vector<2xi32>>, #dlti.dl_entry<!llvm.ptr<270>, dense<32> : vector<4xi32>>, #dlti.dl_entry<i16, dense<16> : vector<2xi32>>, #dlti.dl_entry<i32, dense<32> : vector<2xi32>>, #dlti.dl_entry<f16, dense<16> : vector<2xi32>>, #dlti.dl_entry<f64, dense<64> : vector<2xi32>>, #dlti.dl_entry<f128, dense<128> : vector<2xi32>>, #dlti.dl_entry<"dlti.stack_alignment", 128 : i32>, #dlti.dl_entry<"dlti.endianness", "little">>, llvm.data_layout = "e-m:e-p270:32:32-p271:32:32-p272:64:64-i64:64-f80:128-n8:16:32:64-S128", llvm.target_triple = "x86_64-unknown-linux-gnu", polygeist.gpu_module.llvm.data_layout = "e-i64:64-i128:128-v16:16-v32:32-n16:32:64", polygeist.gpu_module.llvm.target_triple = "nvptx64-nvidia-cuda", "polygeist.target-cpu" = "x86-64", "polygeist.target-features" = "+cmov,+cx8,+fxsr,+mmx,+sse,+sse2,+x87", "polygeist.tune-cpu" = "generic"} {
  gpu.module @_Z13kl_div_kernelPKfS0_Pfii_0 {
    gpu.func @_Z13kl_div_kernelPKfS0_Pfii(%arg0: memref<?xf32>, %arg1: memref<?xf32>, %arg2: memref<?xf32>, %arg3: i32, %arg4: i32) {
      %c0 = arith.constant 0 : index
      %c1 = arith.constant 1 : index
      %c32 = arith.constant 32 : index
      %0 = "npu.block_id"() <{dimension = "X"}> : () -> i64
      %1 = arith.index_cast %0 : i64 to index
      %2 = builtin.unrealized_conversion_cast %0 : i64 to index
      %3 = arith.index_cast %1 : index to i32
      %c32_0 = arith.constant 32 : index
      %4 = arith.index_cast %c32_0 : index to i32
      %5 = arith.muli %3, %4 : i32
      %6 = arith.muli %arg3, %arg4 : i32
      %c1_1 = arith.constant 1 : index
      scf.for %arg5 = %c0 to %c32 step %c1_1 {
        %7 = arith.index_cast %arg5 : index to i32
        %8 = arith.addi %5, %7 : i32
        %9 = arith.index_cast %8 : i32 to index
        %10 = arith.cmpi slt, %8, %6 : i32
        scf.if %10 {
          %11 = memref.load %arg0[%9] : memref<?xf32>
          %12 = memref.load %arg1[%9] : memref<?xf32>
          %13 = math.log %12 : f32
          %14 = emitc.sub %13, %11 : (f32, f32) -> f32
          %15 = emitc.mul %12, %14 : (f32, f32) -> f32
          memref.store %15, %arg2[%9] : memref<?xf32>
        }
      }
      gpu.return
    }
  }
}
[ict-debug] ConvertPolygeistToNPUPass::runOnOperation(): After convert to NPU: end

[ict-debug] driver.cc: Before convert to EmitC dialect:

module attributes {dlti.dl_spec = #dlti.dl_spec<#dlti.dl_entry<f80, dense<128> : vector<2xi32>>, #dlti.dl_entry<i64, dense<64> : vector<2xi32>>, #dlti.dl_entry<!llvm.ptr, dense<64> : vector<4xi32>>, #dlti.dl_entry<!llvm.ptr<272>, dense<64> : vector<4xi32>>, #dlti.dl_entry<i1, dense<8> : vector<2xi32>>, #dlti.dl_entry<!llvm.ptr<271>, dense<32> : vector<4xi32>>, #dlti.dl_entry<i8, dense<8> : vector<2xi32>>, #dlti.dl_entry<!llvm.ptr<270>, dense<32> : vector<4xi32>>, #dlti.dl_entry<i16, dense<16> : vector<2xi32>>, #dlti.dl_entry<i32, dense<32> : vector<2xi32>>, #dlti.dl_entry<f16, dense<16> : vector<2xi32>>, #dlti.dl_entry<f64, dense<64> : vector<2xi32>>, #dlti.dl_entry<f128, dense<128> : vector<2xi32>>, #dlti.dl_entry<"dlti.stack_alignment", 128 : i32>, #dlti.dl_entry<"dlti.endianness", "little">>, llvm.data_layout = "e-m:e-p270:32:32-p271:32:32-p272:64:64-i64:64-f80:128-n8:16:32:64-S128", llvm.target_triple = "x86_64-unknown-linux-gnu", polygeist.gpu_module.llvm.data_layout = "e-i64:64-i128:128-v16:16-v32:32-n16:32:64", polygeist.gpu_module.llvm.target_triple = "nvptx64-nvidia-cuda", "polygeist.target-cpu" = "x86-64", "polygeist.target-features" = "+cmov,+cx8,+fxsr,+mmx,+sse,+sse2,+x87", "polygeist.tune-cpu" = "generic"} {
  gpu.module @_Z13kl_div_kernelPKfS0_Pfii_0 {
    gpu.func @_Z13kl_div_kernelPKfS0_Pfii(%arg0: memref<?xf32>, %arg1: memref<?xf32>, %arg2: memref<?xf32>, %arg3: i32, %arg4: i32) {
      %c32_i32 = arith.constant 32 : i32
      %c0 = arith.constant 0 : index
      %c1 = arith.constant 1 : index
      %c32 = arith.constant 32 : index
      %0 = "npu.block_id"() <{dimension = "X"}> : () -> i64
      %1 = arith.index_cast %0 : i64 to index
      %2 = arith.index_cast %1 : index to i32
      %3 = arith.muli %2, %c32_i32 : i32
      %4 = arith.muli %arg3, %arg4 : i32
      scf.for %arg5 = %c0 to %c32 step %c1 {
        %5 = arith.index_cast %arg5 : index to i32
        %6 = arith.addi %3, %5 : i32
        %7 = arith.index_cast %6 : i32 to index
        %8 = arith.cmpi slt, %6, %4 : i32
        scf.if %8 {
          %9 = memref.load %arg0[%7] : memref<?xf32>
          %10 = memref.load %arg1[%7] : memref<?xf32>
          %11 = math.log %10 : f32
          %12 = emitc.sub %11, %9 : (f32, f32) -> f32
          %13 = emitc.mul %10, %12 : (f32, f32) -> f32
          memref.store %13, %arg2[%7] : memref<?xf32>
        }
      }
      gpu.return
    }
  }
}
[ict-debug] driver.cc: Before convert to EmitC dialect: end

module attributes {dlti.dl_spec = #dlti.dl_spec<#dlti.dl_entry<f80, dense<128> : vector<2xi32>>, #dlti.dl_entry<i64, dense<64> : vector<2xi32>>, #dlti.dl_entry<!llvm.ptr, dense<64> : vector<4xi32>>, #dlti.dl_entry<!llvm.ptr<272>, dense<64> : vector<4xi32>>, #dlti.dl_entry<i1, dense<8> : vector<2xi32>>, #dlti.dl_entry<!llvm.ptr<271>, dense<32> : vector<4xi32>>, #dlti.dl_entry<i8, dense<8> : vector<2xi32>>, #dlti.dl_entry<!llvm.ptr<270>, dense<32> : vector<4xi32>>, #dlti.dl_entry<i16, dense<16> : vector<2xi32>>, #dlti.dl_entry<i32, dense<32> : vector<2xi32>>, #dlti.dl_entry<f16, dense<16> : vector<2xi32>>, #dlti.dl_entry<f64, dense<64> : vector<2xi32>>, #dlti.dl_entry<f128, dense<128> : vector<2xi32>>, #dlti.dl_entry<"dlti.stack_alignment", 128 : i32>, #dlti.dl_entry<"dlti.endianness", "little">>, llvm.data_layout = "e-m:e-p270:32:32-p271:32:32-p272:64:64-i64:64-f80:128-n8:16:32:64-S128", llvm.target_triple = "x86_64-unknown-linux-gnu", polygeist.gpu_module.llvm.data_layout = "e-i64:64-i128:128-v16:16-v32:32-n16:32:64", polygeist.gpu_module.llvm.target_triple = "nvptx64-nvidia-cuda", "polygeist.target-cpu" = "x86-64", "polygeist.target-features" = "+cmov,+cx8,+fxsr,+mmx,+sse,+sse2,+x87", "polygeist.tune-cpu" = "generic"} {
  gpu.module @_Z13kl_div_kernelPKfS0_Pfii_0 {
    gpu.func @_Z13kl_div_kernelPKfS0_Pfii(%arg0: memref<?xf32>, %arg1: memref<?xf32>, %arg2: memref<?xf32>, %arg3: i32, %arg4: i32) {
      %c32_i32 = arith.constant 32 : i32
      %c0 = arith.constant 0 : index
      %c1 = arith.constant 1 : index
      %c32 = arith.constant 32 : index
      %0 = "npu.block_id"() <{dimension = "X"}> : () -> i64
      %1 = arith.index_cast %0 : i64 to index
      %2 = arith.index_cast %1 : index to i32
      %3 = arith.muli %2, %c32_i32 : i32
      %4 = arith.muli %arg3, %arg4 : i32
      scf.for %arg5 = %c0 to %c32 step %c1 {
        %5 = arith.index_cast %arg5 : index to i32
        %6 = arith.addi %3, %5 : i32
        %7 = arith.index_cast %6 : i32 to index
        %8 = arith.cmpi slt, %6, %4 : i32
        emitc.if %8 {
          %9 = memref.load %arg0[%7] : memref<?xf32>
          %10 = memref.load %arg1[%7] : memref<?xf32>
          %11 = math.log %10 : f32
          %12 = emitc.sub %11, %9 : (f32, f32) -> f32
          %13 = emitc.mul %10, %12 : (f32, f32) -> f32
          memref.store %13, %arg2[%7] : memref<?xf32>
        }
      }
      gpu.return
    }
  }
}
[ict-debug] driver.cc: After convert to EmitC dialect:

module attributes {dlti.dl_spec = #dlti.dl_spec<#dlti.dl_entry<f80, dense<128> : vector<2xi32>>, #dlti.dl_entry<i64, dense<64> : vector<2xi32>>, #dlti.dl_entry<!llvm.ptr, dense<64> : vector<4xi32>>, #dlti.dl_entry<!llvm.ptr<272>, dense<64> : vector<4xi32>>, #dlti.dl_entry<i1, dense<8> : vector<2xi32>>, #dlti.dl_entry<!llvm.ptr<271>, dense<32> : vector<4xi32>>, #dlti.dl_entry<i8, dense<8> : vector<2xi32>>, #dlti.dl_entry<!llvm.ptr<270>, dense<32> : vector<4xi32>>, #dlti.dl_entry<i16, dense<16> : vector<2xi32>>, #dlti.dl_entry<i32, dense<32> : vector<2xi32>>, #dlti.dl_entry<f16, dense<16> : vector<2xi32>>, #dlti.dl_entry<f64, dense<64> : vector<2xi32>>, #dlti.dl_entry<f128, dense<128> : vector<2xi32>>, #dlti.dl_entry<"dlti.stack_alignment", 128 : i32>, #dlti.dl_entry<"dlti.endianness", "little">>, llvm.data_layout = "e-m:e-p270:32:32-p271:32:32-p272:64:64-i64:64-f80:128-n8:16:32:64-S128", llvm.target_triple = "x86_64-unknown-linux-gnu", polygeist.gpu_module.llvm.data_layout = "e-i64:64-i128:128-v16:16-v32:32-n16:32:64", polygeist.gpu_module.llvm.target_triple = "nvptx64-nvidia-cuda", "polygeist.target-cpu" = "x86-64", "polygeist.target-features" = "+cmov,+cx8,+fxsr,+mmx,+sse,+sse2,+x87", "polygeist.tune-cpu" = "generic"} {
  gpu.module @_Z13kl_div_kernelPKfS0_Pfii_0 {
    gpu.func @_Z13kl_div_kernelPKfS0_Pfii(%arg0: memref<?xf32>, %arg1: memref<?xf32>, %arg2: memref<?xf32>, %arg3: i32, %arg4: i32) {
      %c32_i32 = arith.constant 32 : i32
      %c0 = arith.constant 0 : index
      %c1 = arith.constant 1 : index
      %c32 = arith.constant 32 : index
      %0 = "npu.block_id"() <{dimension = "X"}> : () -> i64
      %1 = arith.index_cast %0 : i64 to index
      %2 = arith.index_cast %1 : index to i32
      %3 = arith.muli %2, %c32_i32 : i32
      %4 = arith.muli %arg3, %arg4 : i32
      scf.for %arg5 = %c0 to %c32 step %c1 {
        %5 = arith.index_cast %arg5 : index to i32
        %6 = arith.addi %3, %5 : i32
        %7 = arith.index_cast %6 : i32 to index
        %8 = arith.cmpi slt, %6, %4 : i32
        emitc.if %8 {
          %9 = memref.load %arg0[%7] : memref<?xf32>
          %10 = memref.load %arg1[%7] : memref<?xf32>
          %11 = math.log %10 : f32
          %12 = emitc.sub %11, %9 : (f32, f32) -> f32
          %13 = emitc.mul %10, %12 : (f32, f32) -> f32
          memref.store %13, %arg2[%7] : memref<?xf32>
        }
      }
      gpu.return
    }
  }
}
[ict-debug] driver.cc: After convert to EmitC dialect: end

loc("/CUDA2BANG/Cambricon_NaiveProfiling/cuda_ops_test/Ascend_kernels/gen_cuda_kernels/level_1_prlblem_98_sample_0_KLDivLoss.cu":11:30): error: 'math.log' op unable to find printer for op
[ict-debug] driver.cc: After emitc::translateToCpp:

