warning: CUDA version 12.1 is only partially supported
warning: CUDA version 12.1 is only partially supported
[ict-debug] driver.cc: After return 5, module:

module attributes {dlti.dl_spec = #dlti.dl_spec<#dlti.dl_entry<f16, dense<16> : vector<2xi32>>, #dlti.dl_entry<f64, dense<64> : vector<2xi32>>, #dlti.dl_entry<f128, dense<128> : vector<2xi32>>, #dlti.dl_entry<f80, dense<128> : vector<2xi32>>, #dlti.dl_entry<i64, dense<64> : vector<2xi32>>, #dlti.dl_entry<!llvm.ptr<272>, dense<64> : vector<4xi32>>, #dlti.dl_entry<!llvm.ptr, dense<64> : vector<4xi32>>, #dlti.dl_entry<!llvm.ptr<271>, dense<32> : vector<4xi32>>, #dlti.dl_entry<i1, dense<8> : vector<2xi32>>, #dlti.dl_entry<!llvm.ptr<270>, dense<32> : vector<4xi32>>, #dlti.dl_entry<i8, dense<8> : vector<2xi32>>, #dlti.dl_entry<i16, dense<16> : vector<2xi32>>, #dlti.dl_entry<i32, dense<32> : vector<2xi32>>, #dlti.dl_entry<"dlti.stack_alignment", 128 : i32>, #dlti.dl_entry<"dlti.endianness", "little">>, llvm.data_layout = "e-m:e-p270:32:32-p271:32:32-p272:64:64-i64:64-f80:128-n8:16:32:64-S128", llvm.target_triple = "x86_64-unknown-linux-gnu", polygeist.gpu_module.llvm.data_layout = "e-i64:64-i128:128-v16:16-v32:32-n16:32:64", polygeist.gpu_module.llvm.target_triple = "nvptx64-nvidia-cuda", "polygeist.target-cpu" = "x86-64", "polygeist.target-features" = "+cmov,+cx8,+fxsr,+mmx,+sse,+sse2,+x87", "polygeist.tune-cpu" = "generic"} {
  func.func private @_Z27__device_stub__MatMulKernelPKfS0_Pfiii(%arg0: memref<?xf32>, %arg1: memref<?xf32>, %arg2: memref<?xf32>, %arg3: i32, %arg4: i32, %arg5: i32) attributes {llvm.linkage = #llvm.linkage<external>, polygeist.device_only_func = "1"} {
    call @_Z12MatMulKernelPKfS0_Pfiii(%arg0, %arg1, %arg2, %arg3, %arg4, %arg5) : (memref<?xf32>, memref<?xf32>, memref<?xf32>, i32, i32, i32) -> ()
    return
  }
  func.func private @_Z12MatMulKernelPKfS0_Pfiii(%arg0: memref<?xf32>, %arg1: memref<?xf32>, %arg2: memref<?xf32>, %arg3: i32, %arg4: i32, %arg5: i32) attributes {llvm.linkage = #llvm.linkage<external>, polygeist.device_only_func = "1"} {
    %c16_i32 = arith.constant 16 : i32
    %cst = arith.constant 0.000000e+00 : f32
    %false = arith.constant false
    %c15_i32 = arith.constant 15 : i32
    %0 = arith.index_cast %arg3 : i32 to index
    %1 = arith.index_cast %arg4 : i32 to index
    %2 = arith.index_cast %arg5 : i32 to index
    %alloca = memref.alloca() : memref<16x16xf32, 5>
    %alloca_0 = memref.alloca() : memref<16x16xf32, 5>
    %3 = gpu.block_id  y
    %4 = arith.index_cast %3 : index to i32
    %5 = arith.muli %4, %c16_i32 : i32
    %6 = gpu.thread_id  y
    %7 = arith.index_cast %6 : index to i32
    %8 = arith.addi %5, %7 : i32
    %9 = arith.index_cast %8 : i32 to index
    %10 = arith.muli %8, %arg5 : i32
    %11 = arith.index_cast %10 : i32 to index
    %12 = gpu.block_id  x
    %13 = arith.index_cast %12 : index to i32
    %14 = arith.muli %13, %c16_i32 : i32
    %15 = gpu.thread_id  x
    %16 = arith.index_cast %15 : index to i32
    %17 = arith.addi %14, %16 : i32
    %18 = arith.index_cast %17 : i32 to index
    %19 = arith.index_cast %17 : i32 to index
    %20 = arith.addi %arg4, %c15_i32 : i32
    %21 = arith.divsi %20, %c16_i32 : i32
    %22 = arith.index_cast %21 : i32 to index
    %23 = gpu.thread_id  x
    %24 = arith.index_cast %23 : index to i32
    %25 = gpu.thread_id  y
    %26 = gpu.thread_id  y
    %27 = gpu.thread_id  x
    %28 = gpu.thread_id  y
    %29 = gpu.thread_id  x
    %30 = arith.muli %8, %arg4 : i32
    %31 = arith.index_cast %30 : i32 to index
    %32 = gpu.thread_id  y
    %33 = gpu.thread_id  x
    %34 = arith.cmpi slt, %17, %arg5 : i32
    %35 = gpu.thread_id  y
    %36 = gpu.thread_id  x
    %37 = gpu.thread_id  y
    %38 = gpu.thread_id  x
    %39 = affine.for %arg6 = 0 to %22 iter_args(%arg7 = %cst) -> (f32) {
      %43 = arith.index_cast %arg6 : index to i32
      %44 = arith.muli %43, %c16_i32 : i32
      %45 = arith.addi %44, %24 : i32
      %46 = affine.if affine_set<()[s0, s1] : (-s0 + s1 - 1 >= 0)>()[%9, %0] -> i1 {
        %49 = arith.cmpi slt, %45, %arg4 : i32
        affine.yield %49 : i1
      } else {
        affine.yield %false : i1
      }
      scf.if %46 {
        %49 = affine.load %arg0[%arg6 * 16 + symbol(%31) + symbol(%23)] : memref<?xf32>
        affine.store %49, %alloca_0[symbol(%28), symbol(%29)] : memref<16x16xf32, 5>
      } else {
        affine.store %cst, %alloca_0[symbol(%32), symbol(%33)] : memref<16x16xf32, 5>
      }
      %47 = affine.if affine_set<(d0)[s0, s1] : (d0 * -16 - s0 + s1 - 1 >= 0)>(%arg6)[%25, %1] -> i1 {
        affine.yield %34 : i1
      } else {
        affine.yield %false : i1
      }
      scf.if %47 {
        %49 = affine.load %arg1[(%arg6 * 16 + symbol(%25)) * symbol(%2) + symbol(%18)] : memref<?xf32>
        affine.store %49, %alloca[symbol(%35), symbol(%36)] : memref<16x16xf32, 5>
      } else {
        affine.store %cst, %alloca[symbol(%37), symbol(%38)] : memref<16x16xf32, 5>
      }
      nvvm.barrier0
      %48 = affine.for %arg8 = 0 to 16 iter_args(%arg9 = %arg7) -> (f32) {
        %49 = affine.load %alloca_0[symbol(%26), %arg8] : memref<16x16xf32, 5>
        %50 = affine.load %alloca[%arg8, symbol(%27)] : memref<16x16xf32, 5>
        %51 = arith.mulf %49, %50 : f32
        %52 = arith.addf %arg9, %51 : f32
        affine.yield %52 : f32
      }
      nvvm.barrier0
      affine.yield %48 : f32
    }
    %40 = arith.cmpi slt, %8, %arg3 : i32
    %41 = arith.cmpi slt, %17, %arg5 : i32
    %42 = arith.andi %40, %41 : i1
    scf.if %42 {
      affine.store %39, %arg2[symbol(%11) + symbol(%19)] : memref<?xf32>
    }
    return
  }
}
[ict-debug] driver.cc: After return 5, module: end

[ict-debug] driver.cc: After return 6, module:

module attributes {dlti.dl_spec = #dlti.dl_spec<#dlti.dl_entry<f16, dense<16> : vector<2xi32>>, #dlti.dl_entry<f64, dense<64> : vector<2xi32>>, #dlti.dl_entry<f128, dense<128> : vector<2xi32>>, #dlti.dl_entry<f80, dense<128> : vector<2xi32>>, #dlti.dl_entry<i64, dense<64> : vector<2xi32>>, #dlti.dl_entry<!llvm.ptr<272>, dense<64> : vector<4xi32>>, #dlti.dl_entry<!llvm.ptr, dense<64> : vector<4xi32>>, #dlti.dl_entry<!llvm.ptr<271>, dense<32> : vector<4xi32>>, #dlti.dl_entry<i1, dense<8> : vector<2xi32>>, #dlti.dl_entry<!llvm.ptr<270>, dense<32> : vector<4xi32>>, #dlti.dl_entry<i8, dense<8> : vector<2xi32>>, #dlti.dl_entry<i16, dense<16> : vector<2xi32>>, #dlti.dl_entry<i32, dense<32> : vector<2xi32>>, #dlti.dl_entry<"dlti.stack_alignment", 128 : i32>, #dlti.dl_entry<"dlti.endianness", "little">>, llvm.data_layout = "e-m:e-p270:32:32-p271:32:32-p272:64:64-i64:64-f80:128-n8:16:32:64-S128", llvm.target_triple = "x86_64-unknown-linux-gnu", polygeist.gpu_module.llvm.data_layout = "e-i64:64-i128:128-v16:16-v32:32-n16:32:64", polygeist.gpu_module.llvm.target_triple = "nvptx64-nvidia-cuda", "polygeist.target-cpu" = "x86-64", "polygeist.target-features" = "+cmov,+cx8,+fxsr,+mmx,+sse,+sse2,+x87", "polygeist.tune-cpu" = "generic"} {
  func.func private @_Z12MatMulKernelPKfS0_Pfiii(%arg0: memref<?xf32>, %arg1: memref<?xf32>, %arg2: memref<?xf32>, %arg3: i32, %arg4: i32, %arg5: i32) attributes {llvm.linkage = #llvm.linkage<external>, polygeist.device_only_func = "1"} {
    %c16_i32 = arith.constant 16 : i32
    %cst = arith.constant 0.000000e+00 : f32
    %false = arith.constant false
    %c15_i32 = arith.constant 15 : i32
    %0 = arith.index_cast %arg3 : i32 to index
    %1 = arith.index_cast %arg4 : i32 to index
    %2 = arith.index_cast %arg5 : i32 to index
    %alloca = memref.alloca() : memref<16x16xf32, 5>
    %alloca_0 = memref.alloca() : memref<16x16xf32, 5>
    %3 = gpu.block_id  y
    %4 = arith.index_cast %3 : index to i32
    %5 = arith.muli %4, %c16_i32 : i32
    %6 = gpu.thread_id  y
    %7 = arith.index_cast %6 : index to i32
    %8 = arith.addi %5, %7 : i32
    %9 = arith.index_cast %8 : i32 to index
    %10 = arith.muli %8, %arg5 : i32
    %11 = arith.index_cast %10 : i32 to index
    %12 = gpu.block_id  x
    %13 = arith.index_cast %12 : index to i32
    %14 = arith.muli %13, %c16_i32 : i32
    %15 = gpu.thread_id  x
    %16 = arith.index_cast %15 : index to i32
    %17 = arith.addi %14, %16 : i32
    %18 = arith.index_cast %17 : i32 to index
    %19 = arith.addi %arg4, %c15_i32 : i32
    %20 = arith.divsi %19, %c16_i32 : i32
    %21 = arith.index_cast %20 : i32 to index
    %22 = arith.muli %8, %arg4 : i32
    %23 = arith.index_cast %22 : i32 to index
    %24 = arith.cmpi slt, %17, %arg5 : i32
    %25 = affine.for %arg6 = 0 to %21 iter_args(%arg7 = %cst) -> (f32) {
      %28 = arith.index_cast %arg6 : index to i32
      %29 = arith.muli %28, %c16_i32 : i32
      %30 = arith.addi %29, %16 : i32
      %31 = affine.if affine_set<()[s0, s1] : (s0 - s1 - 1 >= 0)>()[%0, %9] -> i1 {
        %33 = arith.cmpi slt, %30, %arg4 : i32
        affine.yield %33 : i1
      } else {
        affine.yield %false : i1
      }
      scf.if %31 {
        %33 = affine.load %arg0[%arg6 * 16 + symbol(%23) + symbol(%15)] : memref<?xf32>
        affine.store %33, %alloca_0[symbol(%6), symbol(%15)] : memref<16x16xf32, 5>
      } else {
        affine.store %cst, %alloca_0[symbol(%6), symbol(%15)] : memref<16x16xf32, 5>
      }
      affine.if affine_set<(d0)[s0, s1, s2, s3] : (d0 * -16 - s0 + s1 - 1 >= 0, -s2 + s3 - 1 >= 0)>(%arg6)[%6, %1, %18, %2] {
        %33 = affine.load %arg1[(%arg6 * 16 + symbol(%6)) * symbol(%2) + symbol(%18)] : memref<?xf32>
        affine.store %33, %alloca[symbol(%6), symbol(%15)] : memref<16x16xf32, 5>
      } else {
        affine.store %cst, %alloca[symbol(%6), symbol(%15)] : memref<16x16xf32, 5>
      }
      nvvm.barrier0
      %32 = affine.for %arg8 = 0 to 16 iter_args(%arg9 = %arg7) -> (f32) {
        %33 = affine.load %alloca_0[symbol(%6), %arg8] : memref<16x16xf32, 5>
        %34 = affine.load %alloca[%arg8, symbol(%15)] : memref<16x16xf32, 5>
        %35 = arith.mulf %33, %34 : f32
        %36 = arith.addf %arg9, %35 : f32
        affine.yield %36 : f32
      }
      nvvm.barrier0
      affine.yield %32 : f32
    }
    %26 = arith.cmpi slt, %8, %arg3 : i32
    %27 = arith.andi %26, %24 : i1
    scf.if %27 {
      affine.store %25, %arg2[symbol(%11) + symbol(%18)] : memref<?xf32>
    }
    return
  }
}
[ict-debug] driver.cc: After return 6, module: end

WrapAndReplaceBarrierPass::runOnOperation(): before execute: 
module attributes {dlti.dl_spec = #dlti.dl_spec<#dlti.dl_entry<f16, dense<16> : vector<2xi32>>, #dlti.dl_entry<f64, dense<64> : vector<2xi32>>, #dlti.dl_entry<f128, dense<128> : vector<2xi32>>, #dlti.dl_entry<f80, dense<128> : vector<2xi32>>, #dlti.dl_entry<i64, dense<64> : vector<2xi32>>, #dlti.dl_entry<!llvm.ptr<272>, dense<64> : vector<4xi32>>, #dlti.dl_entry<!llvm.ptr, dense<64> : vector<4xi32>>, #dlti.dl_entry<!llvm.ptr<271>, dense<32> : vector<4xi32>>, #dlti.dl_entry<i1, dense<8> : vector<2xi32>>, #dlti.dl_entry<!llvm.ptr<270>, dense<32> : vector<4xi32>>, #dlti.dl_entry<i8, dense<8> : vector<2xi32>>, #dlti.dl_entry<i16, dense<16> : vector<2xi32>>, #dlti.dl_entry<i32, dense<32> : vector<2xi32>>, #dlti.dl_entry<"dlti.stack_alignment", 128 : i32>, #dlti.dl_entry<"dlti.endianness", "little">>, llvm.data_layout = "e-m:e-p270:32:32-p271:32:32-p272:64:64-i64:64-f80:128-n8:16:32:64-S128", llvm.target_triple = "x86_64-unknown-linux-gnu", polygeist.gpu_module.llvm.data_layout = "e-i64:64-i128:128-v16:16-v32:32-n16:32:64", polygeist.gpu_module.llvm.target_triple = "nvptx64-nvidia-cuda", "polygeist.target-cpu" = "x86-64", "polygeist.target-features" = "+cmov,+cx8,+fxsr,+mmx,+sse,+sse2,+x87", "polygeist.tune-cpu" = "generic"} {
  func.func private @_Z12MatMulKernelPKfS0_Pfiii(%arg0: memref<?xf32>, %arg1: memref<?xf32>, %arg2: memref<?xf32>, %arg3: i32, %arg4: i32, %arg5: i32) attributes {llvm.linkage = #llvm.linkage<external>, polygeist.device_only_func = "1"} {
    %c-16 = arith.constant -16 : index
    %c16 = arith.constant 16 : index
    %c-1 = arith.constant -1 : index
    %c1 = arith.constant 1 : index
    %c0 = arith.constant 0 : index
    %c16_i32 = arith.constant 16 : i32
    %cst = arith.constant 0.000000e+00 : f32
    %false = arith.constant false
    %c15_i32 = arith.constant 15 : i32
    %0 = arith.index_cast %arg3 : i32 to index
    %1 = arith.index_cast %arg4 : i32 to index
    %2 = arith.index_cast %arg5 : i32 to index
    %alloca = memref.alloca() : memref<16x16xf32, 5>
    %alloca_0 = memref.alloca() : memref<16x16xf32, 5>
    %3 = gpu.block_id  y
    %4 = arith.index_cast %3 : index to i32
    %5 = arith.muli %4, %c16_i32 : i32
    %6 = gpu.thread_id  y
    %7 = arith.index_cast %6 : index to i32
    %8 = arith.addi %5, %7 : i32
    %9 = arith.index_cast %8 : i32 to index
    %10 = arith.muli %8, %arg5 : i32
    %11 = arith.index_cast %10 : i32 to index
    %12 = gpu.block_id  x
    %13 = arith.index_cast %12 : index to i32
    %14 = arith.muli %13, %c16_i32 : i32
    %15 = gpu.thread_id  x
    %16 = arith.index_cast %15 : index to i32
    %17 = arith.addi %14, %16 : i32
    %18 = arith.index_cast %17 : i32 to index
    %19 = arith.addi %arg4, %c15_i32 : i32
    %20 = arith.divsi %19, %c16_i32 : i32
    %21 = arith.index_cast %20 : i32 to index
    %22 = arith.muli %8, %arg4 : i32
    %23 = arith.index_cast %22 : i32 to index
    %24 = arith.cmpi slt, %17, %arg5 : i32
    %25 = scf.for %arg6 = %c0 to %21 step %c1 iter_args(%arg7 = %cst) -> (f32) {
      %28 = arith.index_cast %arg6 : index to i32
      %29 = arith.muli %28, %c16_i32 : i32
      %30 = arith.addi %29, %16 : i32
      %31 = arith.subi %0, %9 : index
      %32 = arith.addi %31, %c-1 : index
      %33 = arith.cmpi sge, %32, %c0 : index
      %34 = scf.if %33 -> (i1) {
        %45 = arith.cmpi slt, %30, %arg4 : i32
        scf.yield %45 : i1
      } else {
        scf.yield %false : i1
      }
      scf.if %34 {
        %45 = arith.muli %arg6, %c16 : index
        %46 = arith.addi %45, %23 : index
        %47 = arith.addi %46, %15 : index
        %48 = memref.load %arg0[%47] : memref<?xf32>
        memref.store %48, %alloca_0[%6, %15] : memref<16x16xf32, 5>
      } else {
        memref.store %cst, %alloca_0[%6, %15] : memref<16x16xf32, 5>
      }
      %35 = arith.muli %arg6, %c-16 : index
      %36 = arith.subi %35, %6 : index
      %37 = arith.addi %36, %1 : index
      %38 = arith.addi %37, %c-1 : index
      %39 = arith.cmpi sge, %38, %c0 : index
      %40 = arith.subi %2, %18 : index
      %41 = arith.addi %40, %c-1 : index
      %42 = arith.cmpi sge, %41, %c0 : index
      %43 = arith.andi %39, %42 : i1
      scf.if %43 {
        %45 = arith.muli %arg6, %c16 : index
        %46 = arith.addi %45, %6 : index
        %47 = arith.muli %46, %2 : index
        %48 = arith.addi %47, %18 : index
        %49 = memref.load %arg1[%48] : memref<?xf32>
        memref.store %49, %alloca[%6, %15] : memref<16x16xf32, 5>
      } else {
        memref.store %cst, %alloca[%6, %15] : memref<16x16xf32, 5>
      }
      nvvm.barrier0
      %44 = scf.for %arg8 = %c0 to %c16 step %c1 iter_args(%arg9 = %arg7) -> (f32) {
        %45 = memref.load %alloca_0[%6, %arg8] : memref<16x16xf32, 5>
        %46 = memref.load %alloca[%arg8, %15] : memref<16x16xf32, 5>
        %47 = arith.mulf %45, %46 : f32
        %48 = arith.addf %arg9, %47 : f32
        scf.yield %48 : f32
      }
      nvvm.barrier0
      scf.yield %44 : f32
    }
    %26 = arith.cmpi slt, %8, %arg3 : i32
    %27 = arith.andi %26, %24 : i1
    scf.if %27 {
      %28 = arith.addi %11, %18 : index
      memref.store %25, %arg2[%28] : memref<?xf32>
    }
    return
  }
}
WrapAndReplaceBarrierPass::runOnOperation(): before execute: end
WrapAndReplaceBarrierPass::runOnOperation(): after execute: 
module attributes {dlti.dl_spec = #dlti.dl_spec<#dlti.dl_entry<f16, dense<16> : vector<2xi32>>, #dlti.dl_entry<f64, dense<64> : vector<2xi32>>, #dlti.dl_entry<f128, dense<128> : vector<2xi32>>, #dlti.dl_entry<f80, dense<128> : vector<2xi32>>, #dlti.dl_entry<i64, dense<64> : vector<2xi32>>, #dlti.dl_entry<!llvm.ptr<272>, dense<64> : vector<4xi32>>, #dlti.dl_entry<!llvm.ptr, dense<64> : vector<4xi32>>, #dlti.dl_entry<!llvm.ptr<271>, dense<32> : vector<4xi32>>, #dlti.dl_entry<i1, dense<8> : vector<2xi32>>, #dlti.dl_entry<!llvm.ptr<270>, dense<32> : vector<4xi32>>, #dlti.dl_entry<i8, dense<8> : vector<2xi32>>, #dlti.dl_entry<i16, dense<16> : vector<2xi32>>, #dlti.dl_entry<i32, dense<32> : vector<2xi32>>, #dlti.dl_entry<"dlti.stack_alignment", 128 : i32>, #dlti.dl_entry<"dlti.endianness", "little">>, llvm.data_layout = "e-m:e-p270:32:32-p271:32:32-p272:64:64-i64:64-f80:128-n8:16:32:64-S128", llvm.target_triple = "x86_64-unknown-linux-gnu", polygeist.gpu_module.llvm.data_layout = "e-i64:64-i128:128-v16:16-v32:32-n16:32:64", polygeist.gpu_module.llvm.target_triple = "nvptx64-nvidia-cuda", "polygeist.target-cpu" = "x86-64", "polygeist.target-features" = "+cmov,+cx8,+fxsr,+mmx,+sse,+sse2,+x87", "polygeist.tune-cpu" = "generic"} {
  func.func @_Z12MatMulKernelPKfS0_Pfiii(%arg0: memref<?xf32>, %arg1: memref<?xf32>, %arg2: memref<?xf32>, %arg3: i32, %arg4: i32, %arg5: i32) attributes {llvm.linkage = #llvm.linkage<external>, polygeist.device_only_func = "1"} {
    %c0 = arith.constant 0 : index
    %c1 = arith.constant 1 : index
    %c32 = arith.constant 32 : index
    %alloca = memref.alloca() : memref<16x16xf32, 5>
    %alloca_0 = memref.alloca() : memref<16x16xf32, 5>
    scf.parallel (%arg6) = (%c0) to (%c32) step (%c1) {
      %c1_1 = arith.constant 1 : index
      %0 = arith.divui %arg6, %c1_1 : index
      %c1_2 = arith.constant 1 : index
      %1 = arith.remui %arg6, %c1_2 : index
      %c-16 = arith.constant -16 : index
      %c16 = arith.constant 16 : index
      %c-1 = arith.constant -1 : index
      %c1_3 = arith.constant 1 : index
      %c0_4 = arith.constant 0 : index
      %c16_i32 = arith.constant 16 : i32
      %cst = arith.constant 0.000000e+00 : f32
      %false = arith.constant false
      %c15_i32 = arith.constant 15 : i32
      %2 = arith.index_cast %arg3 : i32 to index
      %3 = arith.index_cast %arg4 : i32 to index
      %4 = arith.index_cast %arg5 : i32 to index
      %5 = gpu.block_id  y
      %6 = arith.index_cast %5 : index to i32
      %7 = arith.muli %6, %c16_i32 : i32
      %8 = arith.index_cast %1 : index to i32
      %9 = arith.addi %7, %8 : i32
      %10 = arith.index_cast %9 : i32 to index
      %11 = arith.muli %9, %arg5 : i32
      %12 = arith.index_cast %11 : i32 to index
      %13 = gpu.block_id  x
      %14 = arith.index_cast %13 : index to i32
      %15 = arith.muli %14, %c16_i32 : i32
      %16 = arith.index_cast %0 : index to i32
      %17 = arith.addi %15, %16 : i32
      %18 = arith.index_cast %17 : i32 to index
      %19 = arith.addi %arg4, %c15_i32 : i32
      %20 = arith.divsi %19, %c16_i32 : i32
      %21 = arith.index_cast %20 : i32 to index
      %22 = arith.muli %9, %arg4 : i32
      %23 = arith.index_cast %22 : i32 to index
      %24 = arith.cmpi slt, %17, %arg5 : i32
      %25 = scf.for %arg7 = %c0_4 to %21 step %c1_3 iter_args(%arg8 = %cst) -> (f32) {
        %28 = arith.index_cast %arg7 : index to i32
        %29 = arith.muli %28, %c16_i32 : i32
        %30 = arith.addi %29, %16 : i32
        %31 = arith.subi %2, %10 : index
        %32 = arith.addi %31, %c-1 : index
        %33 = arith.cmpi sge, %32, %c0_4 : index
        %34 = scf.if %33 -> (i1) {
          %45 = arith.cmpi slt, %30, %arg4 : i32
          scf.yield %45 : i1
        } else {
          scf.yield %false : i1
        }
        scf.if %34 {
          %45 = arith.muli %arg7, %c16 : index
          %46 = arith.addi %45, %23 : index
          %47 = arith.addi %46, %0 : index
          %48 = memref.load %arg0[%47] : memref<?xf32>
          memref.store %48, %alloca_0[%1, %0] : memref<16x16xf32, 5>
        } else {
          memref.store %cst, %alloca_0[%1, %0] : memref<16x16xf32, 5>
        }
        %35 = arith.muli %arg7, %c-16 : index
        %36 = arith.subi %35, %1 : index
        %37 = arith.addi %36, %3 : index
        %38 = arith.addi %37, %c-1 : index
        %39 = arith.cmpi sge, %38, %c0_4 : index
        %40 = arith.subi %4, %18 : index
        %41 = arith.addi %40, %c-1 : index
        %42 = arith.cmpi sge, %41, %c0_4 : index
        %43 = arith.andi %39, %42 : i1
        scf.if %43 {
          %45 = arith.muli %arg7, %c16 : index
          %46 = arith.addi %45, %1 : index
          %47 = arith.muli %46, %4 : index
          %48 = arith.addi %47, %18 : index
          %49 = memref.load %arg1[%48] : memref<?xf32>
          memref.store %49, %alloca[%1, %0] : memref<16x16xf32, 5>
        } else {
          memref.store %cst, %alloca[%1, %0] : memref<16x16xf32, 5>
        }
        "polygeist.barrier"(%arg6) : (index) -> ()
        %44 = scf.for %arg9 = %c0_4 to %c16 step %c1_3 iter_args(%arg10 = %arg8) -> (f32) {
          %45 = memref.load %alloca_0[%1, %arg9] : memref<16x16xf32, 5>
          %46 = memref.load %alloca[%arg9, %0] : memref<16x16xf32, 5>
          %47 = arith.mulf %45, %46 : f32
          %48 = arith.addf %arg10, %47 : f32
          scf.yield %48 : f32
        }
        "polygeist.barrier"(%arg6) : (index) -> ()
        scf.yield %44 : f32
      }
      %26 = arith.cmpi slt, %9, %arg3 : i32
      %27 = arith.andi %26, %24 : i1
      scf.if %27 {
        %28 = arith.addi %12, %18 : index
        memref.store %25, %arg2[%28] : memref<?xf32>
      }
      scf.yield
    }
    return
  }
}
WrapAndReplaceBarrierPass::runOnOperation(): after execute: end
[ict-debug] driver.cc: After return 7, module:

module attributes {dlti.dl_spec = #dlti.dl_spec<#dlti.dl_entry<f16, dense<16> : vector<2xi32>>, #dlti.dl_entry<f64, dense<64> : vector<2xi32>>, #dlti.dl_entry<f128, dense<128> : vector<2xi32>>, #dlti.dl_entry<f80, dense<128> : vector<2xi32>>, #dlti.dl_entry<i64, dense<64> : vector<2xi32>>, #dlti.dl_entry<!llvm.ptr<272>, dense<64> : vector<4xi32>>, #dlti.dl_entry<!llvm.ptr, dense<64> : vector<4xi32>>, #dlti.dl_entry<!llvm.ptr<271>, dense<32> : vector<4xi32>>, #dlti.dl_entry<i1, dense<8> : vector<2xi32>>, #dlti.dl_entry<!llvm.ptr<270>, dense<32> : vector<4xi32>>, #dlti.dl_entry<i8, dense<8> : vector<2xi32>>, #dlti.dl_entry<i16, dense<16> : vector<2xi32>>, #dlti.dl_entry<i32, dense<32> : vector<2xi32>>, #dlti.dl_entry<"dlti.stack_alignment", 128 : i32>, #dlti.dl_entry<"dlti.endianness", "little">>, llvm.data_layout = "e-m:e-p270:32:32-p271:32:32-p272:64:64-i64:64-f80:128-n8:16:32:64-S128", llvm.target_triple = "x86_64-unknown-linux-gnu", polygeist.gpu_module.llvm.data_layout = "e-i64:64-i128:128-v16:16-v32:32-n16:32:64", polygeist.gpu_module.llvm.target_triple = "nvptx64-nvidia-cuda", "polygeist.target-cpu" = "x86-64", "polygeist.target-features" = "+cmov,+cx8,+fxsr,+mmx,+sse,+sse2,+x87", "polygeist.tune-cpu" = "generic"} {
  func.func @_Z12MatMulKernelPKfS0_Pfiii(%arg0: memref<?xf32>, %arg1: memref<?xf32>, %arg2: memref<?xf32>, %arg3: i32, %arg4: i32, %arg5: i32) attributes {llvm.linkage = #llvm.linkage<external>, polygeist.device_only_func = "1"} {
    %c0 = arith.constant 0 : index
    %c1 = arith.constant 1 : index
    %c32 = arith.constant 32 : index
    %alloca = memref.alloca() : memref<16x16xf32, 5>
    %alloca_0 = memref.alloca() : memref<16x16xf32, 5>
    scf.parallel (%arg6) = (%c0) to (%c32) step (%c1) {
      %c1_1 = arith.constant 1 : index
      %0 = arith.divui %arg6, %c1_1 : index
      %c1_2 = arith.constant 1 : index
      %1 = arith.remui %arg6, %c1_2 : index
      %c-16 = arith.constant -16 : index
      %c16 = arith.constant 16 : index
      %c-1 = arith.constant -1 : index
      %c1_3 = arith.constant 1 : index
      %c0_4 = arith.constant 0 : index
      %c16_i32 = arith.constant 16 : i32
      %cst = arith.constant 0.000000e+00 : f32
      %false = arith.constant false
      %c15_i32 = arith.constant 15 : i32
      %2 = arith.index_cast %arg3 : i32 to index
      %3 = arith.index_cast %arg4 : i32 to index
      %4 = arith.index_cast %arg5 : i32 to index
      %5 = gpu.block_id  y
      %6 = arith.index_cast %5 : index to i32
      %7 = arith.muli %6, %c16_i32 : i32
      %8 = arith.index_cast %1 : index to i32
      %9 = arith.addi %7, %8 : i32
      %10 = arith.index_cast %9 : i32 to index
      %11 = arith.muli %9, %arg5 : i32
      %12 = arith.index_cast %11 : i32 to index
      %13 = gpu.block_id  x
      %14 = arith.index_cast %13 : index to i32
      %15 = arith.muli %14, %c16_i32 : i32
      %16 = arith.index_cast %0 : index to i32
      %17 = arith.addi %15, %16 : i32
      %18 = arith.index_cast %17 : i32 to index
      %19 = arith.addi %arg4, %c15_i32 : i32
      %20 = arith.divsi %19, %c16_i32 : i32
      %21 = arith.index_cast %20 : i32 to index
      %22 = arith.muli %9, %arg4 : i32
      %23 = arith.index_cast %22 : i32 to index
      %24 = arith.cmpi slt, %17, %arg5 : i32
      %25 = scf.for %arg7 = %c0_4 to %21 step %c1_3 iter_args(%arg8 = %cst) -> (f32) {
        %28 = arith.index_cast %arg7 : index to i32
        %29 = arith.muli %28, %c16_i32 : i32
        %30 = arith.addi %29, %16 : i32
        %31 = arith.subi %2, %10 : index
        %32 = arith.addi %31, %c-1 : index
        %33 = arith.cmpi sge, %32, %c0_4 : index
        %34 = scf.if %33 -> (i1) {
          %45 = arith.cmpi slt, %30, %arg4 : i32
          scf.yield %45 : i1
        } else {
          scf.yield %false : i1
        }
        scf.if %34 {
          %45 = arith.muli %arg7, %c16 : index
          %46 = arith.addi %45, %23 : index
          %47 = arith.addi %46, %0 : index
          %48 = memref.load %arg0[%47] : memref<?xf32>
          memref.store %48, %alloca_0[%1, %0] : memref<16x16xf32, 5>
        } else {
          memref.store %cst, %alloca_0[%1, %0] : memref<16x16xf32, 5>
        }
        %35 = arith.muli %arg7, %c-16 : index
        %36 = arith.subi %35, %1 : index
        %37 = arith.addi %36, %3 : index
        %38 = arith.addi %37, %c-1 : index
        %39 = arith.cmpi sge, %38, %c0_4 : index
        %40 = arith.subi %4, %18 : index
        %41 = arith.addi %40, %c-1 : index
        %42 = arith.cmpi sge, %41, %c0_4 : index
        %43 = arith.andi %39, %42 : i1
        scf.if %43 {
          %45 = arith.muli %arg7, %c16 : index
          %46 = arith.addi %45, %1 : index
          %47 = arith.muli %46, %4 : index
          %48 = arith.addi %47, %18 : index
          %49 = memref.load %arg1[%48] : memref<?xf32>
          memref.store %49, %alloca[%1, %0] : memref<16x16xf32, 5>
        } else {
          memref.store %cst, %alloca[%1, %0] : memref<16x16xf32, 5>
        }
        "polygeist.barrier"(%arg6) : (index) -> ()
        %44 = scf.for %arg9 = %c0_4 to %c16 step %c1_3 iter_args(%arg10 = %arg8) -> (f32) {
          %45 = memref.load %alloca_0[%1, %arg9] : memref<16x16xf32, 5>
          %46 = memref.load %alloca[%arg9, %0] : memref<16x16xf32, 5>
          %47 = arith.mulf %45, %46 : f32
          %48 = arith.addf %arg10, %47 : f32
          scf.yield %48 : f32
        }
        "polygeist.barrier"(%arg6) : (index) -> ()
        scf.yield %44 : f32
      }
      %26 = arith.cmpi slt, %9, %arg3 : i32
      %27 = arith.andi %26, %24 : i1
      scf.if %27 {
        %28 = arith.addi %12, %18 : index
        memref.store %25, %arg2[%28] : memref<?xf32>
      }
      scf.yield
    }
    return
  }
}
[ict-debug] driver.cc: After return 7, module: end

[ict-debug] driver.cc: Before my pass process:

module attributes {dlti.dl_spec = #dlti.dl_spec<#dlti.dl_entry<f16, dense<16> : vector<2xi32>>, #dlti.dl_entry<f64, dense<64> : vector<2xi32>>, #dlti.dl_entry<f128, dense<128> : vector<2xi32>>, #dlti.dl_entry<f80, dense<128> : vector<2xi32>>, #dlti.dl_entry<i64, dense<64> : vector<2xi32>>, #dlti.dl_entry<!llvm.ptr<272>, dense<64> : vector<4xi32>>, #dlti.dl_entry<!llvm.ptr, dense<64> : vector<4xi32>>, #dlti.dl_entry<!llvm.ptr<271>, dense<32> : vector<4xi32>>, #dlti.dl_entry<i1, dense<8> : vector<2xi32>>, #dlti.dl_entry<!llvm.ptr<270>, dense<32> : vector<4xi32>>, #dlti.dl_entry<i8, dense<8> : vector<2xi32>>, #dlti.dl_entry<i16, dense<16> : vector<2xi32>>, #dlti.dl_entry<i32, dense<32> : vector<2xi32>>, #dlti.dl_entry<"dlti.stack_alignment", 128 : i32>, #dlti.dl_entry<"dlti.endianness", "little">>, llvm.data_layout = "e-m:e-p270:32:32-p271:32:32-p272:64:64-i64:64-f80:128-n8:16:32:64-S128", llvm.target_triple = "x86_64-unknown-linux-gnu", polygeist.gpu_module.llvm.data_layout = "e-i64:64-i128:128-v16:16-v32:32-n16:32:64", polygeist.gpu_module.llvm.target_triple = "nvptx64-nvidia-cuda", "polygeist.target-cpu" = "x86-64", "polygeist.target-features" = "+cmov,+cx8,+fxsr,+mmx,+sse,+sse2,+x87", "polygeist.tune-cpu" = "generic"} {
  func.func @_Z12MatMulKernelPKfS0_Pfiii(%arg0: memref<?xf32>, %arg1: memref<?xf32>, %arg2: memref<?xf32>, %arg3: i32, %arg4: i32, %arg5: i32) attributes {llvm.linkage = #llvm.linkage<external>, polygeist.device_only_func = "1"} {
    %c15_i32 = arith.constant 15 : i32
    %false = arith.constant false
    %cst = arith.constant 0.000000e+00 : f32
    %c16_i32 = arith.constant 16 : i32
    %c-1 = arith.constant -1 : index
    %c16 = arith.constant 16 : index
    %c-16 = arith.constant -16 : index
    %c0 = arith.constant 0 : index
    %c1 = arith.constant 1 : index
    %c32 = arith.constant 32 : index
    %alloca = memref.alloca() : memref<16x16xf32, 5>
    %alloca_0 = memref.alloca() : memref<16x16xf32, 5>
    %alloca_1 = memref.alloca() : memref<32xf32>
    scf.parallel (%arg6) = (%c0) to (%c32) step (%c1) {
      memref.store %cst, %alloca_1[%arg6] : memref<32xf32>
      scf.yield
    }
    %0 = arith.addi %arg4, %c15_i32 : i32
    %1 = arith.divsi %0, %c16_i32 : i32
    %2 = arith.index_cast %1 : i32 to index
    %3 = gpu.block_id  x
    %4 = arith.index_cast %3 : index to i32
    %5 = arith.muli %4, %c16_i32 : i32
    %6 = gpu.block_id  y
    %7 = arith.index_cast %6 : index to i32
    %8 = arith.muli %7, %c16_i32 : i32
    %9 = arith.muli %8, %arg4 : i32
    %10 = arith.index_cast %9 : i32 to index
    %11 = arith.index_cast %8 : i32 to index
    %12 = arith.index_cast %arg5 : i32 to index
    %13 = arith.index_cast %arg4 : i32 to index
    %14 = arith.index_cast %arg3 : i32 to index
    %15 = arith.subi %14, %11 : index
    %16 = arith.addi %15, %c-1 : index
    %17 = arith.cmpi sge, %16, %c0 : index
    scf.for %arg6 = %c0 to %2 step %c1 {
      %27 = arith.index_cast %arg6 : index to i32
      %28 = arith.muli %27, %c16_i32 : i32
      %29 = arith.muli %arg6, %c-16 : index
      %30 = arith.addi %29, %13 : index
      %31 = arith.addi %30, %c-1 : index
      %32 = arith.cmpi sge, %31, %c0 : index
      %33 = arith.muli %arg6, %c16 : index
      %34 = arith.addi %33, %10 : index
      %35 = arith.muli %arg6, %c16 : index
      %36 = arith.muli %35, %12 : index
      scf.parallel (%arg7) = (%c0) to (%c32) step (%c1) {
        %37 = arith.index_cast %arg7 : index to i32
        %38 = arith.addi %5, %37 : i32
        %39 = arith.index_cast %38 : i32 to index
        %40 = arith.addi %28, %37 : i32
        %41 = scf.if %17 -> (i1) {
          %46 = arith.cmpi slt, %40, %arg4 : i32
          scf.yield %46 : i1
        } else {
          scf.yield %false : i1
        }
        scf.if %41 {
          %46 = arith.addi %34, %arg7 : index
          %47 = memref.load %arg0[%46] : memref<?xf32>
          memref.store %47, %alloca_0[%c0, %arg7] : memref<16x16xf32, 5>
        } else {
          memref.store %cst, %alloca_0[%c0, %arg7] : memref<16x16xf32, 5>
        }
        %42 = arith.subi %12, %39 : index
        %43 = arith.addi %42, %c-1 : index
        %44 = arith.cmpi sge, %43, %c0 : index
        %45 = arith.andi %32, %44 : i1
        scf.if %45 {
          %46 = arith.addi %36, %39 : index
          %47 = memref.load %arg1[%46] : memref<?xf32>
          memref.store %47, %alloca[%c0, %arg7] : memref<16x16xf32, 5>
        } else {
          memref.store %cst, %alloca[%c0, %arg7] : memref<16x16xf32, 5>
        }
        scf.yield
      }
      scf.parallel (%arg7) = (%c0) to (%c32) step (%c1) {
        %37 = memref.load %alloca_1[%arg7] : memref<32xf32>
        %38 = scf.for %arg8 = %c0 to %c16 step %c1 iter_args(%arg9 = %37) -> (f32) {
          %39 = memref.load %alloca_0[%c0, %arg8] : memref<16x16xf32, 5>
          %40 = memref.load %alloca[%arg8, %arg7] : memref<16x16xf32, 5>
          %41 = arith.mulf %39, %40 : f32
          %42 = arith.addf %arg9, %41 : f32
          scf.yield %42 : f32
        }
        memref.store %38, %alloca_1[%arg7] : memref<32xf32>
        scf.yield
      }
    }
    %18 = gpu.block_id  y
    %19 = arith.index_cast %18 : index to i32
    %20 = arith.muli %19, %c16_i32 : i32
    %21 = arith.muli %20, %arg5 : i32
    %22 = arith.index_cast %21 : i32 to index
    %23 = gpu.block_id  x
    %24 = arith.index_cast %23 : index to i32
    %25 = arith.muli %24, %c16_i32 : i32
    %26 = arith.cmpi slt, %20, %arg3 : i32
    scf.parallel (%arg6) = (%c0) to (%c32) step (%c1) {
      %27 = arith.index_cast %arg6 : index to i32
      %28 = arith.addi %25, %27 : i32
      %29 = arith.index_cast %28 : i32 to index
      %30 = arith.cmpi slt, %28, %arg5 : i32
      %31 = memref.load %alloca_1[%arg6] : memref<32xf32>
      %32 = arith.andi %26, %30 : i1
      scf.if %32 {
        %33 = arith.addi %22, %29 : index
        memref.store %31, %arg2[%33] : memref<?xf32>
      }
      scf.yield
    }
    return
  }
}
[ict-debug] driver.cc: Before my pass process: end

[ict-debug] driver.cc: vectorizeSize = 1

[ict-debug] ConvertPolygeistToNPUPass::runOnOperation(): Before execute:

module attributes {dlti.dl_spec = #dlti.dl_spec<#dlti.dl_entry<f16, dense<16> : vector<2xi32>>, #dlti.dl_entry<f64, dense<64> : vector<2xi32>>, #dlti.dl_entry<f128, dense<128> : vector<2xi32>>, #dlti.dl_entry<f80, dense<128> : vector<2xi32>>, #dlti.dl_entry<i64, dense<64> : vector<2xi32>>, #dlti.dl_entry<!llvm.ptr<272>, dense<64> : vector<4xi32>>, #dlti.dl_entry<!llvm.ptr, dense<64> : vector<4xi32>>, #dlti.dl_entry<!llvm.ptr<271>, dense<32> : vector<4xi32>>, #dlti.dl_entry<i1, dense<8> : vector<2xi32>>, #dlti.dl_entry<!llvm.ptr<270>, dense<32> : vector<4xi32>>, #dlti.dl_entry<i8, dense<8> : vector<2xi32>>, #dlti.dl_entry<i16, dense<16> : vector<2xi32>>, #dlti.dl_entry<i32, dense<32> : vector<2xi32>>, #dlti.dl_entry<"dlti.stack_alignment", 128 : i32>, #dlti.dl_entry<"dlti.endianness", "little">>, llvm.data_layout = "e-m:e-p270:32:32-p271:32:32-p272:64:64-i64:64-f80:128-n8:16:32:64-S128", llvm.target_triple = "x86_64-unknown-linux-gnu", polygeist.gpu_module.llvm.data_layout = "e-i64:64-i128:128-v16:16-v32:32-n16:32:64", polygeist.gpu_module.llvm.target_triple = "nvptx64-nvidia-cuda", "polygeist.target-cpu" = "x86-64", "polygeist.target-features" = "+cmov,+cx8,+fxsr,+mmx,+sse,+sse2,+x87", "polygeist.tune-cpu" = "generic"} {
  gpu.module @_Z12MatMulKernelPKfS0_Pfiii_0 {
    gpu.func @_Z12MatMulKernelPKfS0_Pfiii(%arg0: memref<?xf32>, %arg1: memref<?xf32>, %arg2: memref<?xf32>, %arg3: i32, %arg4: i32, %arg5: i32) {
      %c15_i32 = arith.constant 15 : i32
      %false = arith.constant false
      %cst = arith.constant 0.000000e+00 : f32
      %c16_i32 = arith.constant 16 : i32
      %c-1 = arith.constant -1 : index
      %c16 = arith.constant 16 : index
      %c-16 = arith.constant -16 : index
      %c0 = arith.constant 0 : index
      %c1 = arith.constant 1 : index
      %c32 = arith.constant 32 : index
      %alloca = memref.alloca() : memref<16x16xf32, 5>
      %alloca_0 = memref.alloca() : memref<16x16xf32, 5>
      %alloca_1 = memref.alloca() : memref<32xf32>
      scf.parallel (%arg6) = (%c0) to (%c32) step (%c1) {
        memref.store %cst, %alloca_1[%arg6] : memref<32xf32>
        scf.yield
      }
      %0 = arith.addi %arg4, %c15_i32 : i32
      %1 = arith.divsi %0, %c16_i32 : i32
      %2 = arith.index_cast %1 : i32 to index
      %3 = gpu.block_id  x
      %4 = arith.index_cast %3 : index to i32
      %5 = arith.muli %4, %c16_i32 : i32
      %6 = gpu.block_id  y
      %7 = arith.index_cast %6 : index to i32
      %8 = arith.muli %7, %c16_i32 : i32
      %9 = arith.muli %8, %arg4 : i32
      %10 = arith.index_cast %9 : i32 to index
      %11 = arith.index_cast %8 : i32 to index
      %12 = arith.index_cast %arg5 : i32 to index
      %13 = arith.index_cast %arg4 : i32 to index
      %14 = arith.index_cast %arg3 : i32 to index
      %15 = arith.subi %14, %11 : index
      %16 = arith.addi %15, %c-1 : index
      %17 = arith.cmpi sge, %16, %c0 : index
      scf.for %arg6 = %c0 to %2 step %c1 {
        %21 = arith.index_cast %arg6 : index to i32
        %22 = arith.muli %21, %c16_i32 : i32
        %23 = arith.muli %arg6, %c-16 : index
        %24 = arith.addi %23, %13 : index
        %25 = arith.addi %24, %c-1 : index
        %26 = arith.cmpi sge, %25, %c0 : index
        %27 = arith.muli %arg6, %c16 : index
        %28 = arith.addi %27, %10 : index
        %29 = arith.muli %27, %12 : index
        scf.parallel (%arg7) = (%c0) to (%c32) step (%c1) {
          %30 = arith.index_cast %arg7 : index to i32
          %31 = arith.addi %5, %30 : i32
          %32 = arith.index_cast %31 : i32 to index
          %33 = scf.if %17 -> (i1) {
            %38 = arith.addi %22, %30 : i32
            %39 = arith.cmpi slt, %38, %arg4 : i32
            scf.yield %39 : i1
          } else {
            scf.yield %false : i1
          }
          scf.if %33 {
            %38 = arith.addi %28, %arg7 : index
            %39 = memref.load %arg0[%38] : memref<?xf32>
            memref.store %39, %alloca_0[%c0, %arg7] : memref<16x16xf32, 5>
          } else {
            memref.store %cst, %alloca_0[%c0, %arg7] : memref<16x16xf32, 5>
          }
          %34 = arith.subi %12, %32 : index
          %35 = arith.addi %34, %c-1 : index
          %36 = arith.cmpi sge, %35, %c0 : index
          %37 = arith.andi %26, %36 : i1
          scf.if %37 {
            %38 = arith.addi %29, %32 : index
            %39 = memref.load %arg1[%38] : memref<?xf32>
            memref.store %39, %alloca[%c0, %arg7] : memref<16x16xf32, 5>
          } else {
            memref.store %cst, %alloca[%c0, %arg7] : memref<16x16xf32, 5>
          }
          scf.yield
        }
        scf.parallel (%arg7) = (%c0) to (%c32) step (%c1) {
          %30 = memref.load %alloca_1[%arg7] : memref<32xf32>
          %31 = scf.for %arg8 = %c0 to %c16 step %c1 iter_args(%arg9 = %30) -> (f32) {
            %32 = memref.load %alloca_0[%c0, %arg8] : memref<16x16xf32, 5>
            %33 = memref.load %alloca[%arg8, %arg7] : memref<16x16xf32, 5>
            %34 = arith.mulf %32, %33 : f32
            %35 = arith.addf %arg9, %34 : f32
            scf.yield %35 : f32
          }
          memref.store %31, %alloca_1[%arg7] : memref<32xf32>
          scf.yield
        }
      }
      %18 = arith.muli %8, %arg5 : i32
      %19 = arith.index_cast %18 : i32 to index
      %20 = arith.cmpi slt, %8, %arg3 : i32
      scf.parallel (%arg6) = (%c0) to (%c32) step (%c1) {
        %21 = arith.index_cast %arg6 : index to i32
        %22 = arith.addi %5, %21 : i32
        %23 = arith.index_cast %22 : i32 to index
        %24 = arith.cmpi slt, %22, %arg5 : i32
        %25 = memref.load %alloca_1[%arg6] : memref<32xf32>
        %26 = arith.andi %20, %24 : i1
        scf.if %26 {
          %27 = arith.addi %19, %23 : index
          memref.store %25, %arg2[%27] : memref<?xf32>
        }
        scf.yield
      }
      gpu.return
    }
  }
}
[ict-debug] ConvertPolygeistToNPUPass::runOnOperation(): Before execute: end

[ict-debug] ConvertPolygeistToNPUPass::runOnOperation(): After vectorize:

module attributes {dlti.dl_spec = #dlti.dl_spec<#dlti.dl_entry<f16, dense<16> : vector<2xi32>>, #dlti.dl_entry<f64, dense<64> : vector<2xi32>>, #dlti.dl_entry<f128, dense<128> : vector<2xi32>>, #dlti.dl_entry<f80, dense<128> : vector<2xi32>>, #dlti.dl_entry<i64, dense<64> : vector<2xi32>>, #dlti.dl_entry<!llvm.ptr<272>, dense<64> : vector<4xi32>>, #dlti.dl_entry<!llvm.ptr, dense<64> : vector<4xi32>>, #dlti.dl_entry<!llvm.ptr<271>, dense<32> : vector<4xi32>>, #dlti.dl_entry<i1, dense<8> : vector<2xi32>>, #dlti.dl_entry<!llvm.ptr<270>, dense<32> : vector<4xi32>>, #dlti.dl_entry<i8, dense<8> : vector<2xi32>>, #dlti.dl_entry<i16, dense<16> : vector<2xi32>>, #dlti.dl_entry<i32, dense<32> : vector<2xi32>>, #dlti.dl_entry<"dlti.stack_alignment", 128 : i32>, #dlti.dl_entry<"dlti.endianness", "little">>, llvm.data_layout = "e-m:e-p270:32:32-p271:32:32-p272:64:64-i64:64-f80:128-n8:16:32:64-S128", llvm.target_triple = "x86_64-unknown-linux-gnu", polygeist.gpu_module.llvm.data_layout = "e-i64:64-i128:128-v16:16-v32:32-n16:32:64", polygeist.gpu_module.llvm.target_triple = "nvptx64-nvidia-cuda", "polygeist.target-cpu" = "x86-64", "polygeist.target-features" = "+cmov,+cx8,+fxsr,+mmx,+sse,+sse2,+x87", "polygeist.tune-cpu" = "generic"} {
  gpu.module @_Z12MatMulKernelPKfS0_Pfiii_0 {
    gpu.func @_Z12MatMulKernelPKfS0_Pfiii(%arg0: memref<?xf32>, %arg1: memref<?xf32>, %arg2: memref<?xf32>, %arg3: i32, %arg4: i32, %arg5: i32) {
      %c15_i32 = arith.constant 15 : i32
      %false = arith.constant false
      %cst = arith.constant 0.000000e+00 : f32
      %c16_i32 = arith.constant 16 : i32
      %c-1 = arith.constant -1 : index
      %c16 = arith.constant 16 : index
      %c-16 = arith.constant -16 : index
      %c0 = arith.constant 0 : index
      %c1 = arith.constant 1 : index
      %c32 = arith.constant 32 : index
      %alloca = memref.alloca() : memref<16x16xf32, 5>
      %alloca_0 = memref.alloca() : memref<16x16xf32, 5>
      %alloca_1 = memref.alloca() : memref<32xf32>
      %c1_2 = arith.constant 1 : index
      scf.for %arg6 = %c0 to %c32 step %c1_2 {
        memref.store %cst, %alloca_1[%arg6] : memref<32xf32>
      }
      %0 = arith.addi %arg4, %c15_i32 : i32
      %1 = arith.divsi %0, %c16_i32 : i32
      %2 = arith.index_cast %1 : i32 to index
      %3 = gpu.block_id  x
      %4 = arith.index_cast %3 : index to i32
      %5 = arith.muli %4, %c16_i32 : i32
      %6 = gpu.block_id  y
      %7 = arith.index_cast %6 : index to i32
      %8 = arith.muli %7, %c16_i32 : i32
      %9 = arith.muli %8, %arg4 : i32
      %10 = arith.index_cast %9 : i32 to index
      %11 = arith.index_cast %8 : i32 to index
      %12 = arith.index_cast %arg5 : i32 to index
      %13 = arith.index_cast %arg4 : i32 to index
      %14 = arith.index_cast %arg3 : i32 to index
      %15 = arith.subi %14, %11 : index
      %16 = arith.addi %15, %c-1 : index
      %17 = arith.cmpi sge, %16, %c0 : index
      scf.for %arg6 = %c0 to %2 step %c1 {
        %21 = arith.index_cast %arg6 : index to i32
        %22 = arith.muli %21, %c16_i32 : i32
        %23 = arith.muli %arg6, %c-16 : index
        %24 = arith.addi %23, %13 : index
        %25 = arith.addi %24, %c-1 : index
        %26 = arith.cmpi sge, %25, %c0 : index
        %27 = arith.muli %arg6, %c16 : index
        %28 = arith.addi %27, %10 : index
        %29 = arith.muli %27, %12 : index
        %c1_4 = arith.constant 1 : index
        scf.for %arg7 = %c0 to %c32 step %c1_4 {
          %30 = arith.index_cast %arg7 : index to i32
          %31 = arith.addi %5, %30 : i32
          %32 = arith.index_cast %31 : i32 to index
          %33 = scf.if %17 -> (i1) {
            %38 = arith.addi %22, %30 : i32
            %39 = arith.cmpi slt, %38, %arg4 : i32
            scf.yield %39 : i1
          } else {
            scf.yield %false : i1
          }
          scf.if %33 {
            %38 = arith.addi %28, %arg7 : index
            %39 = memref.load %arg0[%38] : memref<?xf32>
            memref.store %39, %alloca_0[%c0, %arg7] : memref<16x16xf32, 5>
          } else {
            memref.store %cst, %alloca_0[%c0, %arg7] : memref<16x16xf32, 5>
          }
          %34 = arith.subi %12, %32 : index
          %35 = arith.addi %34, %c-1 : index
          %36 = arith.cmpi sge, %35, %c0 : index
          %37 = arith.andi %26, %36 : i1
          scf.if %37 {
            %38 = arith.addi %29, %32 : index
            %39 = memref.load %arg1[%38] : memref<?xf32>
            memref.store %39, %alloca[%c0, %arg7] : memref<16x16xf32, 5>
          } else {
            memref.store %cst, %alloca[%c0, %arg7] : memref<16x16xf32, 5>
          }
        }
        %c1_5 = arith.constant 1 : index
        scf.for %arg7 = %c0 to %c32 step %c1_5 {
          %30 = memref.load %alloca_1[%arg7] : memref<32xf32>
          %31 = scf.for %arg8 = %c0 to %c16 step %c1 iter_args(%arg9 = %30) -> (f32) {
            %32 = memref.load %alloca_0[%c0, %arg8] : memref<16x16xf32, 5>
            %33 = memref.load %alloca[%arg8, %arg7] : memref<16x16xf32, 5>
            %34 = arith.mulf %32, %33 : f32
            %35 = arith.addf %arg9, %34 : f32
            scf.yield %35 : f32
          }
          memref.store %31, %alloca_1[%arg7] : memref<32xf32>
        }
      }
      %18 = arith.muli %8, %arg5 : i32
      %19 = arith.index_cast %18 : i32 to index
      %20 = arith.cmpi slt, %8, %arg3 : i32
      %c1_3 = arith.constant 1 : index
      scf.for %arg6 = %c0 to %c32 step %c1_3 {
        %21 = arith.index_cast %arg6 : index to i32
        %22 = arith.addi %5, %21 : i32
        %23 = arith.index_cast %22 : i32 to index
        %24 = arith.cmpi slt, %22, %arg5 : i32
        %25 = memref.load %alloca_1[%arg6] : memref<32xf32>
        %26 = arith.andi %20, %24 : i1
        scf.if %26 {
          %27 = arith.addi %19, %23 : index
          memref.store %25, %arg2[%27] : memref<?xf32>
        }
      }
      gpu.return
    }
  }
}
[ict-debug] ConvertPolygeistToNPUPass::runOnOperation(): After vectorize: end

[ict-debug] MemRefAllocaToNPULowering: process op: 

%alloca = memref.alloca() : memref<16x16xf32, 5>
[ict-debug] MemRefAllocaToNPULowering: memory space is 5

MemRefAllocaToNPULowering: newAllocaOp: 
%0 = "npu.alloca"() <{numElems = 256 : i32}> : () -> !llvm.ptr<6>
MemRefAllocaToNPULowering: old allocaOp: 
%alloca = memref.alloca() : memref<16x16xf32, 5>
MemRefAllocaToNPULowering: module: 
module attributes {dlti.dl_spec = #dlti.dl_spec<#dlti.dl_entry<f16, dense<16> : vector<2xi32>>, #dlti.dl_entry<f64, dense<64> : vector<2xi32>>, #dlti.dl_entry<f128, dense<128> : vector<2xi32>>, #dlti.dl_entry<f80, dense<128> : vector<2xi32>>, #dlti.dl_entry<i64, dense<64> : vector<2xi32>>, #dlti.dl_entry<!llvm.ptr<272>, dense<64> : vector<4xi32>>, #dlti.dl_entry<!llvm.ptr, dense<64> : vector<4xi32>>, #dlti.dl_entry<!llvm.ptr<271>, dense<32> : vector<4xi32>>, #dlti.dl_entry<i1, dense<8> : vector<2xi32>>, #dlti.dl_entry<!llvm.ptr<270>, dense<32> : vector<4xi32>>, #dlti.dl_entry<i8, dense<8> : vector<2xi32>>, #dlti.dl_entry<i16, dense<16> : vector<2xi32>>, #dlti.dl_entry<i32, dense<32> : vector<2xi32>>, #dlti.dl_entry<"dlti.stack_alignment", 128 : i32>, #dlti.dl_entry<"dlti.endianness", "little">>, llvm.data_layout = "e-m:e-p270:32:32-p271:32:32-p272:64:64-i64:64-f80:128-n8:16:32:64-S128", llvm.target_triple = "x86_64-unknown-linux-gnu", polygeist.gpu_module.llvm.data_layout = "e-i64:64-i128:128-v16:16-v32:32-n16:32:64", polygeist.gpu_module.llvm.target_triple = "nvptx64-nvidia-cuda", "polygeist.target-cpu" = "x86-64", "polygeist.target-features" = "+cmov,+cx8,+fxsr,+mmx,+sse,+sse2,+x87", "polygeist.tune-cpu" = "generic"} {
  gpu.module @_Z12MatMulKernelPKfS0_Pfiii_0 {
    gpu.func @_Z12MatMulKernelPKfS0_Pfiii(%arg0: memref<?xf32>, %arg1: memref<?xf32>, %arg2: memref<?xf32>, %arg3: i32, %arg4: i32, %arg5: i32) {
      %c15_i32 = arith.constant 15 : i32
      %false = arith.constant false
      %cst = arith.constant 0.000000e+00 : f32
      %c16_i32 = arith.constant 16 : i32
      %c-1 = arith.constant -1 : index
      %c16 = arith.constant 16 : index
      %c-16 = arith.constant -16 : index
      %c0 = arith.constant 0 : index
      %c1 = arith.constant 1 : index
      %c32 = arith.constant 32 : index
      %0 = "npu.alloca"() <{numElems = 256 : i32}> : () -> !llvm.ptr<6>
      %alloca = memref.alloca() : memref<16x16xf32, 5>
      %alloca_0 = memref.alloca() : memref<16x16xf32, 5>
      %alloca_1 = memref.alloca() : memref<32xf32, 5>
      %c1_2 = arith.constant 1 : index
      scf.for %arg6 = %c0 to %c32 step %c1_2 {
        memref.store %cst, %alloca_1[%arg6] : memref<32xf32, 5>
      }
      %1 = arith.addi %arg4, %c15_i32 : i32
      %2 = arith.divsi %1, %c16_i32 : i32
      %3 = arith.index_cast %2 : i32 to index
      %4 = gpu.block_id  x
      %5 = arith.index_cast %4 : index to i32
      %6 = arith.muli %5, %c16_i32 : i32
      %7 = gpu.block_id  y
      %8 = arith.index_cast %7 : index to i32
      %9 = arith.muli %8, %c16_i32 : i32
      %10 = arith.muli %9, %arg4 : i32
      %11 = arith.index_cast %10 : i32 to index
      %12 = arith.index_cast %9 : i32 to index
      %13 = arith.index_cast %arg5 : i32 to index
      %14 = arith.index_cast %arg4 : i32 to index
      %15 = arith.index_cast %arg3 : i32 to index
      %16 = arith.subi %15, %12 : index
      %17 = arith.addi %16, %c-1 : index
      %18 = arith.cmpi sge, %17, %c0 : index
      scf.for %arg6 = %c0 to %3 step %c1 {
        %22 = arith.index_cast %arg6 : index to i32
        %23 = arith.muli %22, %c16_i32 : i32
        %24 = arith.muli %arg6, %c-16 : index
        %25 = arith.addi %24, %14 : index
        %26 = arith.addi %25, %c-1 : index
        %27 = arith.cmpi sge, %26, %c0 : index
        %28 = arith.muli %arg6, %c16 : index
        %29 = arith.addi %28, %11 : index
        %30 = arith.muli %28, %13 : index
        %c1_4 = arith.constant 1 : index
        scf.for %arg7 = %c0 to %c32 step %c1_4 {
          %31 = arith.index_cast %arg7 : index to i32
          %32 = arith.addi %6, %31 : i32
          %33 = arith.index_cast %32 : i32 to index
          %34 = scf.if %18 -> (i1) {
            %39 = arith.addi %23, %31 : i32
            %40 = arith.cmpi slt, %39, %arg4 : i32
            scf.yield %40 : i1
          } else {
            scf.yield %false : i1
          }
          scf.if %34 {
            %39 = arith.addi %29, %arg7 : index
            %40 = memref.load %arg0[%39] : memref<?xf32>
            memref.store %40, %alloca_0[%c0, %arg7] : memref<16x16xf32, 5>
          } else {
            memref.store %cst, %alloca_0[%c0, %arg7] : memref<16x16xf32, 5>
          }
          %35 = arith.subi %13, %33 : index
          %36 = arith.addi %35, %c-1 : index
          %37 = arith.cmpi sge, %36, %c0 : index
          %38 = arith.andi %27, %37 : i1
          scf.if %38 {
            %39 = arith.addi %30, %33 : index
            %40 = memref.load %arg1[%39] : memref<?xf32>
            memref.store %40, %alloca[%c0, %arg7] : memref<16x16xf32, 5>
          } else {
            memref.store %cst, %alloca[%c0, %arg7] : memref<16x16xf32, 5>
          }
        }
        %c1_5 = arith.constant 1 : index
        scf.for %arg7 = %c0 to %c32 step %c1_5 {
          %31 = memref.load %alloca_1[%arg7] : memref<32xf32, 5>
          %32 = scf.for %arg8 = %c0 to %c16 step %c1 iter_args(%arg9 = %31) -> (f32) {
            %33 = memref.load %alloca_0[%c0, %arg8] : memref<16x16xf32, 5>
            %34 = memref.load %alloca[%arg8, %arg7] : memref<16x16xf32, 5>
            %35 = arith.mulf %33, %34 : f32
            %36 = arith.addf %arg9, %35 : f32
            scf.yield %36 : f32
          }
          memref.store %32, %alloca_1[%arg7] : memref<32xf32, 5>
        }
      }
      %19 = arith.muli %9, %arg5 : i32
      %20 = arith.index_cast %19 : i32 to index
      %21 = arith.cmpi slt, %9, %arg3 : i32
      %c1_3 = arith.constant 1 : index
      scf.for %arg6 = %c0 to %c32 step %c1_3 {
        %22 = arith.index_cast %arg6 : index to i32
        %23 = arith.addi %6, %22 : i32
        %24 = arith.index_cast %23 : i32 to index
        %25 = arith.cmpi slt, %23, %arg5 : i32
        %26 = memref.load %alloca_1[%arg6] : memref<32xf32, 5>
        %27 = arith.andi %21, %25 : i1
        scf.if %27 {
          %28 = arith.addi %20, %24 : index
          memref.store %26, %arg2[%28] : memref<?xf32>
        }
      }
      gpu.return
    }
  }
}
MemRefAllocaToNPULowering: module: end
[ict-debug] MemRefAllocaToNPULowering: process op: 

%alloca_0 = memref.alloca() : memref<16x16xf32, 5>
[ict-debug] MemRefAllocaToNPULowering: memory space is 5

MemRefAllocaToNPULowering: newAllocaOp: 
%1 = "npu.alloca"() <{numElems = 256 : i32}> : () -> !llvm.ptr<6>
MemRefAllocaToNPULowering: old allocaOp: 
%alloca_0 = memref.alloca() : memref<16x16xf32, 5>
MemRefAllocaToNPULowering: module: 
module attributes {dlti.dl_spec = #dlti.dl_spec<#dlti.dl_entry<f16, dense<16> : vector<2xi32>>, #dlti.dl_entry<f64, dense<64> : vector<2xi32>>, #dlti.dl_entry<f128, dense<128> : vector<2xi32>>, #dlti.dl_entry<f80, dense<128> : vector<2xi32>>, #dlti.dl_entry<i64, dense<64> : vector<2xi32>>, #dlti.dl_entry<!llvm.ptr<272>, dense<64> : vector<4xi32>>, #dlti.dl_entry<!llvm.ptr, dense<64> : vector<4xi32>>, #dlti.dl_entry<!llvm.ptr<271>, dense<32> : vector<4xi32>>, #dlti.dl_entry<i1, dense<8> : vector<2xi32>>, #dlti.dl_entry<!llvm.ptr<270>, dense<32> : vector<4xi32>>, #dlti.dl_entry<i8, dense<8> : vector<2xi32>>, #dlti.dl_entry<i16, dense<16> : vector<2xi32>>, #dlti.dl_entry<i32, dense<32> : vector<2xi32>>, #dlti.dl_entry<"dlti.stack_alignment", 128 : i32>, #dlti.dl_entry<"dlti.endianness", "little">>, llvm.data_layout = "e-m:e-p270:32:32-p271:32:32-p272:64:64-i64:64-f80:128-n8:16:32:64-S128", llvm.target_triple = "x86_64-unknown-linux-gnu", polygeist.gpu_module.llvm.data_layout = "e-i64:64-i128:128-v16:16-v32:32-n16:32:64", polygeist.gpu_module.llvm.target_triple = "nvptx64-nvidia-cuda", "polygeist.target-cpu" = "x86-64", "polygeist.target-features" = "+cmov,+cx8,+fxsr,+mmx,+sse,+sse2,+x87", "polygeist.tune-cpu" = "generic"} {
  gpu.module @_Z12MatMulKernelPKfS0_Pfiii_0 {
    gpu.func @_Z12MatMulKernelPKfS0_Pfiii(%arg0: memref<?xf32>, %arg1: memref<?xf32>, %arg2: memref<?xf32>, %arg3: i32, %arg4: i32, %arg5: i32) {
      %c15_i32 = arith.constant 15 : i32
      %false = arith.constant false
      %cst = arith.constant 0.000000e+00 : f32
      %c16_i32 = arith.constant 16 : i32
      %c-1 = arith.constant -1 : index
      %c16 = arith.constant 16 : index
      %c-16 = arith.constant -16 : index
      %c0 = arith.constant 0 : index
      %c1 = arith.constant 1 : index
      %c32 = arith.constant 32 : index
      %0 = "npu.alloca"() <{numElems = 256 : i32}> : () -> !llvm.ptr<6>
      %alloca = memref.alloca() : memref<16x16xf32, 5>
      %1 = "npu.alloca"() <{numElems = 256 : i32}> : () -> !llvm.ptr<6>
      %alloca_0 = memref.alloca() : memref<16x16xf32, 5>
      %alloca_1 = memref.alloca() : memref<32xf32, 5>
      %c1_2 = arith.constant 1 : index
      scf.for %arg6 = %c0 to %c32 step %c1_2 {
        memref.store %cst, %alloca_1[%arg6] : memref<32xf32, 5>
      }
      %2 = arith.addi %arg4, %c15_i32 : i32
      %3 = arith.divsi %2, %c16_i32 : i32
      %4 = arith.index_cast %3 : i32 to index
      %5 = gpu.block_id  x
      %6 = arith.index_cast %5 : index to i32
      %7 = arith.muli %6, %c16_i32 : i32
      %8 = gpu.block_id  y
      %9 = arith.index_cast %8 : index to i32
      %10 = arith.muli %9, %c16_i32 : i32
      %11 = arith.muli %10, %arg4 : i32
      %12 = arith.index_cast %11 : i32 to index
      %13 = arith.index_cast %10 : i32 to index
      %14 = arith.index_cast %arg5 : i32 to index
      %15 = arith.index_cast %arg4 : i32 to index
      %16 = arith.index_cast %arg3 : i32 to index
      %17 = arith.subi %16, %13 : index
      %18 = arith.addi %17, %c-1 : index
      %19 = arith.cmpi sge, %18, %c0 : index
      scf.for %arg6 = %c0 to %4 step %c1 {
        %23 = arith.index_cast %arg6 : index to i32
        %24 = arith.muli %23, %c16_i32 : i32
        %25 = arith.muli %arg6, %c-16 : index
        %26 = arith.addi %25, %15 : index
        %27 = arith.addi %26, %c-1 : index
        %28 = arith.cmpi sge, %27, %c0 : index
        %29 = arith.muli %arg6, %c16 : index
        %30 = arith.addi %29, %12 : index
        %31 = arith.muli %29, %14 : index
        %c1_4 = arith.constant 1 : index
        scf.for %arg7 = %c0 to %c32 step %c1_4 {
          %32 = arith.index_cast %arg7 : index to i32
          %33 = arith.addi %7, %32 : i32
          %34 = arith.index_cast %33 : i32 to index
          %35 = scf.if %19 -> (i1) {
            %40 = arith.addi %24, %32 : i32
            %41 = arith.cmpi slt, %40, %arg4 : i32
            scf.yield %41 : i1
          } else {
            scf.yield %false : i1
          }
          scf.if %35 {
            %40 = arith.addi %30, %arg7 : index
            %41 = memref.load %arg0[%40] : memref<?xf32>
            memref.store %41, %alloca_0[%c0, %arg7] : memref<16x16xf32, 5>
          } else {
            memref.store %cst, %alloca_0[%c0, %arg7] : memref<16x16xf32, 5>
          }
          %36 = arith.subi %14, %34 : index
          %37 = arith.addi %36, %c-1 : index
          %38 = arith.cmpi sge, %37, %c0 : index
          %39 = arith.andi %28, %38 : i1
          scf.if %39 {
            %40 = arith.addi %31, %34 : index
            %41 = memref.load %arg1[%40] : memref<?xf32>
            memref.store %41, %alloca[%c0, %arg7] : memref<16x16xf32, 5>
          } else {
            memref.store %cst, %alloca[%c0, %arg7] : memref<16x16xf32, 5>
          }
        }
        %c1_5 = arith.constant 1 : index
        scf.for %arg7 = %c0 to %c32 step %c1_5 {
          %32 = memref.load %alloca_1[%arg7] : memref<32xf32, 5>
          %33 = scf.for %arg8 = %c0 to %c16 step %c1 iter_args(%arg9 = %32) -> (f32) {
            %34 = memref.load %alloca_0[%c0, %arg8] : memref<16x16xf32, 5>
            %35 = memref.load %alloca[%arg8, %arg7] : memref<16x16xf32, 5>
            %36 = arith.mulf %34, %35 : f32
            %37 = arith.addf %arg9, %36 : f32
            scf.yield %37 : f32
          }
          memref.store %33, %alloca_1[%arg7] : memref<32xf32, 5>
        }
      }
      %20 = arith.muli %10, %arg5 : i32
      %21 = arith.index_cast %20 : i32 to index
      %22 = arith.cmpi slt, %10, %arg3 : i32
      %c1_3 = arith.constant 1 : index
      scf.for %arg6 = %c0 to %c32 step %c1_3 {
        %23 = arith.index_cast %arg6 : index to i32
        %24 = arith.addi %7, %23 : i32
        %25 = arith.index_cast %24 : i32 to index
        %26 = arith.cmpi slt, %24, %arg5 : i32
        %27 = memref.load %alloca_1[%arg6] : memref<32xf32, 5>
        %28 = arith.andi %22, %26 : i1
        scf.if %28 {
          %29 = arith.addi %21, %25 : index
          memref.store %27, %arg2[%29] : memref<?xf32>
        }
      }
      gpu.return
    }
  }
}
MemRefAllocaToNPULowering: module: end
[ict-debug] MemRefAllocaToNPULowering: process op: 

%alloca_1 = memref.alloca() : memref<32xf32, 5>
[ict-debug] MemRefAllocaToNPULowering: memory space is 5

MemRefAllocaToNPULowering: newAllocaOp: 
%2 = "npu.alloca"() <{numElems = 32 : i32}> : () -> !llvm.ptr<6>
MemRefAllocaToNPULowering: old allocaOp: 
%alloca_1 = memref.alloca() : memref<32xf32, 5>
MemRefAllocaToNPULowering: module: 
module attributes {dlti.dl_spec = #dlti.dl_spec<#dlti.dl_entry<f16, dense<16> : vector<2xi32>>, #dlti.dl_entry<f64, dense<64> : vector<2xi32>>, #dlti.dl_entry<f128, dense<128> : vector<2xi32>>, #dlti.dl_entry<f80, dense<128> : vector<2xi32>>, #dlti.dl_entry<i64, dense<64> : vector<2xi32>>, #dlti.dl_entry<!llvm.ptr<272>, dense<64> : vector<4xi32>>, #dlti.dl_entry<!llvm.ptr, dense<64> : vector<4xi32>>, #dlti.dl_entry<!llvm.ptr<271>, dense<32> : vector<4xi32>>, #dlti.dl_entry<i1, dense<8> : vector<2xi32>>, #dlti.dl_entry<!llvm.ptr<270>, dense<32> : vector<4xi32>>, #dlti.dl_entry<i8, dense<8> : vector<2xi32>>, #dlti.dl_entry<i16, dense<16> : vector<2xi32>>, #dlti.dl_entry<i32, dense<32> : vector<2xi32>>, #dlti.dl_entry<"dlti.stack_alignment", 128 : i32>, #dlti.dl_entry<"dlti.endianness", "little">>, llvm.data_layout = "e-m:e-p270:32:32-p271:32:32-p272:64:64-i64:64-f80:128-n8:16:32:64-S128", llvm.target_triple = "x86_64-unknown-linux-gnu", polygeist.gpu_module.llvm.data_layout = "e-i64:64-i128:128-v16:16-v32:32-n16:32:64", polygeist.gpu_module.llvm.target_triple = "nvptx64-nvidia-cuda", "polygeist.target-cpu" = "x86-64", "polygeist.target-features" = "+cmov,+cx8,+fxsr,+mmx,+sse,+sse2,+x87", "polygeist.tune-cpu" = "generic"} {
  gpu.module @_Z12MatMulKernelPKfS0_Pfiii_0 {
    gpu.func @_Z12MatMulKernelPKfS0_Pfiii(%arg0: memref<?xf32>, %arg1: memref<?xf32>, %arg2: memref<?xf32>, %arg3: i32, %arg4: i32, %arg5: i32) {
      %c15_i32 = arith.constant 15 : i32
      %false = arith.constant false
      %cst = arith.constant 0.000000e+00 : f32
      %c16_i32 = arith.constant 16 : i32
      %c-1 = arith.constant -1 : index
      %c16 = arith.constant 16 : index
      %c-16 = arith.constant -16 : index
      %c0 = arith.constant 0 : index
      %c1 = arith.constant 1 : index
      %c32 = arith.constant 32 : index
      %0 = "npu.alloca"() <{numElems = 256 : i32}> : () -> !llvm.ptr<6>
      %alloca = memref.alloca() : memref<16x16xf32, 5>
      %1 = "npu.alloca"() <{numElems = 256 : i32}> : () -> !llvm.ptr<6>
      %alloca_0 = memref.alloca() : memref<16x16xf32, 5>
      %2 = "npu.alloca"() <{numElems = 32 : i32}> : () -> !llvm.ptr<6>
      %alloca_1 = memref.alloca() : memref<32xf32, 5>
      %c1_2 = arith.constant 1 : index
      scf.for %arg6 = %c0 to %c32 step %c1_2 {
        memref.store %cst, %alloca_1[%arg6] : memref<32xf32, 5>
      }
      %3 = arith.addi %arg4, %c15_i32 : i32
      %4 = arith.divsi %3, %c16_i32 : i32
      %5 = arith.index_cast %4 : i32 to index
      %6 = gpu.block_id  x
      %7 = arith.index_cast %6 : index to i32
      %8 = arith.muli %7, %c16_i32 : i32
      %9 = gpu.block_id  y
      %10 = arith.index_cast %9 : index to i32
      %11 = arith.muli %10, %c16_i32 : i32
      %12 = arith.muli %11, %arg4 : i32
      %13 = arith.index_cast %12 : i32 to index
      %14 = arith.index_cast %11 : i32 to index
      %15 = arith.index_cast %arg5 : i32 to index
      %16 = arith.index_cast %arg4 : i32 to index
      %17 = arith.index_cast %arg3 : i32 to index
      %18 = arith.subi %17, %14 : index
      %19 = arith.addi %18, %c-1 : index
      %20 = arith.cmpi sge, %19, %c0 : index
      scf.for %arg6 = %c0 to %5 step %c1 {
        %24 = arith.index_cast %arg6 : index to i32
        %25 = arith.muli %24, %c16_i32 : i32
        %26 = arith.muli %arg6, %c-16 : index
        %27 = arith.addi %26, %16 : index
        %28 = arith.addi %27, %c-1 : index
        %29 = arith.cmpi sge, %28, %c0 : index
        %30 = arith.muli %arg6, %c16 : index
        %31 = arith.addi %30, %13 : index
        %32 = arith.muli %30, %15 : index
        %c1_4 = arith.constant 1 : index
        scf.for %arg7 = %c0 to %c32 step %c1_4 {
          %33 = arith.index_cast %arg7 : index to i32
          %34 = arith.addi %8, %33 : i32
          %35 = arith.index_cast %34 : i32 to index
          %36 = scf.if %20 -> (i1) {
            %41 = arith.addi %25, %33 : i32
            %42 = arith.cmpi slt, %41, %arg4 : i32
            scf.yield %42 : i1
          } else {
            scf.yield %false : i1
          }
          scf.if %36 {
            %41 = arith.addi %31, %arg7 : index
            %42 = memref.load %arg0[%41] : memref<?xf32>
            memref.store %42, %alloca_0[%c0, %arg7] : memref<16x16xf32, 5>
          } else {
            memref.store %cst, %alloca_0[%c0, %arg7] : memref<16x16xf32, 5>
          }
          %37 = arith.subi %15, %35 : index
          %38 = arith.addi %37, %c-1 : index
          %39 = arith.cmpi sge, %38, %c0 : index
          %40 = arith.andi %29, %39 : i1
          scf.if %40 {
            %41 = arith.addi %32, %35 : index
            %42 = memref.load %arg1[%41] : memref<?xf32>
            memref.store %42, %alloca[%c0, %arg7] : memref<16x16xf32, 5>
          } else {
            memref.store %cst, %alloca[%c0, %arg7] : memref<16x16xf32, 5>
          }
        }
        %c1_5 = arith.constant 1 : index
        scf.for %arg7 = %c0 to %c32 step %c1_5 {
          %33 = memref.load %alloca_1[%arg7] : memref<32xf32, 5>
          %34 = scf.for %arg8 = %c0 to %c16 step %c1 iter_args(%arg9 = %33) -> (f32) {
            %35 = memref.load %alloca_0[%c0, %arg8] : memref<16x16xf32, 5>
            %36 = memref.load %alloca[%arg8, %arg7] : memref<16x16xf32, 5>
            %37 = arith.mulf %35, %36 : f32
            %38 = arith.addf %arg9, %37 : f32
            scf.yield %38 : f32
          }
          memref.store %34, %alloca_1[%arg7] : memref<32xf32, 5>
        }
      }
      %21 = arith.muli %11, %arg5 : i32
      %22 = arith.index_cast %21 : i32 to index
      %23 = arith.cmpi slt, %11, %arg3 : i32
      %c1_3 = arith.constant 1 : index
      scf.for %arg6 = %c0 to %c32 step %c1_3 {
        %24 = arith.index_cast %arg6 : index to i32
        %25 = arith.addi %8, %24 : i32
        %26 = arith.index_cast %25 : i32 to index
        %27 = arith.cmpi slt, %25, %arg5 : i32
        %28 = memref.load %alloca_1[%arg6] : memref<32xf32, 5>
        %29 = arith.andi %23, %27 : i1
        scf.if %29 {
          %30 = arith.addi %22, %26 : index
          memref.store %28, %arg2[%30] : memref<?xf32>
        }
      }
      gpu.return
    }
  }
}
MemRefAllocaToNPULowering: module: end
[ict-debug] GPUBlockIdToNPULowering: process op: 

%6 = gpu.block_id  x
[ict-debug] GPUBlockIdToNPULowering: process op: 

%10 = gpu.block_id  y
[ict-debug] ConvertPolygeistToNPUPass::runOnOperation(): After convert to NPU:

module attributes {dlti.dl_spec = #dlti.dl_spec<#dlti.dl_entry<f16, dense<16> : vector<2xi32>>, #dlti.dl_entry<f64, dense<64> : vector<2xi32>>, #dlti.dl_entry<f128, dense<128> : vector<2xi32>>, #dlti.dl_entry<f80, dense<128> : vector<2xi32>>, #dlti.dl_entry<i64, dense<64> : vector<2xi32>>, #dlti.dl_entry<!llvm.ptr<272>, dense<64> : vector<4xi32>>, #dlti.dl_entry<!llvm.ptr, dense<64> : vector<4xi32>>, #dlti.dl_entry<!llvm.ptr<271>, dense<32> : vector<4xi32>>, #dlti.dl_entry<i1, dense<8> : vector<2xi32>>, #dlti.dl_entry<!llvm.ptr<270>, dense<32> : vector<4xi32>>, #dlti.dl_entry<i8, dense<8> : vector<2xi32>>, #dlti.dl_entry<i16, dense<16> : vector<2xi32>>, #dlti.dl_entry<i32, dense<32> : vector<2xi32>>, #dlti.dl_entry<"dlti.stack_alignment", 128 : i32>, #dlti.dl_entry<"dlti.endianness", "little">>, llvm.data_layout = "e-m:e-p270:32:32-p271:32:32-p272:64:64-i64:64-f80:128-n8:16:32:64-S128", llvm.target_triple = "x86_64-unknown-linux-gnu", polygeist.gpu_module.llvm.data_layout = "e-i64:64-i128:128-v16:16-v32:32-n16:32:64", polygeist.gpu_module.llvm.target_triple = "nvptx64-nvidia-cuda", "polygeist.target-cpu" = "x86-64", "polygeist.target-features" = "+cmov,+cx8,+fxsr,+mmx,+sse,+sse2,+x87", "polygeist.tune-cpu" = "generic"} {
  gpu.module @_Z12MatMulKernelPKfS0_Pfiii_0 {
    gpu.func @_Z12MatMulKernelPKfS0_Pfiii(%arg0: memref<?xf32>, %arg1: memref<?xf32>, %arg2: memref<?xf32>, %arg3: i32, %arg4: i32, %arg5: i32) {
      %c15_i32 = arith.constant 15 : i32
      %false = arith.constant false
      %cst = arith.constant 0.000000e+00 : f32
      %c16_i32 = arith.constant 16 : i32
      %c-1 = arith.constant -1 : index
      %c16 = arith.constant 16 : index
      %c-16 = arith.constant -16 : index
      %c0 = arith.constant 0 : index
      %c1 = arith.constant 1 : index
      %c32 = arith.constant 32 : index
      %0 = "npu.alloca"() <{numElems = 256 : i32}> : () -> !llvm.ptr<6>
      %1 = builtin.unrealized_conversion_cast %0 : !llvm.ptr<6> to memref<16x16xf32, 5>
      %2 = "npu.alloca"() <{numElems = 256 : i32}> : () -> !llvm.ptr<6>
      %3 = builtin.unrealized_conversion_cast %2 : !llvm.ptr<6> to memref<16x16xf32, 5>
      %4 = "npu.alloca"() <{numElems = 32 : i32}> : () -> !llvm.ptr<6>
      %5 = builtin.unrealized_conversion_cast %4 : !llvm.ptr<6> to memref<32xf32, 5>
      %c1_0 = arith.constant 1 : index
      scf.for %arg6 = %c0 to %c32 step %c1_0 {
        memref.store %cst, %5[%arg6] : memref<32xf32, 5>
      }
      %6 = arith.addi %arg4, %c15_i32 : i32
      %7 = arith.divsi %6, %c16_i32 : i32
      %8 = arith.index_cast %7 : i32 to index
      %9 = "npu.block_id"() <{dimension = "X"}> : () -> i64
      %10 = arith.index_cast %9 : i64 to index
      %11 = builtin.unrealized_conversion_cast %9 : i64 to index
      %12 = arith.index_cast %10 : index to i32
      %13 = arith.muli %12, %c16_i32 : i32
      %14 = "npu.block_id"() <{dimension = "Y"}> : () -> i64
      %15 = arith.index_cast %14 : i64 to index
      %16 = builtin.unrealized_conversion_cast %14 : i64 to index
      %17 = arith.index_cast %15 : index to i32
      %18 = arith.muli %17, %c16_i32 : i32
      %19 = arith.muli %18, %arg4 : i32
      %20 = arith.index_cast %19 : i32 to index
      %21 = arith.index_cast %18 : i32 to index
      %22 = arith.index_cast %arg5 : i32 to index
      %23 = arith.index_cast %arg4 : i32 to index
      %24 = arith.index_cast %arg3 : i32 to index
      %25 = arith.subi %24, %21 : index
      %26 = arith.addi %25, %c-1 : index
      %27 = arith.cmpi sge, %26, %c0 : index
      scf.for %arg6 = %c0 to %8 step %c1 {
        %31 = arith.index_cast %arg6 : index to i32
        %32 = arith.muli %31, %c16_i32 : i32
        %33 = arith.muli %arg6, %c-16 : index
        %34 = arith.addi %33, %23 : index
        %35 = arith.addi %34, %c-1 : index
        %36 = arith.cmpi sge, %35, %c0 : index
        %37 = arith.muli %arg6, %c16 : index
        %38 = arith.addi %37, %20 : index
        %39 = arith.muli %37, %22 : index
        %c1_2 = arith.constant 1 : index
        scf.for %arg7 = %c0 to %c32 step %c1_2 {
          %40 = arith.index_cast %arg7 : index to i32
          %41 = arith.addi %13, %40 : i32
          %42 = arith.index_cast %41 : i32 to index
          %43 = scf.if %27 -> (i1) {
            %48 = arith.addi %32, %40 : i32
            %49 = arith.cmpi slt, %48, %arg4 : i32
            scf.yield %49 : i1
          } else {
            scf.yield %false : i1
          }
          scf.if %43 {
            %48 = arith.addi %38, %arg7 : index
            %49 = memref.load %arg0[%48] : memref<?xf32>
            memref.store %49, %3[%c0, %arg7] : memref<16x16xf32, 5>
          } else {
            memref.store %cst, %3[%c0, %arg7] : memref<16x16xf32, 5>
          }
          %44 = arith.subi %22, %42 : index
          %45 = arith.addi %44, %c-1 : index
          %46 = arith.cmpi sge, %45, %c0 : index
          %47 = arith.andi %36, %46 : i1
          scf.if %47 {
            %48 = arith.addi %39, %42 : index
            %49 = memref.load %arg1[%48] : memref<?xf32>
            memref.store %49, %1[%c0, %arg7] : memref<16x16xf32, 5>
          } else {
            memref.store %cst, %1[%c0, %arg7] : memref<16x16xf32, 5>
          }
        }
        %c1_3 = arith.constant 1 : index
        scf.for %arg7 = %c0 to %c32 step %c1_3 {
          %40 = memref.load %5[%arg7] : memref<32xf32, 5>
          %41 = scf.for %arg8 = %c0 to %c16 step %c1 iter_args(%arg9 = %40) -> (f32) {
            %42 = memref.load %3[%c0, %arg8] : memref<16x16xf32, 5>
            %43 = memref.load %1[%arg8, %arg7] : memref<16x16xf32, 5>
            %44 = emitc.mul %42, %43 : (f32, f32) -> f32
            %45 = emitc.add %arg9, %44 : (f32, f32) -> f32
            scf.yield %45 : f32
          }
          memref.store %41, %5[%arg7] : memref<32xf32, 5>
        }
      }
      %28 = arith.muli %18, %arg5 : i32
      %29 = arith.index_cast %28 : i32 to index
      %30 = arith.cmpi slt, %18, %arg3 : i32
      %c1_1 = arith.constant 1 : index
      scf.for %arg6 = %c0 to %c32 step %c1_1 {
        %31 = arith.index_cast %arg6 : index to i32
        %32 = arith.addi %13, %31 : i32
        %33 = arith.index_cast %32 : i32 to index
        %34 = arith.cmpi slt, %32, %arg5 : i32
        %35 = memref.load %5[%arg6] : memref<32xf32, 5>
        %36 = arith.andi %30, %34 : i1
        scf.if %36 {
          %37 = arith.addi %29, %33 : index
          memref.store %35, %arg2[%37] : memref<?xf32>
        }
      }
      gpu.return
    }
  }
}
[ict-debug] ConvertPolygeistToNPUPass::runOnOperation(): After convert to NPU: end

[ict-debug] driver.cc: Before convert to EmitC dialect:

module attributes {dlti.dl_spec = #dlti.dl_spec<#dlti.dl_entry<f16, dense<16> : vector<2xi32>>, #dlti.dl_entry<f64, dense<64> : vector<2xi32>>, #dlti.dl_entry<f128, dense<128> : vector<2xi32>>, #dlti.dl_entry<f80, dense<128> : vector<2xi32>>, #dlti.dl_entry<i64, dense<64> : vector<2xi32>>, #dlti.dl_entry<!llvm.ptr<272>, dense<64> : vector<4xi32>>, #dlti.dl_entry<!llvm.ptr, dense<64> : vector<4xi32>>, #dlti.dl_entry<!llvm.ptr<271>, dense<32> : vector<4xi32>>, #dlti.dl_entry<i1, dense<8> : vector<2xi32>>, #dlti.dl_entry<!llvm.ptr<270>, dense<32> : vector<4xi32>>, #dlti.dl_entry<i8, dense<8> : vector<2xi32>>, #dlti.dl_entry<i16, dense<16> : vector<2xi32>>, #dlti.dl_entry<i32, dense<32> : vector<2xi32>>, #dlti.dl_entry<"dlti.stack_alignment", 128 : i32>, #dlti.dl_entry<"dlti.endianness", "little">>, llvm.data_layout = "e-m:e-p270:32:32-p271:32:32-p272:64:64-i64:64-f80:128-n8:16:32:64-S128", llvm.target_triple = "x86_64-unknown-linux-gnu", polygeist.gpu_module.llvm.data_layout = "e-i64:64-i128:128-v16:16-v32:32-n16:32:64", polygeist.gpu_module.llvm.target_triple = "nvptx64-nvidia-cuda", "polygeist.target-cpu" = "x86-64", "polygeist.target-features" = "+cmov,+cx8,+fxsr,+mmx,+sse,+sse2,+x87", "polygeist.tune-cpu" = "generic"} {
  gpu.module @_Z12MatMulKernelPKfS0_Pfiii_0 {
    gpu.func @_Z12MatMulKernelPKfS0_Pfiii(%arg0: memref<?xf32>, %arg1: memref<?xf32>, %arg2: memref<?xf32>, %arg3: i32, %arg4: i32, %arg5: i32) {
      %c15_i32 = arith.constant 15 : i32
      %false = arith.constant false
      %cst = arith.constant 0.000000e+00 : f32
      %c16_i32 = arith.constant 16 : i32
      %c-1 = arith.constant -1 : index
      %c16 = arith.constant 16 : index
      %c-16 = arith.constant -16 : index
      %c0 = arith.constant 0 : index
      %c1 = arith.constant 1 : index
      %c32 = arith.constant 32 : index
      %0 = "npu.alloca"() <{numElems = 256 : i32}> : () -> !llvm.ptr<6>
      %1 = builtin.unrealized_conversion_cast %0 : !llvm.ptr<6> to memref<16x16xf32, 5>
      %2 = "npu.alloca"() <{numElems = 256 : i32}> : () -> !llvm.ptr<6>
      %3 = builtin.unrealized_conversion_cast %2 : !llvm.ptr<6> to memref<16x16xf32, 5>
      %4 = "npu.alloca"() <{numElems = 32 : i32}> : () -> !llvm.ptr<6>
      %5 = builtin.unrealized_conversion_cast %4 : !llvm.ptr<6> to memref<32xf32, 5>
      scf.for %arg6 = %c0 to %c32 step %c1 {
        memref.store %cst, %5[%arg6] : memref<32xf32, 5>
      }
      %6 = arith.addi %arg4, %c15_i32 : i32
      %7 = arith.divsi %6, %c16_i32 : i32
      %8 = arith.index_cast %7 : i32 to index
      %9 = "npu.block_id"() <{dimension = "X"}> : () -> i64
      %10 = arith.index_cast %9 : i64 to index
      %11 = arith.index_cast %10 : index to i32
      %12 = arith.muli %11, %c16_i32 : i32
      %13 = "npu.block_id"() <{dimension = "Y"}> : () -> i64
      %14 = arith.index_cast %13 : i64 to index
      %15 = arith.index_cast %14 : index to i32
      %16 = arith.muli %15, %c16_i32 : i32
      %17 = arith.muli %16, %arg4 : i32
      %18 = arith.index_cast %17 : i32 to index
      %19 = arith.index_cast %16 : i32 to index
      %20 = arith.index_cast %arg5 : i32 to index
      %21 = arith.index_cast %arg4 : i32 to index
      %22 = arith.index_cast %arg3 : i32 to index
      %23 = arith.subi %22, %19 : index
      %24 = arith.addi %23, %c-1 : index
      %25 = arith.cmpi sge, %24, %c0 : index
      scf.for %arg6 = %c0 to %8 step %c1 {
        %29 = arith.index_cast %arg6 : index to i32
        %30 = arith.muli %29, %c16_i32 : i32
        %31 = arith.muli %arg6, %c-16 : index
        %32 = arith.addi %31, %21 : index
        %33 = arith.addi %32, %c-1 : index
        %34 = arith.cmpi sge, %33, %c0 : index
        %35 = arith.muli %arg6, %c16 : index
        %36 = arith.addi %35, %18 : index
        %37 = arith.muli %35, %20 : index
        scf.for %arg7 = %c0 to %c32 step %c1 {
          %38 = arith.index_cast %arg7 : index to i32
          %39 = arith.addi %12, %38 : i32
          %40 = arith.index_cast %39 : i32 to index
          %41 = scf.if %25 -> (i1) {
            %46 = arith.addi %30, %38 : i32
            %47 = arith.cmpi slt, %46, %arg4 : i32
            scf.yield %47 : i1
          } else {
            scf.yield %false : i1
          }
          scf.if %41 {
            %46 = arith.addi %36, %arg7 : index
            %47 = memref.load %arg0[%46] : memref<?xf32>
            memref.store %47, %3[%c0, %arg7] : memref<16x16xf32, 5>
          } else {
            memref.store %cst, %3[%c0, %arg7] : memref<16x16xf32, 5>
          }
          %42 = arith.subi %20, %40 : index
          %43 = arith.addi %42, %c-1 : index
          %44 = arith.cmpi sge, %43, %c0 : index
          %45 = arith.andi %34, %44 : i1
          scf.if %45 {
            %46 = arith.addi %37, %40 : index
            %47 = memref.load %arg1[%46] : memref<?xf32>
            memref.store %47, %1[%c0, %arg7] : memref<16x16xf32, 5>
          } else {
            memref.store %cst, %1[%c0, %arg7] : memref<16x16xf32, 5>
          }
        }
        scf.for %arg7 = %c0 to %c32 step %c1 {
          %38 = memref.load %5[%arg7] : memref<32xf32, 5>
          %39 = scf.for %arg8 = %c0 to %c16 step %c1 iter_args(%arg9 = %38) -> (f32) {
            %40 = memref.load %3[%c0, %arg8] : memref<16x16xf32, 5>
            %41 = memref.load %1[%arg8, %arg7] : memref<16x16xf32, 5>
            %42 = emitc.mul %40, %41 : (f32, f32) -> f32
            %43 = emitc.add %arg9, %42 : (f32, f32) -> f32
            scf.yield %43 : f32
          }
          memref.store %39, %5[%arg7] : memref<32xf32, 5>
        }
      }
      %26 = arith.muli %16, %arg5 : i32
      %27 = arith.index_cast %26 : i32 to index
      %28 = arith.cmpi slt, %16, %arg3 : i32
      scf.for %arg6 = %c0 to %c32 step %c1 {
        %29 = arith.index_cast %arg6 : index to i32
        %30 = arith.addi %12, %29 : i32
        %31 = arith.index_cast %30 : i32 to index
        %32 = arith.cmpi slt, %30, %arg5 : i32
        %33 = memref.load %5[%arg6] : memref<32xf32, 5>
        %34 = arith.andi %28, %32 : i1
        scf.if %34 {
          %35 = arith.addi %27, %31 : index
          memref.store %33, %arg2[%35] : memref<?xf32>
        }
      }
      gpu.return
    }
  }
}
[ict-debug] driver.cc: Before convert to EmitC dialect: end

module attributes {dlti.dl_spec = #dlti.dl_spec<#dlti.dl_entry<f16, dense<16> : vector<2xi32>>, #dlti.dl_entry<f64, dense<64> : vector<2xi32>>, #dlti.dl_entry<f128, dense<128> : vector<2xi32>>, #dlti.dl_entry<f80, dense<128> : vector<2xi32>>, #dlti.dl_entry<i64, dense<64> : vector<2xi32>>, #dlti.dl_entry<!llvm.ptr<272>, dense<64> : vector<4xi32>>, #dlti.dl_entry<!llvm.ptr, dense<64> : vector<4xi32>>, #dlti.dl_entry<!llvm.ptr<271>, dense<32> : vector<4xi32>>, #dlti.dl_entry<i1, dense<8> : vector<2xi32>>, #dlti.dl_entry<!llvm.ptr<270>, dense<32> : vector<4xi32>>, #dlti.dl_entry<i8, dense<8> : vector<2xi32>>, #dlti.dl_entry<i16, dense<16> : vector<2xi32>>, #dlti.dl_entry<i32, dense<32> : vector<2xi32>>, #dlti.dl_entry<"dlti.stack_alignment", 128 : i32>, #dlti.dl_entry<"dlti.endianness", "little">>, llvm.data_layout = "e-m:e-p270:32:32-p271:32:32-p272:64:64-i64:64-f80:128-n8:16:32:64-S128", llvm.target_triple = "x86_64-unknown-linux-gnu", polygeist.gpu_module.llvm.data_layout = "e-i64:64-i128:128-v16:16-v32:32-n16:32:64", polygeist.gpu_module.llvm.target_triple = "nvptx64-nvidia-cuda", "polygeist.target-cpu" = "x86-64", "polygeist.target-features" = "+cmov,+cx8,+fxsr,+mmx,+sse,+sse2,+x87", "polygeist.tune-cpu" = "generic"} {
  gpu.module @_Z12MatMulKernelPKfS0_Pfiii_0 {
    gpu.func @_Z12MatMulKernelPKfS0_Pfiii(%arg0: memref<?xf32>, %arg1: memref<?xf32>, %arg2: memref<?xf32>, %arg3: i32, %arg4: i32, %arg5: i32) {
      %c15_i32 = arith.constant 15 : i32
      %false = arith.constant false
      %cst = arith.constant 0.000000e+00 : f32
      %c16_i32 = arith.constant 16 : i32
      %c-1 = arith.constant -1 : index
      %c16 = arith.constant 16 : index
      %c-16 = arith.constant -16 : index
      %c0 = arith.constant 0 : index
      %c1 = arith.constant 1 : index
      %c32 = arith.constant 32 : index
      %0 = "npu.alloca"() <{numElems = 256 : i32}> : () -> !llvm.ptr<6>
      %1 = builtin.unrealized_conversion_cast %0 : !llvm.ptr<6> to memref<16x16xf32, 5>
      %2 = "npu.alloca"() <{numElems = 256 : i32}> : () -> !llvm.ptr<6>
      %3 = builtin.unrealized_conversion_cast %2 : !llvm.ptr<6> to memref<16x16xf32, 5>
      %4 = "npu.alloca"() <{numElems = 32 : i32}> : () -> !llvm.ptr<6>
      %5 = builtin.unrealized_conversion_cast %4 : !llvm.ptr<6> to memref<32xf32, 5>
      scf.for %arg6 = %c0 to %c32 step %c1 {
        memref.store %cst, %5[%arg6] : memref<32xf32, 5>
      }
      %6 = arith.addi %arg4, %c15_i32 : i32
      %7 = arith.divsi %6, %c16_i32 : i32
      %8 = arith.index_cast %7 : i32 to index
      %9 = "npu.block_id"() <{dimension = "X"}> : () -> i64
      %10 = arith.index_cast %9 : i64 to index
      %11 = arith.index_cast %10 : index to i32
      %12 = arith.muli %11, %c16_i32 : i32
      %13 = "npu.block_id"() <{dimension = "Y"}> : () -> i64
      %14 = arith.index_cast %13 : i64 to index
      %15 = arith.index_cast %14 : index to i32
      %16 = arith.muli %15, %c16_i32 : i32
      %17 = arith.muli %16, %arg4 : i32
      %18 = arith.index_cast %17 : i32 to index
      %19 = arith.index_cast %16 : i32 to index
      %20 = arith.index_cast %arg5 : i32 to index
      %21 = arith.index_cast %arg4 : i32 to index
      %22 = arith.index_cast %arg3 : i32 to index
      %23 = arith.subi %22, %19 : index
      %24 = arith.addi %23, %c-1 : index
      %25 = arith.cmpi sge, %24, %c0 : index
      scf.for %arg6 = %c0 to %8 step %c1 {
        %29 = arith.index_cast %arg6 : index to i32
        %30 = arith.muli %29, %c16_i32 : i32
        %31 = arith.muli %arg6, %c-16 : index
        %32 = arith.addi %31, %21 : index
        %33 = arith.addi %32, %c-1 : index
        %34 = arith.cmpi sge, %33, %c0 : index
        %35 = arith.muli %arg6, %c16 : index
        %36 = arith.addi %35, %18 : index
        %37 = arith.muli %35, %20 : index
        scf.for %arg7 = %c0 to %c32 step %c1 {
          %38 = arith.index_cast %arg7 : index to i32
          %39 = arith.addi %12, %38 : i32
          %40 = arith.index_cast %39 : i32 to index
          %41 = "emitc.variable"() <{value = #emitc.opaque<"">}> : () -> i1
          emitc.if %25 {
            %46 = arith.addi %30, %38 : i32
            %47 = arith.cmpi slt, %46, %arg4 : i32
            emitc.assign %47 : i1 to %41 : i1
          } else {
            emitc.assign %false : i1 to %41 : i1
          }
          emitc.if %41 {
            %46 = arith.addi %36, %arg7 : index
            %47 = memref.load %arg0[%46] : memref<?xf32>
            memref.store %47, %3[%c0, %arg7] : memref<16x16xf32, 5>
          } else {
            memref.store %cst, %3[%c0, %arg7] : memref<16x16xf32, 5>
          }
          %42 = arith.subi %20, %40 : index
          %43 = arith.addi %42, %c-1 : index
          %44 = arith.cmpi sge, %43, %c0 : index
          %45 = arith.andi %34, %44 : i1
          emitc.if %45 {
            %46 = arith.addi %37, %40 : index
            %47 = memref.load %arg1[%46] : memref<?xf32>
            memref.store %47, %1[%c0, %arg7] : memref<16x16xf32, 5>
          } else {
            memref.store %cst, %1[%c0, %arg7] : memref<16x16xf32, 5>
          }
        }
        scf.for %arg7 = %c0 to %c32 step %c1 {
          %38 = memref.load %5[%arg7] : memref<32xf32, 5>
          %39 = scf.for %arg8 = %c0 to %c16 step %c1 iter_args(%arg9 = %38) -> (f32) {
            %40 = memref.load %3[%c0, %arg8] : memref<16x16xf32, 5>
            %41 = memref.load %1[%arg8, %arg7] : memref<16x16xf32, 5>
            %42 = emitc.mul %40, %41 : (f32, f32) -> f32
            %43 = emitc.add %arg9, %42 : (f32, f32) -> f32
            scf.yield %43 : f32
          }
          memref.store %39, %5[%arg7] : memref<32xf32, 5>
        }
      }
      %26 = arith.muli %16, %arg5 : i32
      %27 = arith.index_cast %26 : i32 to index
      %28 = arith.cmpi slt, %16, %arg3 : i32
      scf.for %arg6 = %c0 to %c32 step %c1 {
        %29 = arith.index_cast %arg6 : index to i32
        %30 = arith.addi %12, %29 : i32
        %31 = arith.index_cast %30 : i32 to index
        %32 = arith.cmpi slt, %30, %arg5 : i32
        %33 = memref.load %5[%arg6] : memref<32xf32, 5>
        %34 = arith.andi %28, %32 : i1
        emitc.if %34 {
          %35 = arith.addi %27, %31 : index
          memref.store %33, %arg2[%35] : memref<?xf32>
        }
      }
      gpu.return
    }
  }
}
[ict-debug] driver.cc: After convert to EmitC dialect:

module attributes {dlti.dl_spec = #dlti.dl_spec<#dlti.dl_entry<f16, dense<16> : vector<2xi32>>, #dlti.dl_entry<f64, dense<64> : vector<2xi32>>, #dlti.dl_entry<f128, dense<128> : vector<2xi32>>, #dlti.dl_entry<f80, dense<128> : vector<2xi32>>, #dlti.dl_entry<i64, dense<64> : vector<2xi32>>, #dlti.dl_entry<!llvm.ptr<272>, dense<64> : vector<4xi32>>, #dlti.dl_entry<!llvm.ptr, dense<64> : vector<4xi32>>, #dlti.dl_entry<!llvm.ptr<271>, dense<32> : vector<4xi32>>, #dlti.dl_entry<i1, dense<8> : vector<2xi32>>, #dlti.dl_entry<!llvm.ptr<270>, dense<32> : vector<4xi32>>, #dlti.dl_entry<i8, dense<8> : vector<2xi32>>, #dlti.dl_entry<i16, dense<16> : vector<2xi32>>, #dlti.dl_entry<i32, dense<32> : vector<2xi32>>, #dlti.dl_entry<"dlti.stack_alignment", 128 : i32>, #dlti.dl_entry<"dlti.endianness", "little">>, llvm.data_layout = "e-m:e-p270:32:32-p271:32:32-p272:64:64-i64:64-f80:128-n8:16:32:64-S128", llvm.target_triple = "x86_64-unknown-linux-gnu", polygeist.gpu_module.llvm.data_layout = "e-i64:64-i128:128-v16:16-v32:32-n16:32:64", polygeist.gpu_module.llvm.target_triple = "nvptx64-nvidia-cuda", "polygeist.target-cpu" = "x86-64", "polygeist.target-features" = "+cmov,+cx8,+fxsr,+mmx,+sse,+sse2,+x87", "polygeist.tune-cpu" = "generic"} {
  gpu.module @_Z12MatMulKernelPKfS0_Pfiii_0 {
    gpu.func @_Z12MatMulKernelPKfS0_Pfiii(%arg0: memref<?xf32>, %arg1: memref<?xf32>, %arg2: memref<?xf32>, %arg3: i32, %arg4: i32, %arg5: i32) {
      %c15_i32 = arith.constant 15 : i32
      %false = arith.constant false
      %cst = arith.constant 0.000000e+00 : f32
      %c16_i32 = arith.constant 16 : i32
      %c-1 = arith.constant -1 : index
      %c16 = arith.constant 16 : index
      %c-16 = arith.constant -16 : index
      %c0 = arith.constant 0 : index
      %c1 = arith.constant 1 : index
      %c32 = arith.constant 32 : index
      %0 = "npu.alloca"() <{numElems = 256 : i32}> : () -> !llvm.ptr<6>
      %1 = builtin.unrealized_conversion_cast %0 : !llvm.ptr<6> to memref<16x16xf32, 5>
      %2 = "npu.alloca"() <{numElems = 256 : i32}> : () -> !llvm.ptr<6>
      %3 = builtin.unrealized_conversion_cast %2 : !llvm.ptr<6> to memref<16x16xf32, 5>
      %4 = "npu.alloca"() <{numElems = 32 : i32}> : () -> !llvm.ptr<6>
      %5 = builtin.unrealized_conversion_cast %4 : !llvm.ptr<6> to memref<32xf32, 5>
      scf.for %arg6 = %c0 to %c32 step %c1 {
        memref.store %cst, %5[%arg6] : memref<32xf32, 5>
      }
      %6 = arith.addi %arg4, %c15_i32 : i32
      %7 = arith.divsi %6, %c16_i32 : i32
      %8 = arith.index_cast %7 : i32 to index
      %9 = "npu.block_id"() <{dimension = "X"}> : () -> i64
      %10 = arith.index_cast %9 : i64 to index
      %11 = arith.index_cast %10 : index to i32
      %12 = arith.muli %11, %c16_i32 : i32
      %13 = "npu.block_id"() <{dimension = "Y"}> : () -> i64
      %14 = arith.index_cast %13 : i64 to index
      %15 = arith.index_cast %14 : index to i32
      %16 = arith.muli %15, %c16_i32 : i32
      %17 = arith.muli %16, %arg4 : i32
      %18 = arith.index_cast %17 : i32 to index
      %19 = arith.index_cast %16 : i32 to index
      %20 = arith.index_cast %arg5 : i32 to index
      %21 = arith.index_cast %arg4 : i32 to index
      %22 = arith.index_cast %arg3 : i32 to index
      %23 = arith.subi %22, %19 : index
      %24 = arith.addi %23, %c-1 : index
      %25 = arith.cmpi sge, %24, %c0 : index
      scf.for %arg6 = %c0 to %8 step %c1 {
        %29 = arith.index_cast %arg6 : index to i32
        %30 = arith.muli %29, %c16_i32 : i32
        %31 = arith.muli %arg6, %c-16 : index
        %32 = arith.addi %31, %21 : index
        %33 = arith.addi %32, %c-1 : index
        %34 = arith.cmpi sge, %33, %c0 : index
        %35 = arith.muli %arg6, %c16 : index
        %36 = arith.addi %35, %18 : index
        %37 = arith.muli %35, %20 : index
        scf.for %arg7 = %c0 to %c32 step %c1 {
          %38 = arith.index_cast %arg7 : index to i32
          %39 = arith.addi %12, %38 : i32
          %40 = arith.index_cast %39 : i32 to index
          %41 = "emitc.variable"() <{value = #emitc.opaque<"">}> : () -> i1
          emitc.if %25 {
            %46 = arith.addi %30, %38 : i32
            %47 = arith.cmpi slt, %46, %arg4 : i32
            emitc.assign %47 : i1 to %41 : i1
          } else {
            emitc.assign %false : i1 to %41 : i1
          }
          emitc.if %41 {
            %46 = arith.addi %36, %arg7 : index
            %47 = memref.load %arg0[%46] : memref<?xf32>
            memref.store %47, %3[%c0, %arg7] : memref<16x16xf32, 5>
          } else {
            memref.store %cst, %3[%c0, %arg7] : memref<16x16xf32, 5>
          }
          %42 = arith.subi %20, %40 : index
          %43 = arith.addi %42, %c-1 : index
          %44 = arith.cmpi sge, %43, %c0 : index
          %45 = arith.andi %34, %44 : i1
          emitc.if %45 {
            %46 = arith.addi %37, %40 : index
            %47 = memref.load %arg1[%46] : memref<?xf32>
            memref.store %47, %1[%c0, %arg7] : memref<16x16xf32, 5>
          } else {
            memref.store %cst, %1[%c0, %arg7] : memref<16x16xf32, 5>
          }
        }
        scf.for %arg7 = %c0 to %c32 step %c1 {
          %38 = memref.load %5[%arg7] : memref<32xf32, 5>
          %39 = scf.for %arg8 = %c0 to %c16 step %c1 iter_args(%arg9 = %38) -> (f32) {
            %40 = memref.load %3[%c0, %arg8] : memref<16x16xf32, 5>
            %41 = memref.load %1[%arg8, %arg7] : memref<16x16xf32, 5>
            %42 = emitc.mul %40, %41 : (f32, f32) -> f32
            %43 = emitc.add %arg9, %42 : (f32, f32) -> f32
            scf.yield %43 : f32
          }
          memref.store %39, %5[%arg7] : memref<32xf32, 5>
        }
      }
      %26 = arith.muli %16, %arg5 : i32
      %27 = arith.index_cast %26 : i32 to index
      %28 = arith.cmpi slt, %16, %arg3 : i32
      scf.for %arg6 = %c0 to %c32 step %c1 {
        %29 = arith.index_cast %arg6 : index to i32
        %30 = arith.addi %12, %29 : i32
        %31 = arith.index_cast %30 : i32 to index
        %32 = arith.cmpi slt, %30, %arg5 : i32
        %33 = memref.load %5[%arg6] : memref<32xf32, 5>
        %34 = arith.andi %28, %32 : i1
        emitc.if %34 {
          %35 = arith.addi %27, %31 : index
          memref.store %33, %arg2[%35] : memref<?xf32>
        }
      }
      gpu.return
    }
  }
}
[ict-debug] driver.cc: After convert to EmitC dialect: end

[ict-debug] driver.cc: After emitc::translateToCpp:

